Trading_Model_v4/trading_modelv4_GER40.pth (torch, 23272 bytes, 7 tensors)

shared.0.weight f4 [64, 42]
0	0xbca8e788	-0.020618215
1	0x3df41ee2	0.11919953
2	0xbddb1072	-0.10696496
3	0x3d997ded	0.074947216
4	0x3c31f2ab	0.010861079
5	0xbcce637e	-0.025193926
6	0xbe0ee416	-0.13954195
7	0xbd060d33	-0.03272743
8	0x3bd71f82	0.0065650353
9	0xbe2c08ad	-0.16800185
10	0xbe1dc635	-0.15407641
11	0xbc70b2df	-0.014691084
12	0x3d57c575	0.052678544
13	0xbd6123b6	-0.054965697
14	0xbd7b4d64	-0.061353102
15	0xbe18edd6	-0.14934477
16	0x3d1dc088	0.03851369
17	0xbd151815	-0.03639992
18	0xbd998ff3	-0.07498159
19	0xbdc83955	-0.0977656
20	0x3e073ee3	0.13207583
21	0xbcb9cc97	-0.022680564
22	0xbcbd4f01	-0.023108961
23	0x3ba458d0	0.00501547
24	0x3ded0b30	0.115743995
25	0xbdd0cf3e	-0.10195778
26	0xbde40f71	-0.11135758
27	0xbdd6655d	-0.10468552
28	0x3d47ffe5	0.048828024
29	0x3dad2ca6	0.08455782
30	0xbe17da16	-0.14829287
31	0xbbc5c4bf	-0.006035417
32	0x3cb27768	0.021785453
33	0x3ce67afb	0.028134814
34	0xbb96156c	-0.0045801904
35	0xbdb3f523	-0.087869905
36	0xbc416cb9	-0.011805707
37	0xbd54c980	-0.051949978
38	0x3e0f0890	0.1396811
39	0x3d9cea40	0.07661867
40	0x3ca90392	0.020631585
41	0xbd82b1d4	-0.06381574
42	0xb9106586	-0.0001377073
43	0xbe80441e	-0.2505197
44	0x3e2f3bff	0.1711273
45	0xbd2f0314	-0.042727545
46	0x3db3a879	0.08772368
47	0x3d166120	0.03671372
48	0xbd61d326	-0.055133007
49	0xbe138ccd	-0.1440918
50	0xbf7fb9d9	-0.99892956
51	0xbe13716e	-0.14398739
52	0xbbe25b57	-0.006907861
53	0xbddfb748	-0.1092363
54	0x3dfa8296	0.122319385
55	0xbf1a4966	-0.6026825
56	0x3dee06c7	0.116223864
57	0xbde967c0	-0.11396742
58	0x3db99064	0.090607435
59	0x3de10405	0.10987095
60	0x3e97391a	0.29535753
61	0xbde02525	-0.10944585
62	0xbe17db74	-0.14829808
63	0xbcdc1eeb	-0.026870212
64	0xbd818bd7	-0.063255005
65	0xbe189854	-0.14901859
66	0x3c8c39a2	0.017117325
67	0x3d3d9d48	0.046292573
68	0xbd671276	-0.05641409
69	0x3e2ea4ba	0.17055026
70	0xbe42970b	-0.19002931
71	0x3e0b2137	0.13586889
72	0xbd9068e7	-0.070512585
73	0x3d983752	0.074324265
74	0xbd8c44cf	-0.06849062
75	0xbcfcae78	-0.030844912
76	0xbe654e82	-0.2239323
77	0x3db673e5	0.08908824
78	0x3e09584c	0.13412589
79	0x3e0b99ca	0.13632885
80	0xbb2b1d0b	-0.002610984
81	0x3e15e4b6	0.14638028
82	0x3def183d	0.11674545
83	0x3e86f713	0.26360378
84	0xbca5affe	-0.020225521
85	0x3e6a5edb	0.22887747
86	0xbe18462c	-0.14870518
87	0xbd769a6a	-0.060205854
88	0x3d8bfd7e	0.06835459
89	0xbd2fb9e5	-0.042901892
90	0xbce2e8fc	-0.027698986
91	0xbdd83b0c	-0.10558137
92	0xbe9b2bf2	-0.30306965
93	0x3d91315d	0.070894934
94	0x3e07f7a4	0.13278061
95	0x3c34a023	0.011024508
96	0xbd3716fb	-0.04469965
97	0x3d9855f0	0.07438266
98	0xbbeba2c3	-0.0071910336
99	0xbf6807e6	-0.9063705
100	0xbd2b6233	-0.041841697
101	0xbee9e4af	-0.45682284
102	0x3dc2b504	0.09507182
103	0xbe164a44	-0.14676768
104	0xbdba8e20	-0.091091394
105	0x3d0843fe	0.033267967
106	0x3ddd4a04	0.10805133
107	0xbde306ff	-0.11085319
108	0x3e670c62	0.22563317
109	0x3ed50daf	0.41612002
110	0x3ebec9ac	0.37263238
111	0x3e7b8461	0.24562217
112	0x3eab8b1c	0.3350457
113	0x3f13a3e8	0.57671976
114	0xbed42f65	-0.4144241
115	0x3c7e6788	0.015527613
116	0x3d8d6e14	0.06905761
117	0xbe18ff08	-0.14941037
118	0x3d8108e4	0.06300524
119	0x3e98e2db	0.29860577
120	0x3d18f2d1	0.037340943
121	0x3cf1a8ea	0.02949949
122	0x3e8287e5	0.25494304
123	0x3e080fc6	0.13287267
124	0x3d7cd9d5	0.06173118
125	0x3da376b2	0.07981624
126	0xbc5d938a	-0.013523946
127	0xbb11d267	-0.0022250654
128	0xbdde432b	-0.10852655
129	0xbd52253d	-0.051305044
130	0x3d555c8c	0.052090213
131	0x3cf5d3ec	0.030008279
132	0x3cde01f8	0.027100548
133	0x3dce50c1	0.10073996
134	0xbea47a2d	-0.32124463
135	0xbd4b7ddc	-0.049680576
136	0xbdf80194	-0.12109676
137	0x3d962ad2	0.07332386
138	0xbd583963	-0.052789103
139	0xbea51c7a	-0.32248288
140	0xbe5283e2	-0.20558122
141	0xbd0bb788	-0.034110576
142	0xbe848d7c	-0.25889194
143	0xbe50ea26	-0.2040182
144	0x3e41dbc5	0.18931492
145	0xbe387fca	-0.18017498
146	0xbced7409	-0.028985994
147	0xbccb9752	-0.024852429
148	0xbe015c02	-0.12632754
149	0xbdae7378	-0.08518118
150	0x3d980896	0.07423513
151	0x3df158d3	0.1178452
152	0xbd1cf41e	-0.038318746
153	0xbd366bf7	-0.044536557
154	0xbd90f0ec	-0.07077202
155	0xbd173a24	-0.03692068
156	0xbe132684	-0.14370161
157	0xbcae180f	-0.021251706
158	0xbe594ca0	-0.21220636
159	0x3db755ba	0.08951898
160	0xbcf09587	-0.029368175
161	0x3d55adbb	0.052167635
162	0x3d12213d	0.03567623
163	0xbd20f5e3	-0.039296996
164	0x3e203beb	0.15647857
165	0x3e0c30d9	0.13690509
166	0xbd8baef4	-0.06820479
167	0xbb6b173a	-0.0035871998
168	0x3cde84b1	0.027162882
169	0xbd7573c2	-0.05992485
170	0x3d8a3407	0.06748205
171	0xbdb7ee43	-0.08980992
172	0x3e1bf763	0.1523109
173	0x3d031d9e	0.032010667
174	0xbdc336d9	-0.09531946
175	0x3e0ae06d	0.13562174
176	0xbf853a22	-1.0408366
177	0x3e32ded9	0.17467822
178	0xbb41f288	-0.0029594023
179	0xbda1bb79	-0.07897086
180	0x3e4d9d1f	0.20079468
181	0xbf46e7d2	-0.7769748
182	0xbcb98d2b	-0.022650322
183	0x3f2c609f	0.6733493
184	0xbe5c3657	-0.21505104
185	0xbd36bba9	-0.04461256
186	0x3dabb202	0.08383562
187	0xbd9264ca	-0.0714813
188	0x3e2f5dcf	0.17125629
189	0xbcf4a0e0	-0.029861867
190	0x3e134bd3	0.14384393
191	0x3e30bf39	0.17260446
192	0xbe6bfe60	-0.23046255
193	0xbc979dda	-0.018507887
194	0xbe71fb80	-0.23631096
195	0xbd8061b8	-0.06268638
196	0x3e58bb51	0.21165206
197	0xbf0e6188	-0.5561757
198	0x3f03a0b6	0.514171
199	0x3d82b2ec	0.06381783
200	0xbd21f68d	-0.03954177
201	0xbbdc1be3	-0.0067171915
202	0x3daa43bc	0.083137006
203	0x3ca8abfb	0.02058982
204	0xbcced92c	-0.02525004
205	0xbe2e6d46	-0.17033872
206	0x3de9ada5	0.11410073
207	0x3d9241b8	0.07141441
208	0x3ad7385b	0.0016419993
209	0x3e4cb8fe	0.19992444
210	0xbdf53fd2	-0.119750634
211	0x3e214e7e	0.15752599
212	0x3dd9dc43	0.10637715
213	0x3d975658	0.07389516
214	0x3e4a7eb4	0.19774896
215	0x3d94300f	0.07235729
216	0xbda454b0	-0.08023965
217	0xbd15c679	-0.03656623
218	0xbf1cb190	-0.6120844
219	0xbd798c6c	-0.060924932
220	0xbd92e496	-0.071725056
221	0x3d890603	0.066906
222	0xbb7e3ac4	-0.0038792351
223	0xbea70a5e	-0.32625097
224	0x3f1e29c3	0.61782473
225	0xbef31f42	-0.47484785
226	0x3f1fbfc1	0.6240197
227	0x3e676139	0.22595681
228	0x3d56ca9c	0.052439317
229	0xbdea45c8	-0.11439091
230	0xbd9f2cd5	-0.07772223
231	0xbd8b6e28	-0.0680812
232	0x3e09d698	0.13460767
233	0x3da45d5a	0.08025618
234	0x3da4f335	0.080542006
235	0x3cd82620	0.026385367
236	0x3ac33429	0.0014892864
237	0x3e18b4ad	0.14912672
238	0xbe30e9cb	-0.17276685
239	0x3f7368e4	0.95081925
240	0xbf3f851d	-0.7481249
241	0xbd500827	-0.050789025
242	0x3e0ee644	0.13955027
243	0x3e1cc3d7	0.15309082
244	0x3db60311	0.088873036
245	0x3e2bbc42	0.16771033
246	0x3de50546	0.111826465
247	0x3abd0668	0.0014421465
248	0xbe0f915f	-0.14020298
249	0x3d0d0c78	0.03443572
250	0xbd879557	-0.06620281
251	0xbaf06f33	-0.0018343687
252	0x3d7e4cbd	0.062084902
253	0xbd7d4c07	-0.061840083
254	0xbd2baa45	-0.04191043
255	0x3ddd56c5	0.108075656

shared.0.bias f4 [64]
0	0xbd8d0ef1	-0.068876155
1	0x3e0e49fb	0.13895409
2	0x3e24fe8d	0.16112728
3	0x3db65d8a	0.0890456
4	0x3e0bf7a1	0.13668682
5	0x3e1d0c86	0.15336809
6	0x3c3e31e1	0.011608572
7	0xbe06f09b	-0.13177721
8	0x3e8195ff	0.2530975
9	0x3e7b23c3	0.24525361
10	0x3e67c108	0.2263223
11	0x3d6ebbc0	0.05828452
12	0xbd89c885	-0.06727699
13	0x3ea5b41a	0.3236397
14	0xbcd7612f	-0.026291458
15	0xbdb8d1f1	-0.09024418
16	0xbce5a698	-0.02803354
17	0x3d4dcd73	0.05024476
18	0x3d42a164	0.047517195
19	0x3eb0705a	0.34460717
20	0xbe1c5328	-0.15266097
21	0x3e3c8323	0.184094
22	0x3e90539a	0.28188783
23	0xbc75ec51	-0.0150099555
24	0x3ec912b4	0.39272082
25	0xbdba5ac5	-0.09099344
26	0xbe12768f	-0.14303039
27	0x3e08ce48	0.1335994
28	0xbe1943db	-0.14967291
29	0x3e422170	0.18958068
30	0x3eb331bb	0.3499888
31	0x3ea73379	0.32656458
32	0xbe0e6969	-0.13907398
33	0xbdbb7340	-0.091528416
34	0x3d851e3e	0.06499909
35	0xbe1c2be0	-0.15251112
36	0x3e30985b	0.17245619
37	0x3e5bace3	0.2145267
38	0x3ea1cb27	0.31600305
39	0xbc66eb5f	-0.014094203
40	0xbd4d1c46	-0.05007579
41	0x3d530089	0.051514182
42	0xbe01200e	-0.12609884
43	0x3e200faa	0.15630975
44	0x3e6afb95	0.22947533
45	0xbd85dd72	-0.06536378
46	0x3d0dad93	0.03458936
47	0xbd50b883	-0.050957214
48	0xbcc7d2b9	-0.024392473
49	0xbe741ada	-0.23838368
50	0xbe0e0e99	-0.13872756
51	0x3c589bb0	0.013220713
52	0xbb28884a	-0.0025716
53	0x3ba8bcee	0.0051494753
54	0xbe1336e9	-0.14376415
55	0x3dea37bb	0.11436411
56	0xbce5d241	-0.028054358
57	0x3d2fdc98	0.042934984
58	0x3d8577fa	0.06517024
59	0xbda56047	-0.08075004
60	0x3d41c2af	0.047304805
61	0x3e8a5959	0.27021292
62	0xbd23defd	-0.04000758
63	0x3eb14ab0	0.34627295

shared.2.weight f4 [32, 64]
0	0x3d20d160	0.039262176
1	0xbd12af03	-0.035811435
2	0x3eaf138d	0.34194604
3	0x3daea7c9	0.08528096
4	0xbe025e34	-0.12731248
5	0xbc96a48d	-0.01838901
6	0x3ba40fe5	0.0050067776
7	0x3d9a768e	0.07542144
8	0xbeab17fe	-0.33416742
9	0x3cb8f5bb	0.02257811
10	0xbaed1af3	-0.0018089697
11	0xbd9d00b6	-0.07666151
12	0xbd70a8a9	-0.058754597
13	0xbed36d51	-0.4129434
14	0x3cba4937	0.02273999
15	0xbea01351	-0.31264737
16	0xbc5be630	-0.01342158
17	0xbdee3ab3	-0.1163229
18	0x3d273794	0.040824488
19	0xbe1e2c33	-0.15446548
20	0x3de65f34	0.11248627
21	0x3e8fcb76	0.28084916
22	0xbde2cd47	-0.1107431
23	0x3e60e7e4	0.21963459
24	0x3e52a7bc	0.20571798
25	0x3be73320	0.007055655
26	0x3e3a2f3a	0.18182078
27	0x3e1c7955	0.1528066
28	0x3d93c9c2	0.072162166
29	0x3d9123b9	0.07086892
30	0x3d5ed2be	0.0544002
31	0xbe9658b7	-0.2936456
32	0xbda61538	-0.08109516
33	0x3d882add	0.066488005
34	0xbdb17271	-0.08664406
35	0x3dc932b0	0.09824121
36	0x3cd205a0	0.025637448
37	0x3d319018	0.04335031
38	0xbc06a75c	-0.0082186125
39	0x3df1c977	0.118060045
40	0x3d984863	0.07435682
41	0x3dd78f5a	0.10525389
42	0x3d13690c	0.035988852
43	0xbe8b235e	-0.2717542
44	0x3dc675d6	0.09690444
45	0x3da2f9a6	0.07957773
46	0xbd305faf	-0.04306
47	0x3d0c2d81	0.034223083
48	0xbbac738e	-0.0052627986
49	0x3ea0f044	0.31433308
50	0x3ddcdcf2	0.107843295
51	0x3d1d3acc	0.03838615
52	0x3c2e12da	0.010624612
53	0x3e501b22	0.2032285
54	0xbd6818b0	-0.05666417
55	0xbe2d883e	-0.16946504
56	0x3deca63c	0.11555144
57	0xbe1eb01c	-0.15496868
58	0x3e2a7399	0.1664566
59	0x3da9685f	0.0827186
60	0x3ecdcbcd	0.4019455
61	0x3d0190db	0.031632286
62	0xbd10608e	-0.03524833
63	0x3f4330fd	0.76246625
64	0x3de196cb	0.110150896
65	0x3df78d7c	0.12087533
66	0xbd937ec3	-0.07201912
67	0xbdad30ba	-0.084565595
68	0xbe3f7496	-0.18696818
69	0x3ef6a7f1	0.48175004
70	0xbd30014f	-0.042969998
71	0x3cbc33a8	0.02297385
72	0x3ebba1c8	0.36646867
73	0x3e26820b	0.16260545
74	0x3e1cd134	0.1531418
75	0x3e2a3727	0.16622601
76	0xbcfa267e	-0.030535933
77	0xbe80802b	-0.25097784
78	0x3c55d868	0.013052084
79	0xbf03854b	-0.51375264
80	0x3d19fafc	0.037592873
81	0xbc9319c6	-0.017956626
82	0x3c685280	0.014179826
83	0xbeab39b9	-0.33442476
84	0xbd72b803	-0.05925752
85	0x3df1ff43	0.118162654
86	0x3e8a2f80	0.26989365
87	0x3e67368c	0.22579402
88	0x3dcfe893	0.10151782
89	0x3d96f39c	0.073706836
90	0x3e97ad48	0.2962439
91	0x3f14adfa	0.5807797
92	0x3c0f64a5	0.008752023
93	0x3e1b67d1	0.15176322
94	0xbed9fcaf	-0.42575595
95	0xbe34a313	-0.17640333
96	0x3df192be	0.11795567
97	0xbd1d50d0	-0.038407147
98	0xbcce659e	-0.02519494
99	0x3c8a0989	0.01685025
100	0x3c839128	0.016060427
101	0xbd3760bc	-0.044769987
102	0xbdb60144	-0.0888696
103	0xbf11cf94	-0.56957364
104	0xbca6907c	-0.020332567
105	0x3d5c9313	0.0538512
106	0xbda565da	-0.08076067
107	0x3eccbd23	0.3998805
108	0x3d66444c	0.056217477
109	0xbd59f5c4	-0.053212896
110	0xbe29a3b3	-0.16566353
111	0xbd4fa5cd	-0.05069523
112	0xbdae3018	-0.08505267
113	0x3e3ed324	0.18635231
114	0xbcf5eb78	-0.030019507
115	0xbdd37c38	-0.10326427
116	0x3ef32d27	0.47495386
117	0xbe99ef87	-0.30065557
118	0xbd646679	-0.055761788
119	0xbdce590c	-0.10075578
120	0xbe447cef	-0.19188283
121	0x3e85bf85	0.2612268
122	0xbca52ba6	-0.020162415
123	0x3e65f292	0.22455814
124	0x3d8c43df	0.06848883
125	0x3c40ffc5	0.01177973
126	0xbd0819a4	-0.033227578
127	0xbe287388	-0.16450322
128	0x3d76e324	0.060275212
129	0xbcee801c	-0.029113822
130	0xbd0311b8	-0.03199932
131	0xbdc07de4	-0.09399012
132	0xbe1a28f3	-0.15054683
133	0xbcfe9d1a	-0.031080771
134	0xbd23dbec	-0.040004656
135	0xbdb12588	-0.08649737
136	0xbd13219a	-0.035920717
137	0xbd6aa019	-0.057281587
138	0xbdd63f71	-0.10461319
139	0xbe1b0207	-0.15137492
140	0x3d7ddb27	0.061976578
141	0xbe0c65f9	-0.13710774
142	0xbdd11566	-0.102091596
143	0xbd5887ed	-0.052864004
144	0xbd96dd3c	-0.07366416
145	0xbda52fd0	-0.0806576
146	0xbd0708d8	-0.03296742
147	0xbd1aacd7	-0.03776249
148	0x3c46eb00	0.012140989
149	0xbda9ee1a	-0.082973674
150	0xbda1ba47	-0.07896858
151	0xbd39c502	-0.045353897
152	0x3d114480	0.035465717
153	0xbdb4749c	-0.08811304
154	0xbd2ada7e	-0.041712277
155	0xbddd0be2	-0.10793282
156	0x3dd56ed0	0.104215264
157	0xbdfb977b	-0.12284752
158	0xbd077081	-0.033066276
159	0xbcd6ba28	-0.026211813
160	0xbda61156	-0.08108775
161	0xbe035933	-0.12826996
162	0xbd29f2c9	-0.041491304
163	0xbccd5b70	-0.025068015
164	0x3cfc5c4e	0.030805733
165	0xbd22f4fb	-0.039784413
166	0xbd9ef484	-0.077614814
167	0xbdbfa540	-0.09357691
168	0xbdf3327e	-0.11874865
169	0x3c58bf41	0.013229192
170	0xbdf0819c	-0.11743471
171	0x3d3d4c40	0.046215296
172	0x3de2e60e	0.11079036
173	0xbc2b9f00	-0.01047492
174	0xbe01e11c	-0.12683529
175	0xbd160e50	-0.036634743
176	0xbdd042d1	-0.10168994
177	0x3d90499e	0.07045291
178	0xbc8d5ec0	-0.017257094
179	0xbd98b238	-0.074558675
180	0xbe60f970	-0.21970153
181	0xbe1d6f01	-0.15374376
182	0xbdefc382	-0.11707212
183	0x3c7cea83	0.015436771
184	0xbd8e9e29	-0.069637604
185	0xbe0a4728	-0.13503706
186	0xbe1886f5	-0.14895232
187	0x3d0718eb	0.032982748
188	0xbd3ef56f	-0.046620782
189	0xbe45791f	-0.19284485
190	0xbbb47fa0	-0.005508378
191	0x3dbab1bd	0.09115932
192	0x3da28d65	0.07937125
193	0xbca5fe3a	-0.020262826
194	0x3eba87bd	0.36431685
195	0xbd60b03c	-0.05485557
196	0xbe070565	-0.13185652
197	0x3d9f0782	0.07765104
198	0x3d028f4d	0.031874944
199	0x3d8ee95c	0.069781035
200	0xbd50f5c9	-0.05101565
201	0x3de47180	0.11154461
202	0xbd237653	-0.039907765
203	0xbe200c8d	-0.15629788
204	0x3e0b2c7f	0.13591193
205	0xbecb9ca6	-0.3976795
206	0xbd1382e2	-0.03601349
207	0xbe9620ba	-0.29321843
208	0x3d4191ec	0.047258303
209	0xbe35040c	-0.17677325
210	0x3de1fde6	0.110347554
211	0xbd8c7429	-0.06858093
212	0xbc386cc6	-0.011256402
213	0x3e5cad66	0.21550521
214	0x3cb90413	0.02258495
215	0x3daaeaff	0.08345603
216	0x3e2adb38	0.16685188
217	0x3b0bc080	0.0021324456
218	0xbdb959bc	-0.090503186
219	0xbc292966	-0.010324812
220	0x3bc4d03c	0.006006269
221	0x3c70de6e	0.014701469
222	0x3dde1e26	0.10845594
223	0xbd8b2d3a	-0.06795736
224	0x3db866cc	0.09003982
225	0x3dc5d7ef	0.09660327
226	0xbdcb1e9a	-0.09917946
227	0x3d33fa84	0.043940082
228	0x3ce0e2d1	0.027451904
229	0x3c0afdc7	0.008483357
230	0xbdd26a72	-0.10274209
231	0xbe28f5e5	-0.16500051
232	0x3d256b27	0.04038539
233	0x3cda9e0e	0.026686694
234	0xbe0de23f	-0.13855837
235	0xbeba7f8a	-0.3642543
236	0x3e690e5e	0.22759387
237	0xbd74cd88	-0.059766322
238	0x3d4e96e6	0.050436877
239	0xbd2de4ea	-0.042454638
240	0xbdb971f3	-0.09054937
241	0x3eb13035	0.34607092
242	0x3bf3c420	0.0074391514
243	0x3da6e9fc	0.08150098
244	0x3d0b77e7	0.034049895
245	0x3de198bc	0.1101546
246	0xbde976db	-0.11399623
247	0x3d92be57	0.07165211
248	0xbda54a3e	-0.08070801
249	0xbdd2dd03	-0.10296061
250	0x3d88c828	0.06678802
251	0xbe5db5ba	-0.21651354
252	0x3df5a6e8	0.119947255
253	0x3d3160e2	0.043305285
254	0xbde29428	-0.11063415
255	0x3ecd14a0	0.40054798

shared.2.bias f4 [32]
0	0x3e85e516	0.2615134
1	0x3e29131c	0.16511196
2	0x3c547b64	0.012968872
3	0x3e9b0b88	0.30282235
4	0xbd12d37c	-0.03584622
5	0xbdceb904	-0.10093883
6	0xbde4089a	-0.11134453
7	0xbdf758f9	-0.12077517
8	0xbd172384	-0.036899105
9	0x3da17897	0.07884329
10	0x3c16f003	0.009212497
11	0x3ebfe1a9	0.37476853
12	0x3ebfdeb9	0.3747461
13	0xbe14d357	-0.14533745
14	0xbdfa0562	-0.12208058
15	0x3df6235f	0.12018465
16	0x3dbc81cd	0.09204445
17	0x3e2ceea7	0.16887914
18	0xbe12ff8a	-0.14355293
19	0x3e989a6a	0.2980531
20	0x3ecd5edf	0.40111443
21	0x3e9a6f89	0.3016322
22	0x3e09f543	0.13472466
23	0xbd8705a6	-0.06592874
24	0x3e214636	0.1574944
25	0x3ed7f526	0.4217922
26	0x3e6ad5e4	0.22933155
27	0x3e9545ae	0.29154724
28	0x3ef42c9b	0.4769028
29	0xbd780551	-0.060551945
30	0xbe331c81	-0.17491342
31	0x3d248c6b	0.040172976

regressor.weight f4 [1, 32]
0	0x3cb503d0	0.022096545
1	0xba0ba119	-0.00053264346
2	0x3bc2fc58	0.005950492
3	0x3d4a45cc	0.04938297
4	0xbe1002dd	-0.14063592
5	0x3e10babc	0.14133734
6	0xbdcb0dfb	-0.09914776
7	0xbdb1e5d3	-0.086864136
8	0xbcff7b77	-0.031186802
9	0x3b4714b3	0.0030377328
10	0xbd8061b7	-0.062686376
11	0x3d1d9fb4	0.038482383
12	0x3d8d0ad0	0.06886828
13	0xbd00ec51	-0.03147537
14	0xbc8dcbfc	-0.017309181
15	0xbd850e92	-0.0649692
16	0xba1c1b0e	-0.0005954959
17	0x3a0d9f05	0.0005402419
18	0x3da42237	0.080143385
19	0x3d0f350d	0.034962703
20	0x3deaf208	0.11471945
21	0x3d5341e0	0.051576495
22	0xba422bf4	-0.0007407062
23	0xba2e803b	-0.0006656681
24	0xb9d29e4a	-0.00040172256
25	0x3ddeb7c3	0.108748935
26	0xbc92a9f8	-0.017903313
27	0xbd44fb23	-0.048091065
28	0x3c44c974	0.012010921
29	0xbd72f355	-0.05931409
30	0xbd93e75f	-0.07221865
31	0x39eef395	0.0004557638

classifier.weight f4 [3, 32]
0	0x3e1db80f	0.15402244
1	0x3db782fe	0.08960532
2	0xbdca7f08	-0.098875105
3	0xbd0de57c	-0.03464268
4	0xbd6141d5	-0.054994423
5	0xbdd16ec7	-0.10226207
6	0x3c13bc66	0.009017086
7	0x3c5aad0c	0.013346922
8	0x3e0d482b	0.13797061
9	0x3f125e3f	0.5717506
10	0xbdf02b6b	-0.11727031
11	0x3c4dc064	0.0125580765
12	0xbd7cfde7	-0.061765578
13	0xbd0a9fe8	-0.033843905
14	0xbc19805c	-0.009368982
15	0x3d17076a	0.036872305
16	0x3e4c5f2d	0.19958182
17	0x3e22e8df	0.15909146
18	0x3e3ce313	0.18445997
19	0xbe6b9307	-0.23005305
20	0x3e25ac25	0.16178949
21	0x3e57af34	0.21062928
22	0x3e311f36	0.17297062
23	0x3da6da40	0.08147097
24	0x3dcdf8b1	0.100572
25	0x3e376a1a	0.17911568
26	0x3e935b51	0.28780606
27	0x3e98f835	0.29876867
28	0x3e7d7d0c	0.24754733
29	0xbd5a7ccc	-0.05334167
30	0xbd2bdbad	-0.041957546
31	0xbee5cfb1	-0.44885018
32	0xbe31518c	-0.17316264
33	0xbf858640	-1.0431595
34	0x3d85c55d	0.06531785
35	0xbe8e012e	-0.27735275
36	0xbe25e3ee	-0.1620023
37	0x3db9414e	0.09045659
38	0xbc778dc2	-0.015109481
39	0xbe0ae58d	-0.13564129
40	0xbe0f1dd6	-0.13976225
41	0xbef695ea	-0.4816125
42	0x3d82b85b	0.06382819
43	0x3d110da3	0.035413396
44	0xbd917fbb	-0.07104441
45	0x3dfc488f	0.12318527
46	0xbd67ade1	-0.05656231
47	0xbdce2840	-0.10066271
48	0x3e2ed04c	0.17071646
49	0xbe8f3508	-0.27970147
50	0x3d3798d6	0.04482349
51	0xbea21916	-0.31659764
52	0xbea39143	-0.31946763
53	0xbed8af34	-0.4232117
54	0x3e6c4c88	0.2307607
55	0xbe99b493	-0.3002058
56	0xbf57a65c	-0.8423822
57	0x3e0d8b9b	0.13822787
58	0xbeedb209	-0.46424893
59	0xbe7d2868	-0.24722445
60	0x3e90a9df	0.282546
61	0xbd0b5807	-0.034019496
62	0x3d417a5b	0.047235828
63	0x3eeb2606	0.45927447
64	0x3e01cf60	0.12676764
65	0x3e4a4c5a	0.19755688
66	0xbcc1a0a7	-0.023636175
67	0xbafb0a0d	-0.0019152776
68	0x3d7043df	0.058658477
69	0x3de05cb0	0.10955179
70	0xbd0745a5	-0.033025403
71	0x3cc55ba0	0.024091542
72	0xbdbb749d	-0.091531016
73	0xbf16caa3	-0.5890295
74	0xbdce2523	-0.10065677
75	0xbf37c483	-0.7178423
76	0xbdee0057	-0.116211586
77	0x3dcd3c20	0.100212336
78	0x3d04ba6b	0.032404345
79	0xbe5781c6	-0.21045598
80	0xbf4921f5	-0.7856744
81	0xbe0ae568	-0.13564074
82	0xbe276e72	-0.16350725
83	0x3c7250a5	0.014789735
84	0xbe3be71d	-0.18349881
85	0x3e2086fd	0.15676494
86	0xbf5ebb04	-0.87004113
87	0xbe26a419	-0.16273536
88	0x3e4999d2	0.19687584
89	0xbe275e78	-0.1634463
90	0x3e288791	0.16457964
91	0xbe68a563	-0.2271934
92	0xbf315d6a	-0.69283164
93	0xbda17651	-0.07883895
94	0xbe438376	-0.19093117
95	0xc015e3a5	-2.3420193

classifier.bias f4 [3]
0	0x3ee3cd99	0.44492796
1	0xbdc08b7a	-0.09401603
2	0xbedce40e	-0.43142742
