Trading_Model_v4/trading_modelv4_NAS100.pth (torch, 23348 bytes, 7 tensors)

shared.0.weight f4 [64, 42]
0.35266262 -0.2460468 -0.043500457 -0.21853857 -0.06844025 0.072727144 -0.2155021 -0.04397585
-0.6627103 0.06201221 0.119416185 -0.18780418 -0.067175806 -0.26977202 0.1677996 0.71434194
-0.051100988 -0.034705807 0.013448685 0.02376882 -0.060473736 0.039304595 0.04477239 0.027883139
-0.25523016 -0.08223348 -0.07440492 0.03862569 0.28833124 -0.66891146 0.46191245 0.15242438
-0.19221455 -0.11335989 -0.09034381 0.014828002 -0.029501516 -0.22192693 0.120767385 -0.02561849
-0.055372708 0.24438697 0.35501808 -0.19295183 0.04298583 -0.32216695 -0.12472422 -0.1258618
-0.18550014 -0.17430338 -0.4965397 -0.3317335 -0.274492 -0.36745742 -0.4072508 -0.0914645
-0.006700374 0.13846532 -0.08330826 0.12090276 0.0019604538 -0.02516046 -0.2102489 -0.068817586
-0.06444277 -0.08173327 0.118236355 0.091830544 0.32551566 0.24683224 0.18531518 -0.1977228
0.15428741 -0.46799943 -0.16950984 -0.5241848 -0.32741728 0.012710709 0.25776115 0.30539918
0.049835265 0.6248737 0.16096947 0.41865316 0.09111225 0.14847879 -0.052199267 0.19778761
0.16399215 0.09296348 0.035355024 0.20345767 -0.27631217 0.0640195 -0.14742754 -0.035915937
-0.05815483 0.05889103 0.4906218 -1.1073765 0.4962848 0.27139512 0.113049746 0.028462859
-0.09877096 -0.1295897 0.07767017 0.108758464 0.21868193 0.22102982 0.2712011 0.1028776
0.14140859 1.0841671 -0.88323724 -0.12682499 -0.15265097 0.06803091 -0.12990887 0.03917345
0.13504246 0.16150159 -0.038792193 0.12933598 0.40304816 0.13206424 -0.19398029 0.19235732
-0.07390549 -0.020869736 0.07365836 -0.022248523 -0.051118277 -0.11675839 -0.28319338 -0.15820068
-0.073491685 0.09286774 0.13305315 -0.4147643 -0.24692701 1.0534362 -0.3573622 0.044880204
0.19324361 0.119058155 0.16745012 0.13615966 0.06168586 0.015932512 -0.056934755 -0.15272474
-0.08134966 0.07707374 0.2151547 -0.6098578 0.81038946 -0.13485324 -0.04851235 -0.059053645
-0.022299744 -0.093385845 -0.01289789 0.034288395 -0.068997905 0.013342881 0.00093860255 0.32057872
-0.078308426 0.035168283 -0.12884589 0.06893705 -0.059522416 -0.14175853 0.06815608 0.093150474
-0.18167624 -0.08439098 0.10846695 0.09217421 0.04127068 -0.1218119 -0.0013678672 -0.1654361
-0.07460894 -0.117892034 -0.0075830324 -0.03008901 -0.06972903 0.024680289 0.101922385 -0.17275567
-0.11956979 -0.093055435 -0.016137594 0.101103365 0.04291974 0.04615015 -0.07000368 -0.13380389
-0.044437647 -0.08400117 -0.03865038 0.019485515 0.014462272 0.02996236 -0.018014595 -0.00911388
-0.16682312 0.048534494 0.075745374 0.045670994 -0.12791733 0.10363005 -0.08578418 -0.10227384
-0.0012838827 0.07681107 0.13674681 0.0806207 0.0024299691 -0.10562209 -0.0067275558 -0.100890286
-0.12043473 -0.1022766 0.011256928 0.010348644 0.082009204 -0.011542541 0.03782671 0.09299274
-0.049521856 -0.006627538 0.002639586 -0.0022616556 -0.016324349 -0.12628458 -0.09205768 0.12302867
0.039222848 -0.1579765 -0.114323705 -0.08107201 0.1376359 -0.12255558 -0.07631006 0.10946703
0.029361295 0.14105085 0.06725232 -0.09686591 -0.08484102 -0.07793234 -0.009254423 -0.15023693
00000000: 3290 b43e b1f3 7bbe 892d 32bd 93c8 5fbe
00000010: 672a 8cbd f8f1 943d 95ac 5cbe 0520 34bd
00000020: 62a7 29bf 8400 7e3d 7990 f43d bd4f 40be
00000030: 7893 89bd 8f1f 8abe a9d3 2b3e 1ddf 363f
00000040: 454f 51bd ad27 0ebd e057 5c3c d4b6 c23c
00000050: 4fb3 77bd dbfd 203d 4163 373d 2e6b e43c
00000060: 87ad 82be 076a a8bd 9b61 98bd f935 1e3d
00000070: 27a0 933e c83d 2bbf ca7f ec3e 2315 1c3e
00000080: e4d3 44be 3b29 e8bd 2d06 b9bd 26f1 723c
00000090: 2aad f1bc d040 63be e454 f73d dedd d1bc
000000a0: 7ece 62bd 9440 7a3e eec4 b53e 2a95 45be
000000b0: e911 303d 11f3 a4be 696f ffbd eae1 00be
000000c0: c0f3 3dbe 967c 32be 743a febe f9d8 a9be
000000d0: 378a 8cbe 6123 bcbe 2d83 d0be bd51 bbbd
000000e0: d08e dbbb dac9 0d3e 859d aabd de9b f73d
000000f0: f57a 003b 4f1d cebc 7d4b 57be 3cf0 8cbd
00000100: 92fa 83bd c663 a7bd e725 f23d a711 bc3d
00000110: fda9 a63e 97c1 7c3e 43c3 3d3e d877 4abe
00000120: 85fd 1d3e 9f9d efbe fd93 2dbe fa30 06bf
00000130: 3da3 a7be 9440 503c 45f9 833e 485d 9c3e
00000140: 1020 4c3d b9f7 1f3f 2ed5 243e b559 d63e
00000150: 0f99 ba3d d30a 183e e6ce 55bd d688 4a3e
00000160: 8fed 273e a363 be3d 6ed0 103d 3557 503e
00000170: ca78 8dbe a81c 833d 3ff7 16be 971c 13bd
00000180: c233 6ebd b837 713d c832 fb3e 83be 8dbf
00000190: 0b19 fe3e 4df4 8a3e a086 e73d f12a e93c
000001a0: 6e48 cabd 2ab3 04be 8a11 9f3d c2bc de3d
000001b0: 28ee 5f3e a455 623e dfda 8a3e 7eb1 d23d
000001c0: 6acd 103e fdc5 8a3f d61b 62bf 69de 01be
000001d0: 8950 1cbe ca53 8b3d d506 05be 5774 203d
000001e0: 9248 0a3e ac60 253e 90e4 1ebd a770 043e
000001f0: 545c ce3e d93b 073e c5a2 46be 51f9 443e
00000200: c35b 97bd 02f7 aabc 32da 963d 8942 b6bc
00000210: 6661 51bd 061f efbd b9fe 90be 5cff 21be
00000220: cf82 96bd 7131 be3d 163f 083e fd5b d4be
00000230: 6fda 7cbe ffd6 863f 2ef8 b6be 4ed4 373d
00000240: a7e1 453e c3d4 f33d 0b78 2b3e 706d 0b3e
00000250: 50aa 7c3d e684 823c 6b34 69bd e063 1cbe
00000260: a79a a6bd d6d8 9d3d 8451 5c3e a41f 1cbf
00000270: af75 4f3f f816 0abe e3b4 46bd 3ce2 71bd
00000280: f4ad b6bc 1441 bfbd ac51 53bc fd71 0c3d
00000290: c64e 8dbd 199c 5a3c 8d0c 763a e522 a43e
000002a0: 2b60 a0bd 9e0c 103d 2df0 03be de2e 8d3d
000002b0: c7cd 73bd 2629 11be 6a95 8b3d adc5 be3d
000002c0: 5609 3abe 2ed5 acbd ec23 de3d d5c5 bc3d
000002d0: 720b 293d 8478 f9bd 024a b3ba 1568 29be
000002e0: 92cc 98bd 6171 f1bd 167b f8bb 3a7d f6bc
000002f0: 18ce 8ebd 512e ca3c afbc d03d dde6 30be
00000300: 02e1 f4bd d993 bebd fd32 84bc 480f cf3d
00000310: 9ccc 2f3d f107 3d3d 175e 8fbd e303 09be
00000320: 4004 36bd ce08 acbd dc4f 1ebd 16a0 9f3c
00000330: 2af3 6c3c a073 f53c 5893 93bc 6252 15bc
00000340: aed3 2abe 1bcc 463d 6420 9b3d 8211 3b3d
00000350: c3fc 02be fe3b d43d 9eaf afbd f274 d1bd
00000360: f447 a8ba 1f4f 9d3d 5b07 0c3e 771c a53d
00000370: 1e40 1f3b 6550 d8bd d472 dcbb 919f cebd
00000380: 7ca6 f6bd 6576 d1bd fa6e 383c 5c8d 293c
00000390: 71f4 a73d ed1c 3dbc 2ef0 1a3d fa72 be3d
000003a0: 6ed7 4abd d12b d9bb e8fc 2c3b 4938 14bb
000003b0: a4ba 85bc bf50 01be bd88 bcbd 75f6 fb3d
000003c0: 23a8 203d 97c4 21be 8c22 eabd 1509 a6bd
000003d0: 6df0 0c3e 6cfe fabd 7348 9cbd 4030 e03d
000003e0: 1987 f03c a26f 103e 96bb 893d a261 c6bd
000003f0: 21c1 adbd fe9a 9fbd dd9f 17bc b6d7 19be

shared.0.bias f4 [64]
0.2896547 0.1583544 -0.15056528 0.024879703 0.12149495 -0.14843313 -0.06307274 0.02346046
-0.051158022 -0.05293213 -0.1567996 -0.017202383 0.20939073 0.29122007 -0.09684898 0.34743097
0.2506484 0.27852854 0.4869979 0.37831366 -0.12506372 0.10336967 0.22905646 0.21135652
0.27534544 -0.0016440031 0.31131226 0.40364638 0.061794702 0.33159348 0.23244952 -0.0027525418
0.40536773 0.3779039 0.4485169 -0.11146259 0.20792907 0.17022929 0.28119782 0.29575288
-0.13425477 0.18366797 0.2954145 -0.049818058 0.050984174 0.23518518 0.30495387 -0.047549766
-0.1210008 -0.08426367 -0.058134235 0.16371714 0.5256913 0.032927554 0.014099464 0.02983676
0.31841168 -0.054265674 0.23914465 0.3123911 0.22157456 0.18223006 0.18618883 0.13406685
00000000: 9f4d 943e a827 223e c92d 1abe 85d0 cb3c
00000010: 58d2 f83d dbfe 17be 482c 81bd 2730 c03c
00000020: 138b 51bd 5ccf 58bd 1390 20be 03ec 8cbc
00000030: 866a 563e cc1a 953e c258 c6bd 79e2 b13e
00000040: fd54 803e 4b9b 8e3e ca57 f93e 54b2 c13e
00000050: b410 00be 7ab3 d33d c78d 6a3e d86d 583e
00000060: 14fa 8c3e 977b d7ba 5264 9f3e bdaa ce3e
00000070: 711c 7d3d 9fc6 a93e 3f07 6e3e fd63 34bb
00000080: 5c8c cf3e 9f7c c13e 02a4 e53e 8046 e4bd
00000090: 5ceb 543e 9650 2e3e 29f9 8f3e ec6c 973e
000000a0: 157a 09be 7513 3c3e 9240 973e 050e 4cbd
000000b0: c8d4 503d 62d4 703e ea22 9c3e 8bc3 42bd
000000c0: 44cf f7bd 6e92 acbd 2a1e 6ebd 77a5 273e
000000d0: b493 063f 0bdf 063d 7001 673c 396c f43c
000000e0: db06 a33e af45 5ebd 56e2 743e baf1 9f3e
000000f0: 71e4 623e 849a 3a3e 49a8 3e3e d248 093e

shared.2.weight f4 [32, 64]
0.15444344 -0.059639722 0.35026547 -0.2771995 0.041997533 -0.01933473 -0.14321743 0.007027614
0.20682089 0.015445247 -0.046702385 -0.068501025 -0.05194544 0.28019732 0.02871046 0.15319097
0.087912954 0.057130303 0.40240732 0.3833523 -0.11602892 -0.23745339 0.03171032 0.37206253
0.27780858 0.25549966 0.04236871 -0.13474934 0.2656335 0.2710137 0.13416404 -0.063621275
-0.06831126 0.13773654 -0.29951692 -0.08626136 0.124099664 0.0837695 0.113644265 0.21036674
0.05822724 0.6071614 0.0847438 0.123041615 -0.017625509 0.08506931 0.25127864 0.29251063
-0.069614105 -0.060826257 0.08099568 0.020715972 0.19884764 0.28809467 -0.050320745 -0.5489513
0.50220716 0.0030614522 0.39753813 -0.16440049 -0.35324875 -0.10281024 -0.07140289 0.20021962
-0.019807236 -0.13948187 -0.10272202 -0.09505462 0.03198961 0.11116888 -0.0092010675 -0.036844626
0.06607073 -0.06839743 0.1256571 -0.024828708 -0.03529274 -0.09240817 0.0031296832 0.0056227795
-0.026346866 -0.0049711377 0.058774456 -0.09651385 -0.022178411 -0.1449411 -0.057986327 -0.047827132
-0.022831121 -0.1731096 -0.048587088 -0.00454403 -0.095967144 -0.10432703 -0.1731287 -0.08008211
0.032608997 -0.07286835 -0.07408064 0.048006877 -0.039324142 0.030024279 -0.13273962 -0.16240156
0.03422363 -0.17436187 0.05081825 -0.04399845 -0.08547441 0.075504385 -0.116716065 0.09124053
-0.09682457 0.092000574 -0.09153009 -0.11356894 0.005812196 0.10380054 -0.08322497 0.0031630734
-0.13905323 0.07489111 -0.13721639 0.061301015 -0.091337256 0.019361831 -0.016325587 -0.09272895
0.39735785 0.14415646 -0.5773677 0.438914 0.016861113 0.07748361 -0.0054927417 0.029092843
0.057436552 0.051246524 0.08659076 0.1848656 -0.07649229 0.5298956 -0.23908962 0.17814133
0.2209329 -0.045613773 0.14068599 0.43273658 -0.09637372 -0.4662711 0.2748297 0.3850643
-0.13038301 -0.32630205 0.32280582 0.09981471 0.23962772 0.52791685 -0.09821226 -0.004002934
-0.118938826 0.10301762 0.7210043 -0.012230858 0.31139654 -0.07684357 0.41803965 0.2698235
0.123171166 -0.18308534 0.08073719 -0.019440053 0.069517225 0.34910595 0.24904655 0.29776073
-0.032938346 0.14113289 0.043935243 0.017316813 0.4420416 -0.032239262 -0.05657755 0.110794604
0.35545897 0.02845495 0.33605903 0.6721065 -0.5129166 -0.008031788 0.02750554 0.3860394
0.20787707 -0.24278171 -0.026640322 0.28486505 -0.08757054 0.06465271 0.03127431 -0.04225856
-0.101777025 0.01308766 -0.05983681 -0.060441192 -0.14715502 0.02152476 -0.09089968 -0.09952332
0.11668765 0.027079793 0.10349197 0.13392794 0.017845795 0.65799963 -0.10643277 -0.009629112
0.2428865 -0.1319988 0.096719764 0.13412234 0.18127015 0.19800575 0.12159128 -0.012648961
0.17038837 0.02757578 0.4341348 0.09229787 0.32197222 -0.04209402 0.113855176 -0.01035856
0.043701902 0.753955 0.08705228 -0.105751246 0.03178803 -0.0883475 0.290316 0.1617899
0.040081177 -0.031398907 -0.06891471 -0.07222437 0.258189 -0.039194528 -0.012992904 0.568452
0.062229857 -0.021933792 0.117625736 0.32774186 -0.017814819 0.40887997 0.10074176 -0.15787177
00000000: 6c26 1e3e c848 74bd ff55 b33e 18ed 8dbe
00000010: 9b05 2c3d de63 9ebc 97a7 12be e647 e63b
00000020: dbc8 533e 100e 7d3c 004b 3fbd 444a 8cbd
00000030: bec4 54bd 0676 8f3e 3332 eb3c 18de 1c3e
00000040: b50b b43d 7701 6a3d 5508 ce3e c146 c43e
00000050: 92a0 edbd fb26 73be aee2 013d fb7e be3e
00000060: ed3c 8e3e dad0 823e d08a 2d3d bbfb 09be
00000070: 1d01 883e 4fc2 8a3e 4c62 093e df4b 82bd
00000080: c6e6 8bbd cf0a 0d3e 485a 99be cca9 b0bd
00000090: f727 fe3d 588f ab3d 53be e83d 616a 573e
000000a0: b07f 6e3d ee6e 1b3f 288e ad3d 3efd fb3d
000000b0: 5f63 90bc d238 ae3d 98a7 803e f4c3 953e
000000c0: d791 8ebd f424 79bd 10e1 a53d 8bb4 a93c
000000d0: b79e 4b3e 2581 933e 201d 4ebd 1388 0cbf
000000e0: a690 003f a5a2 483b 1e8a cb3e 9a58 28be
000000f0: 05dd b4be 2d8e d2bd ae3b 92bd 5f06 4d3e
00000100: c942 a2bc 56d4 0ebe ec5f d2bd ffab c2bd
00000110: 8a07 033d 82ac e33d 13c0 16bc 64ea 16bd
00000120: 1750 873d f413 8cbd 41ac 003e 9365 cbbc
00000130: 1f8f 10bd 7f40 bdbd 5f1b 4d3b 4b3f b83b
00000140: 62d5 d7bc ede4 a2bb 7cbd 703d 0ea9 c5bd
00000150: 80af b5bc 716b 14be 1283 6dbd 62e6 43bd
00000160: 5508 bbbc a543 31be 4103 47bd 16e6 94bb
00000170: 6c8a c4bd 69a9 d5bd a648 31be 1702 a4bd
00000180: 0391 053d 003c 95bd 97b7 97bd dca2 443d
00000190: 5a12 21bd 7af5 f53c e5ec 07be 984c 26be
000001a0: 142e 0c3d eb8b 32be cc26 503d b837 34bd
000001b0: 350d afbd 0ba2 9a3d d508 efbd 51dc ba3d
000001c0: f64b c6bd cc6a bc3d 2174 bbbd d596 e8bd
000001d0: 3c74 be3b 6195 d43d da71 aabd 914b 4f3b
000001e0: f863 0ebe 8360 993d 7482 0cbe c616 7b3d
000001f0: 070f bbbd b49c 9e3c 3dbd 85bc ade8 bdbd
00000200: 7d72 cb3e c09d 133e 5fce 13bf 56b9 e03e
00000210: 5120 8a3c baaf 9e3d 75fc b3bb 1d54 ee3c
00000220: 9742 6b3d e0e7 513d 7f56 b13d 684d 3d3e
00000230: fda7 9cbd 3da7 073f e9d3 74be ae6a 363e
00000240: 3c3c 623e 82d5 3abd fd0f 103e a68f dd3e
00000250: 965f c5bd 16bb eebe 7ab6 8c3e 2627 c53e
00000260: 2083 05be 1011 a7be ce46 a53e a86b cc3d
00000270: f860 753e 8f25 073f 8223 c9bd 0b2b 83bb
00000280: 3396 f3bd e7fa d23d bd93 383f f063 48bc
00000290: 5e6f 9f3e 2960 9dbd 4b09 d63e 4e26 8a3e
000002a0: 2a41 fc3d b97a 3bbe 8a59 a53d bf40 9fbc
000002b0: 0c5f 8e3d 04be b23e 0f06 7f3e 1874 983e
000002c0: 5cea 06bd 2485 103e 71f5 333d fddb 8d3c
000002d0: 4753 e23e 510d 04bd dcbd 67bd 48e8 e23d
000002e0: b8fe b53e 5b1a e93c ee0f ac3e 2c0f 2c3f
000002f0: 814e 03bf c397 03bc 4c53 e13c f5a6 c53e
00000300: badd 543e c59b 78be ce3c dabc d5d9 913e
00000310: 2f58 b3bd a468 843d 7e19 003d 5017 2dbd
00000320: 7970 d0bd a06d 563c 7117 75bd 2f91 77bd
00000330: ceaf 16be b254 b03c 9d29 babd e2d2 cbbd
00000340: eff9 ee3d 71d6 dd3c 99f3 d33d 6824 093e
00000350: 5831 923c aa72 283f 6df9 d9bd 6cc3 1dbc
00000360: 3db7 783e b22a 07be 0315 c63d 5e57 093e
00000370: e29e 393e 05c2 4a3e d904 f93d 963d 4fbc
00000380: 4a7a 2e3e 9ae6 e13c eb46 de3e aa06 bd3d
00000390: 8bd9 a43e c76a 2cbd e72c e93d f3b6 29bc
000003a0: c400 333d 3203 413f 7748 b23d 1c94 d8bd
000003b0: 2a34 023d 89ef b4bd 4ca4 943e 40ac 253e
000003c0: 292c 243d 249c 00bd 2823 8dbd 5fea 93bd
000003d0: 5931 843e 718a 20bd 30e0 54bc 1286 113f
000003e0: bce4 7e3d 7fae b3bc c3e5 f03d c8cd a73e
000003f0: 62f0 91bc b758 d13e b251 ce3d 23a9 21be

shared.2.bias f4 [32]
0.007820009 -0.12589651 0.08246902 0.45538273 0.55900544 -0.02465445 0.27488676 0.18236245
0.4697367 0.0032073988 0.49330568 -0.16911711 -0.073439375 0.060995348 0.6264842 0.13744047
0.34595293 0.46353814 0.032983303 -0.18849981 -0.1597158 -0.05522032 -0.06981418 0.50529486
0.35541973 -0.06101723 -0.07147804 -0.010942227 -0.14094868 -0.21781568 0.35005468 -0.045846965
00000000: 7f1f 003c 04eb 00be 84e5 a83d ed27 e93e
00000010: fb1a 0f3f 21f8 c9bc f5bd 8c3e 39bd 3a3e
00000020: 5481 f03e 3933 523b 9092 fc3e 092d 2dbe
00000030: 6267 96bd 42d6 793d 4561 203f 32bd 0c3e
00000040: be20 b13e df54 ed3e 8019 073d 1806 41be
00000050: 8a8c 23be b42e 62bd bdfa 8ebd 015b 013f
00000060: 93f9 b53e 34ed 79bd 1463 92bd 0747 33bc
00000070: da54 10be 130b 5fbe 5e3a b33e 07ca 3bbd

regressor.weight f4 [1, 32]
-0.0034505073 0.16277234 0.0015623647 0.054502215 0.0049249814 -0.036574934 -0.0025121213 -0.0018960097
0.033421893 0.09125596 -0.10103347 0.07357754 -0.12879792 0.07556227 0.019706791 0.011011661
-0.06025447 0.042436942 0.0034161683 -0.010866284 -0.009406161 0.004705959 -0.08928071 0.005718812
-0.0013109334 0.001279377 -0.07434199 0.0006127815 0.070408225 -9.0925125e-05 0.048907816 -0.1220227
00000000: e821 62bb cbad 263e 43c8 cc3a b73d 5f3d
00000010: bd61 a13b 99cf 15bd 67a2 24bb 8783 f8ba
00000020: 65e5 083d 68e4 ba3d a3ea cebd d2af 963d
00000030: 9ae3 03be 64c0 9a3d 2370 a13c 416a 343c
00000040: 64cd 76bd 5cd2 2d3d cbe1 5f3b 8008 32bc
00000050: 4c1c 1abc 7234 9a3b ced8 b6bd df64 bb3b
00000060: a0d3 abba c5b0 a73a 9d40 98bd 12a3 203a
00000070: 3032 903d 0eaf beb8 9053 483d 0ae7 f9bd

classifier.weight f4 [3, 32]
0.06784681 -0.07495006 0.00021775416 0.077930324 0.057784643 -0.08613378 -0.41850156 0.1493957
0.21607022 -0.114949554 0.09384804 -0.010289109 0.09759335 -0.13113737 0.30361181 -0.45588377
0.2068725 0.25528553 0.08311443 0.05415441 -0.013040775 -0.268543 -0.047986634 0.23226814
0.02168152 0.041937687 -0.022660658 0.08853673 -0.02703111 0.19873916 -0.084193714 0.020947525
-0.33210805 -0.13615589 0.20702405 -0.016377999 0.0022429137 -0.07703401 0.17394908 -1.0248638
-0.14698379 -0.047481295 -0.045613717 0.11904859 -0.11871163 -0.086582035 0.08910772 0.6289312
-0.10042446 -0.17683174 -0.32265952 0.057632178 0.0056327907 0.08540958 0.0638836 -0.030730993
-0.50465846 -0.07817581 -0.12493524 0.31837288 -0.13116567 -0.031623658 -0.10715239 0.030844472
0.123284265 0.13004893 -1.49765 -0.38545284 -0.39117247 -0.0002956397 -0.00875829 0.34796372
-0.22152223 -0.069023415 -0.36432183 -0.017031962 0.032537255 0.03995339 -0.42046264 -6.3130107
-0.10619109 -0.26005462 0.15014331 0.067864306 0.05035707 -0.54224676 -0.1654839 -0.29563844
0.02051765 0.037635252 -0.00674212 -0.20182653 -0.116669916 -0.37842965 -0.108432814 0.0029510462
00000000: 45f3 8a3d 6b7f 99bd f054 6439 ef99 9f3d
00000010: 97af 6c3d e866 b0bd d645 d6be 30fb 183e
00000020: 8341 5d3e ac6a ebbd 6733 c03d a793 28bc
00000030: 06df c73d e048 06be 0273 9b3e 9969 e9be
00000040: 62d6 533e c9b4 823e e637 aa3d 04d1 5d3d
00000050: faa8 55bc 787e 89be a28d 44bd b3d7 6d3e
00000060: 719d b13c dac6 2b3d d8a2 b9bc bf52 b53d
00000070: 5970 ddbc 4782 4b3e c16d acbd 259a ab3c
00000080: 110a aabe 736c 0bbe 1dfe 533e 272b 86bc
00000090: d9fd 123b 02c4 9dbd b51f 323e bd2e 83bf
000000a0: eb82 16be bf7b 42bd 73d5 3abd bfcf f33d
000000b0: 151f f3bd ec51 b1bd 1c7e b63d a301 213f
000000c0: 57ab cdbd 6113 35be a133 a5be b80f 6c3d
000000d0: 4693 b83b 38eb ae3d 68d5 823d 90bf fbbc
000000e0: 4c31 01bf a41a a0bd 0cde ffbd c501 a33e
000000f0: 4b50 06be cf87 01bd b672 dbbd 8cad fc3c
00000100: 767c fc3d 8c2b 053e ffb2 bfbf 135a c5be
00000110: c247 c8be 1700 9bb9 ee7e 0fbc 4d28 b23e
00000120: b9d6 62be 265c 8dbd 6488 babe 9d86 8bbc
00000130: c945 053d 2aa6 233d e146 d7be 2f04 cac0
00000140: b77a d9bd e125 85be 2bbf 193e 71fc 8a3d
00000150: 3743 4e3d afd0 0abf 9d74 29be ec5d 97be
00000160: a114 a83c 6c27 1a3d 00ed dcbb 9dab 4ebe
00000170: a3f0 eebd 88c1 c1be 0612 debd 5766 413b

classifier.bias f4 [3]
0.730183 -0.35596454 -0.74649525
00000000: 46ed 3a3f fc40 b6be 501a 3fbf
