Trading_Model_v4/trading_modelv4_US30.pth (torch, 23260 bytes, 7 tensors)

shared.0.weight f4 [64, 42]
0.0016875534 0.10619205 0.13390884 0.15411022 0.08080777 0.004210564 -0.027362412 0.054794203
-0.4314976 -0.10424283 -0.16886653 0.12103625 0.0113819465 0.34141728 0.11986633 -0.62180465
-0.04635155 -0.2193539 0.09801429 -0.15000527 0.122984536 0.011225724 0.012592985 0.13150504
0.16929512 0.10575153 0.20383324 0.08579713 0.2182384 0.5605319 -0.36086845 -0.15094753
0.035445716 -0.12125918 -0.08796693 -0.01667883 0.0030814663 0.17827837 0.026725061 -0.08198427
0.0921864 0.17918557 -0.08533569 -0.13850798 0.18557434 0.1116848 0.10149593 0.06473258
-0.111484066 -0.044200294 -0.6309364 0.094340116 0.057346076 -0.029881828 -0.019139487 0.15906537
-0.24554272 -0.29693055 -0.085634 -0.7213492 0.15962896 0.37069985 -0.14981811 0.062342368
0.03697409 0.13091642 0.1541145 0.04504528 0.05073668 0.19631425 0.32618085 -0.063893825
-0.13393064 -0.10078133 -0.0140752895 0.0189455 0.08018677 0.17133169 0.020131964 -0.04185744
0.21278682 -0.15134871 0.41901636 0.4695542 -0.047139496 -0.14755063 -0.14598745 -0.14507225
0.098117486 -0.120042935 -0.009438276 -0.12648731 -0.08328133 -0.045562744 -0.15110804 0.054894
-0.08759679 -0.05019602 -0.10640164 0.14120038 -0.101240315 0.007908225 0.06191814 -0.056636117
0.0903724 -0.060900085 -0.082030274 -0.09841054 -0.13059849 0.08641188 0.14588203 0.054947346
-0.07977702 -0.12198776 0.0018071383 -0.123781465 0.113750085 0.10459606 0.018754467 -0.07594826
-0.12919983 -0.06696895 0.124232695 -0.061806157 0.13393645 -0.11271897 0.028825417 -0.13977209
-0.07257892 -0.14074494 0.04422359 0.028749883 -0.12241651 -0.033654362 -0.07036501 0.07098542
-0.097917676 0.035277173 -0.085645765 -0.12503213 0.11151667 0.106549695 -0.11833514 -0.07286183
-0.038997144 0.023173332 0.09465578 0.054937705 -0.097738095 -0.09407535 -0.011111617 -0.107263416
-0.024726778 0.046999454 0.0019521415 -0.09331842 -0.06893702 0.14866705 0.08450258 -0.05493024
0.010674596 0.11352049 -0.03515266 -0.15003774 -0.04289054 0.12457751 -0.1310567 -0.051054813
-0.06734563 -0.05926868 0.12616643 0.10921189 -0.1389736 -0.15798107 -0.16119845 -0.09164699
-0.019358955 0.07427964 -0.033487923 -0.06700831 -0.064203896 -0.11230397 -0.13331625 -0.044940878
0.10803495 0.09099928 -0.06353463 -0.0758979 0.016798025 0.0070180036 0.0049156765 -0.029612143
0.06733231 0.13911712 0.10570958 -0.04295143 0.07416529 0.04407737 -0.035459705 0.12164525
0.024444057 -0.15940371 0.05258692 0.11447915 -0.07568077 -0.12984312 -0.132171 0.01974683
-0.11586827 -0.15266198 0.11546614 -0.15711848 -0.06147705 -0.059273623 0.11713679 0.076107696
-0.12804092 -0.0077917413 -0.014411589 0.10066218 0.0019291199 -0.04388815 0.036863726 -0.032845285
0.031605884 -0.0013912135 -0.028161194 0.07727346 0.074103035 -0.04273309 -0.0065652486 -0.006172506
0.032898236 -0.04455608 0.108246185 0.07445872 -0.18423402 -0.035555888 -0.040377595 0.01052723
-0.024956401 0.03796824 -0.1649913 0.08772536 0.03426286 -0.022424148 -0.09036665 -0.076433524
0.04169897 0.0277038 -0.12826473 0.0911582 0.040746816 0.20963635 -0.1959489 -0.08851554
00000000: e530 dd3a 387b d93d 661f 093e 12cf 1d3e
00000010: 8b7e a53d c5f8 893b 2327 e0bc e36f 603d
00000020: 41ed dcbe 447d d5bd 59eb 2cbe dae1 f73d
00000030: 587b 3a3c 3fce ae3e 7a7c f53d 972e 1fbf
00000040: 1fdb 3dbd 4f9e 60be b7bb c83d fb9a 19be
00000050: 51df fb3d 19ec 373c cf52 4e3c 42a9 063e
00000060: b35b 2d3e 4294 d83d a9b9 503e 68b6 af3d
00000070: e379 5f3e 057f 0f3f c0c3 b8be fd91 1abe
00000080: 872f 113d bc56 f8bd 0128 b4bd 0ba2 88bc
00000090: 6df2 493b 9b8e 363e 84ee da3c 5ee7 a7bd
000000a0: 39cc bc3d 6c7c 373e 7ac4 aebd 09d5 0dbe
000000b0: 3307 3e3e 00bb e43d 19dd cf3d 8492 843d
000000c0: c251 e4bd 5e0b 35bd 0c85 21bf 6435 c13d
000000d0: b8e3 6a3d bcca f4bc 6aca 9cbc 08e2 223e
000000e0: 8d6f 7bbe 4807 98be e160 afbd 57aa 38bf
000000f0: c675 233e 5fcc bd3e eb69 19be b65a 7f3d
00000100: 2572 173d f40e 063e 31d0 1d3e 6681 383d
00000110: 44d1 4f3d 9a06 493e 2d01 a73e c4da 82bd
00000120: 1d25 09be 7166 cebd 0b9c 66bc 9833 9b3c
00000130: f638 a43d 9371 2f3e caeb a43c b572 2bbd
00000140: cae4 593e 28fb 1abe 5089 d63e 6869 f03e
00000150: 5815 41bd 8317 17be bc7d 15be d28d 14be
00000160: d2f1 c83d 12d9 f5bd 00a3 1abc e485 01be
00000170: 678f aabd 00a0 3abd 11bc 1abe 88d8 603d
00000180: f265 b3bd 589a 4dbd 1ae9 d9bd d596 103e
00000190: 1557 cfbd 8091 013c e09d 7d3d 46fb 67bd
000001a0: 2a15 b93d 5e72 79bd 7dff a7bd 778b c9bd
000001b0: 9cbb 05be b6f8 b03d 1962 153e 7810 613d
000001c0: 2262 a3bd b8d4 f9bd 80dd ec3a 2381 fdbd
000001d0: cef5 e83d 7636 d63d f8a2 993c c38a 9bbd
000001e0: f64c 04be 0427 89bd b66d fe3d 7428 7dbd
000001f0: a326 093e 34d9 e6bd 4823 ec3c 6a20 0fbe
00000200: 42a4 94bd 711f 10be cc23 353d e084 eb3c
00000210: 82b5 fabd 28d9 09bd 881b 90bd ce60 913d
00000220: 1089 c8bd cc7e 103d 0c67 afbd 6c08 00be
00000230: da62 e43d ba36 da3d b259 f2bd 9538 95bd
00000240: 78bb 1fbd 00d6 bd3c e4da c13d 5c06 613d
00000250: e92a c8bd 94aa c0bd 800d 36bc ecac dbbd
00000260: d08f cabc 8082 403d 00df ff3a ba1d bfbd
00000270: da2e 8dbd 2d3c 183e b00f ad3d 88fe 60bd
00000280: 80e4 2e3c 6e7d e83d 3cfc 0fbd 7ea3 19be
00000290: fead 2fbd 7e22 ff3d ba33 06be da1e 51bd
000002a0: 81ec 89bd b7c3 72bd c631 013e 7caa df3d
000002b0: 184f 0ebe cac5 21be 3511 25be 6bb1 bbbd
000002c0: ac96 9ebc ed1f 983d a22a 09bd a73b 89bd
000002d0: 557d 83bd a0ff e5bd 0e84 08be ed13 38bd
000002e0: 6e41 dd3d d55d ba3d 721e 82bd 5c70 9bbd
000002f0: 039c 893c 48f7 e53b af13 a13b 2a95 f2bc
00000300: 86e5 893d b874 0e3e 447e d83d d7ed 2fbd
00000310: f9e3 973d 798a 343d 323e 11bd 2521 f93d
00000320: e73e c83c ba3a 23be 6265 573d 0b74 ea3d
00000330: 85fe 9abd 98f5 04be d657 07be 1bc4 a13c
00000340: 584c edbd 6c53 1cbe 8379 ec3d abe3 20be
00000350: 5ccf 7bbd e6c8 72bd 6ae5 ef3d 5ade 9b3d
00000360: 291d 03be dd51 ffbb 961e 6cbc f927 ce3d
00000370: 86da fc3a 10c4 33bd 6bfe 163d c788 06bd
00000380: 2c75 013d 6159 b6ba 4eb2 e6bc 8c41 9e3d
00000390: 55c3 973d e508 2fbd 4c21 d7bb bc42 cabb
000003a0: 4dc0 063d 7080 36bd 2db0 dd3d d07d 983d
000003b0: d8a7 3cbe 0da3 11bd fa62 25bd 677a 2c3c
000003c0: 5e71 ccbc 9684 1b3d 7bf3 28be 5ba9 b33d
000003d0: 3657 0c3d d9b2 b7bc 2612 b9bd 2e89 9cbd
000003e0: 8acc 2a3d 14f3 e23c d457 03be 26b1 ba3d
000003f0: 22e6 263d e9aa 563e d4a6 48be a347 b5bd

shared.0.bias f4 [64]
-0.038970876 -0.07171171 -0.11999224 0.044267848 -0.07493493 -0.17721206 0.0066140518 0.04596319
-0.12820908 -0.07085506 -0.1511904 0.2028332 0.35175392 -0.22253366 0.12892659 -0.003907591
-0.053870298 0.018818753 0.15744425 0.013225496 -0.11410221 0.11334112 0.27827412 0.17263383
0.10919629 0.12822239 -0.0652742 0.014819745 0.22098449 0.14757442 0.16169196 0.071506575
0.061272986 0.13953488 0.24490938 -0.10296841 0.04007072 0.053032618 0.10983167 0.0934995
0.06741493 0.13966376 -0.14237036 -0.009444797 0.16425498 0.33944675 -0.09320646 -0.16204622
0.04082711 0.0020255498 -0.13952984 0.18086231 -0.14394784 -0.1215187 -0.021529246 -0.076592796
0.20024966 0.13763562 0.35339946 -0.09112194 -0.13028967 0.2714888 0.038008723 0.018435879
00000000: ed9f 1fbd 97dd 92bd 7ebe f5bd 3452 353d
00000010: 7c77 99bd 1477 35be b0ba d83b e643 3c3d
00000020: 3e49 03be 751c 91bd a8d1 1abe 82b3 4f3e
00000030: 1719 b43e dddf 63be 5505 043e 400b 80bb
00000040: 1aa7 5cbd c929 9a3c 1139 213e c0af 583c
00000050: 6bae e9bd 641f e83d f279 8e3e ecc6 303e
00000060: 4ea2 df3d bb4c 033e 7bae 85bd 84ce 723c
00000070: c249 623e c01d 173e 9492 253e 0a72 923d
00000080: 62f9 7a3d 3be2 0e3e 86c9 7a3e 1ae1 d2bd
00000090: 3221 243d bb38 593d 6def e03d aa7c bf3d
000000a0: d710 8a3d 0404 0f3e 89c9 11be 5abe 1abc
000000b0: 7532 283e f7cb ad3e 07e3 bebd 72ef 25be
000000c0: 543a 273d 16bf 043b e9e0 0ebe f833 393e
000000d0: 1067 13be ccde f8bd 1a5e b0bc afdc 9cbd
000000e0: 3f0e 4d3e 5af0 0c3e c6f0 b43e 249e babd
000000f0: a86a 05be 9400 8b3e 09af 1b3d d706 973c

shared.2.weight f4 [32, 64]
0.09326021 0.11103112 0.0017266572 0.10767673 -0.06150825 0.056810807 0.10414618 0.23217279
0.22585265 -0.061969835 0.091320574 -0.023621583 0.019168595 0.11027972 0.28070173 0.031374753
-0.007117433 -0.07440261 -0.09977609 -0.015029013 -0.048952937 0.27179363 0.101573765 0.028855586
0.06906651 0.02928111 -0.08078735 -0.10510087 -0.10186552 0.18134062 -0.039900657 0.23207934
0.043647073 0.0871889 0.2531675 0.0058234185 0.14048597 0.11849946 0.008396326 0.23686378
0.19296178 -0.14648932 0.06032829 -0.12008611 0.35499465 0.14701186 0.028408945 -0.07370586
0.060555134 -0.2268767 -0.051144514 0.15455122 -0.05996941 -0.11117309 -0.08606622 -0.11002893
0.031940278 0.008122095 -0.099055946 -0.035693273 0.020026535 0.060391523 -0.00494411 -0.05968542
0.16342005 0.2916466 0.12410404 -0.10248697 0.057963204 -0.011919989 0.11056126 0.23346719
0.5825077 0.06988163 0.0011052489 -0.019360842 0.11543769 0.34936595 0.44643062 0.0111540705
0.023598693 0.026584757 0.0532166 0.04778759 -0.113481075 0.5327002 -0.12804765 0.037242353
-0.11481796 0.12864058 0.043818813 0.033805728 0.06888758 0.39452508 0.0718671 0.49596533
-0.025988996 0.08359766 0.34329346 0.022732973 0.31753775 0.056367997 0.09261467 0.35379976
0.42748594 -0.070883654 0.01570189 -0.21220882 0.7722629 0.13773616 -0.071573704 -0.06565352
-0.006953159 -0.3293668 -0.05505087 0.18973646 -0.089586765 0.045759335 0.11724657 -0.00939782
0.15026286 0.1411846 -0.06969029 0.09163612 0.024075776 0.14142208 0.060878705 0.071158834
0.12241231 -0.16411822 0.008892968 -0.10098985 -0.05568631 0.058702916 -0.054913227 -0.16507575
0.14369102 -0.07000826 0.12226285 -0.029776623 -0.015249644 0.4009619 -0.16263077 -0.121585354
0.40562195 -0.14462711 0.21350847 0.017401025 -0.088372916 0.21939276 -0.2227766 0.025069414
0.101938814 -0.095531546 0.10961288 0.07043138 -0.01832439 -0.09909642 -0.17398703 0.22479638
-0.025453642 -0.08833194 0.13071941 -0.00758256 -0.095645875 0.0753907 -0.13394296 -0.38747135
-0.15451707 -0.10367248 -0.039606214 -0.5311753 0.0385684 -0.21260811 0.07624719 0.050620764
-0.06815033 -0.0024705722 0.047137626 0.062526464 0.022360459 0.037557323 -0.09245072 0.074556395
-0.3018982 -0.057994314 0.16755387 0.101710126 0.033404738 -0.028607545 -0.103233226 -0.07236987
-0.08464556 0.07702539 -0.0068482757 0.07387614 0.08255902 0.052104786 -0.12991029 0.10238097
-0.12671761 0.025631025 0.09309147 0.031298757 0.029874533 0.11366717 0.039380584 -0.016161308
-0.111531585 -0.006609892 -0.113560125 -0.037707224 0.02707401 -0.10725214 -0.041884378 0.060465235
-0.053735018 0.013750215 0.01177749 -0.038010534 0.10070161 0.089160986 0.04189135 0.020917445
0.10093509 -0.041451856 -0.07198262 -0.10892314 -0.07589762 -0.0760306 0.014879359 -0.0661427
-0.050944697 -0.048768725 -0.009267941 -0.09659405 -0.09019562 0.048331894 0.0018942951 0.09996417
-0.11530532 -0.11079289 -0.034603402 -0.0029957173 -0.048590645 -0.054645814 -0.030116975 -0.11116552
0.06400982 -0.13653238 -0.07045244 0.030494153 -0.08973326 0.026903464 -0.092244305 -0.07215741
00000000: 35ff be3d 4964 e33d 0051 e23a 9e85 dc3d
00000010: 13f0 7bbd 73b2 683d 984a d53d b4be 6d3e
00000020: eb45 673e 15d4 7dbd 4806 bb3d 0d82 c1bc
00000030: 7507 9d3c 55da e13d 23b8 8f3e d082 003d
00000040: 5b39 e9bb 6560 98bd 6857 ccbd 403c 76bc
00000050: e082 48bd 8928 8b3e e805 d03d 8d62 ec3c
00000060: be72 8d3d f0de ef3c d773 a5bd 203f d7bd
00000070: df9e d0bd 5bb1 393e df6e 23bd 35a6 6d3e
00000080: 46c7 323d 1890 b23d 2c9f 813e 60d2 be3b
00000090: 8edb 0f3e d8af f23d be90 093c 6b8c 723e
000000a0: c697 453e 4c01 16be cc1a 773d b5ef f5bd
000000b0: dcc1 b53e 478a 163e e0b9 e83c 19f3 96bd
000000c0: a908 783d 5e52 68be e97c 51bd ad42 1e3e
000000d0: 7ca2 75bd b8ae e3bd 7d43 b0bd d956 e1bd
000000e0: cfd3 023d 8912 053c d8dd cabd 1c33 12bd
000000f0: b00e a43c 1a5d 773d 3302 a2bb b378 74bd
00000100: 9657 273e b452 953e 422a fe3d b0e4 d1bd
00000110: d36a 6d3d 0f4c 43bc f16d e23d 0612 6f3e
00000120: 3a1f 153f 1a1e 8f3d 00de 903a a19a 9ebc
00000130: 986a ec3d 18e0 b23e 8e92 e43e 90bf 363c
00000140: 0c52 c13c 47c8 d93c a6f9 593d ecbc 433d
00000150: c468 e8bd 0a5f 083f ec1e 03be 708b 183d
00000160: ae25 ebbd 5bba 033e 5b7b 333d e077 0a3d
00000170: ee14 8d3d 31ff c93e 0f2f 933d 2bef fd3e
00000180: e0e6 d4bc 4035 ab3d 29c4 af3e 803a ba3c
00000190: 4f94 a23e 21e2 663d c3ac bd3d 3e25 b53e
000001a0: 70df da3e 732b 91bd 40a1 803c 454d 59be
000001b0: 05b3 453f b50a 0d3e 3c95 92bd 5a75 86bd
000001c0: 53d7 e3bb c4a2 a8be 057d 61bd 464a 423e
000001d0: 4479 b7bd 246e 3b3d f81e f03d 50f9 19bc
000001e0: 82de 193e b292 103e c8b9 8ebd b8ab bb3d
000001f0: 903a c53c f3d0 103e f35b 793d b9bb 913d
00000200: 4eb3 fa3d 9b0e 28be d0b3 113c c4d3 cebd
00000210: 5417 64bd 7872 703d b1ec 60bd 9e09 29be
00000220: bd23 133e 7e60 8fbd f264 fa3d 1bee f3bc
00000230: a5d9 79bc e14a cd3e ae88 26be be01 f9bd
00000240: aead cf3e 2119 14be f7a1 5a3e 988c 8e3c
00000250: dcfc b4bd 7fa8 603e 8d1f 64be 5f5e cd3c
00000260: 4cc5 d03d 0ba6 c3bd b87c e03d 543e 903d
00000270: 081d 96bc 10f3 cabd a829 32be 0631 663e
00000280: 2884 d0bc 60e7 b4bd 4fdb 053e 2077 f8bb
00000290: fce1 c3bd 7066 9a3d 5828 09be a562 c6be
000002a0: b939 1ebe 3d52 d4bd 203a 22bd 1bfb 07bf
000002b0: e6f9 1d3d f1b5 59be 7d27 9c3d b857 4f3d
000002c0: 6692 8bbd 53e9 21bb 6213 413d e00d 803d
000002d0: 482d b73c b5d5 193d ce56 bdbd 06b1 983d
000002e0: 6792 9abe 728b 6dbd 3e93 2b3e 664d d03d
000002f0: 68d3 083d 5f5a eabc f16b d3bd a836 94bd
00000300: a75a adbd 7dbf 9d3d 8067 e0bb 604c 973d
00000310: b414 a93d d46b 553d 3407 05be 1dad d13d
00000320: 43c2 01be 28f8 d13c bea6 be3d 2033 003d
00000330: 70bb f43c 55ca e83d 894d 213d b864 84bc
00000340: ac6a e4bd cb97 d8bb 3692 e8bd e472 1abd
00000350: 50ca dd3c 03a7 dbbd f48e 2bbd 65aa 773d
00000360: 4019 5cbd 9548 613c 60f6 403c efb0 1bbd
00000370: a53c ce3d 099a b63d 4496 2b3d 105b ab3c
00000380: 0eb7 ce3d 6cc9 29bd a06b 93bd 1813 dfbd
00000390: 3670 9bbd eeb5 9bbd 8ec8 733c d375 87bd
000003a0: 63ab 50bd b7c1 47bd 90d8 17bc 1ad3 c5bd
000003b0: 7bb8 b8bd aaf7 453d ff49 f83a 04ba cc3d
000003c0: 3225 ecbd 62e7 e2bd 4cbc 0dbd cc53 44bb
000003d0: fc06 47bd 4ad4 5fbd e0b7 f6bc c0aa e3bd
000003e0: 9517 833d 25cf 0bbe 5e49 90bd e0ce f93c
000003f0: 12c6 b7bd a764 dc3c 95ea bcbd 44c7 93bd

shared.2.bias f4 [32]
0.2909057 -0.012299545 -0.2225111 -0.054014545 -0.07330206 0.17395964 -0.04986868 0.33515745
-0.07665196 -0.03749346 0.0906802 0.040240113 -0.1265916 0.24435422 0.27194315 0.31075934
0.06154005 0.06433893 -0.14793374 0.19025706 -0.1339368 -0.11734116 0.04978486 -0.025369238
-0.11898032 0.03676479 -0.0763636 0.15500413 -0.090352595 -0.13393703 -0.13647822 -0.1270907
00000000: 98f1 943e 0884 49bc f3d9 63be 5b3e 5dbd
00000010: 641f 96bd 7a22 323e 1a43 4cbd c299 ab3e
00000020: b4fb 9cbd be92 19bd 8ab6 b93d d1d2 243d
00000030: 3aa1 01be fe37 7a3e 223c 8b3e d91b 9f3e
00000040: 6b11 7c3d 21c4 833d f17b 17be bfd2 423e
00000050: ba26 09be 9050 f0bd 36eb 4b3d 26d3 cfbc
00000060: f4ab f3bd ad96 163d 8564 9cbd 67b9 1e3e
00000070: c80a b9bd ca26 09be f2c0 0bbe 1124 02be

regressor.weight f4 [1, 32]
0.14448096 -0.07479639 -0.015341423 0.029246032 -0.13012613 -0.008198501 -0.11679907 0.2517172
-0.14413199 -0.1966892 0.109033786 -0.022378681 0.10587322 0.16725346 0.0029801573 0.028094187
0.02316336 -0.00028820225 -0.07891059 0.0009468111 0.05714263 0.048243344 -0.16074054 -0.090472706
0.027177492 -0.08429588 -0.13349466 0.08962667 -0.048265606 -0.058481008 0.10373731 -0.0902108
00000000: d1f2 133e da2e 99bd 985a 7bbc 6095 ef3c
00000010: c93f 05be 0153 06bc 5a34 efbd 14e1 803e
00000020: 5697 13be e568 49be 1b4d df3d 7f53 b7bc
00000030: 0fd4 d83d 7e44 2b3e be4e 433b c825 e63c
00000040: 16c1 bd3c da19 97b9 e09b a1bd 6b33 783a
00000050: 640e 6a3d d09a 453d 2b99 24be c149 b9bd
00000060: 55a3 de3c 51a3 acbd d3b2 08be 308e b73d
00000070: 28b2 45bd c889 6fbd 3a74 d43d 71c0 b8bd

classifier.weight f4 [3, 32]
0.037215993 0.21066329 0.34559217 -0.15281515 -0.120749034 0.17636119 -0.0019448542 -0.017311359
0.23832281 0.11323738 0.06565869 -0.35499537 -0.0816335 0.13610774 -0.005554012 0.15506254
-0.077994645 0.47192442 -0.10043972 0.104597 -0.07115756 -0.16722406 0.12327974 0.17773412
0.014496612 -0.0403936 0.11126651 0.15247315 0.08079921 -0.0056161345 -0.14148477 -0.023269344
-0.36469233 -0.49772334 0.37390843 -0.10116084 -0.12777583 0.04416896 -0.09753395 -0.07363133
-0.35234267 -0.058457687 -0.13212225 0.050225124 -0.048002508 -0.14204 -0.73365736 0.2564982
0.041519593 -0.8256469 0.00036336246 0.27223688 -0.08010188 0.06141676 -0.123789445 -0.12779129
0.07037343 -0.10389371 0.015562521 -0.38600296 -0.0037577301 0.14892796 -0.064630836 -0.16306509
-0.013895887 0.11471652 -0.25703156 -0.038646966 0.06542501 -0.3822633 -0.050778504 -0.040303815
0.1191533 7.974738e-05 -0.30050462 0.32824403 -0.07760021 0.09835137 0.27834436 -0.66552037
-0.14607428 -0.33968723 0.030002091 -0.5891358 0.11430678 0.044153094 -0.084522575 -0.04226924
-0.14055973 -0.00825167 -0.14770408 -0.010475947 -0.1616633 0.00038918143 -0.19581555 -0.0726789
00000000: cc6f 183d 1eb8 573e 75f1 b03e 937b 1cbe
00000010: 454b f7bd 0798 343e 7aea feba 8dd0 8dbc
00000020: e50a 743e 00e9 e73d 1078 863d f4c1 b5be
00000030: 772f a7bd d45f 0b3e 6efe b5bb b7c8 1e3e
00000040: a8bb 9fbd 14a0 f13e 57b3 cdbd f436 d63d
00000050: 0ebb 91bd c93c 2bbe 177a fc3d efff 353e
00000060: 3383 6d3c c273 25bd b2df e33d ec21 1c3e
00000070: 0e7a a53d 8d07 b8bb 62e1 10be 5a9f bebc
00000080: f4b8 babe 98d5 febe ed70 bf3e 6a2d cfbd
00000090: abd7 02be 83ea 343d e1bf c7bd 06cc 96bd
000000a0: 4266 b4be 5471 6fbd 0e4b 07be dcb8 4d3d
000000b0: 479e 44bd ef72 11be f8d0 3bbf bb53 833e
000000c0: 7310 2a3d 985d 53bf af81 be39 a262 8b3e
000000d0: 740c a4bd 2490 7b3d 5285 fdbd b8db 02be
000000e0: f21f 903d 3ac6 d4bd f2f9 7e3c 2ea2 c5be
000000f0: 4044 76bb 9280 183e 2c5d 84bd 89fa 26be
00000100: 93ab 63bc 7ff0 ea3d a499 83be 484c 1ebd
00000110: 8cfd 853d 04b8 c3be 1ffd 4fbd 9d15 25bd
00000120: a506 f43d 0c3e a738 bedb 99be 9a0f a83e
00000130: dcec 9ebd 716c c93d 2783 8e3e 8b5f 2abf
00000140: 7f94 15be 7ceb adbe f2c6 f53c 9bd1 16bf
00000150: ac19 ea3d e0d9 343d 2c1a adbd 8322 2dbd
00000160: e4ee 0fbe 0332 07bc bd3f 17be 4ea3 2bbc
00000170: 108b 25be 0c0b cc39 df83 48be add8 94bd

classifier.bias f4 [3]
0.14345571 -0.17408924 -0.038492996
00000000: 0ee6 123e 7344 32be d5aa 1dbd
