Trading_Model/trading_modelv2_GER40.pth (torch, 23272 bytes, 7 tensors)

shared.0.weight f4 [64, 42]
0	0xbd9572c3	-0.0729728
1	0x3dd11d87	0.1021071
2	0x3dca6d95	0.09884182
3	0xbd78ebf6	-0.060771905
4	0x3dc8a156	0.097963974
5	0x3d9c0d5d	0.07619736
6	0xbe1b5e37	-0.15172659
7	0x3d4b7647	0.049673345
8	0xbf3bba51	-0.7333117
9	0x3d740f8c	0.05958514
10	0xbd006076	-0.031341992
11	0xbdbf30db	-0.0933549
12	0xbde380f7	-0.111085825
13	0xbf0a6057	-0.5405325
14	0x3e3625bc	0.17787832
15	0xbc0b7266	-0.008511161
16	0x3dc58c56	0.096459076
17	0xbd7ac4bf	-0.061222788
18	0x3e475fe9	0.1947018
19	0xbd0aa23b	-0.03384612
20	0x3d28fe6d	0.041258264
21	0xbe345837	-0.17611776
22	0xbe167096	-0.14691386
23	0xbe32494f	-0.17410778
24	0xbb7a7c93	-0.0038221225
25	0x3c11869b	0.00888219
26	0xbdd52095	-0.10406605
27	0xbdfa80bb	-0.12231585
28	0xbe2ed807	-0.17074595
29	0xbdc53056	-0.0962836
30	0xbd9ab086	-0.075532004
31	0xbc15e63a	-0.009149129
32	0xbcc465fb	-0.02397441
33	0xbdec7c70	-0.11547172
34	0x3d4cee6f	0.050032075
35	0x3d30558d	0.043050338
36	0xbd48903a	-0.04896567
37	0x3dce9f3f	0.100889675
38	0x3dc013d2	0.093787804
39	0xbd11bb83	-0.035579216
40	0x3e4ce8e0	0.2001071
41	0xbc4b6610	-0.01241447
42	0xbbf8f936	-0.0075980676
43	0xbf95e1f5	-1.1709582
44	0xbda98400	-0.0827713
45	0xbd91ca18	-0.071186244
46	0xbb8e12fc	-0.004335759
47	0x3d9cca4c	0.076557726
48	0xbc049095	-0.008091112
49	0xbcf364ad	-0.029711092
50	0xc006eaae	-2.1080737
51	0x3d4386e7	0.047736075
52	0xbcf60ea5	-0.03003628
53	0x3c2bf3a2	0.010495098
54	0xbdf2b62c	-0.11851153
55	0xbfd70757	-1.6799115
56	0x3e09cd71	0.13457276
57	0x3dad326f	0.08456885
58	0x3d0e1e79	0.03469703
59	0xbd1b9459	-0.037983272
60	0xbdd17134	-0.1022667
61	0xbd2afd5e	-0.041745536
62	0x3d09a595	0.033605177
63	0x3d879cf4	0.06621733
64	0x3e03d037	0.12872396
65	0xbc7595ce	-0.0149893295
66	0x3de0ed43	0.10982754
67	0x3df0b6d0	0.11753619
68	0xbc7b78bf	-0.015348612
69	0x3e26d9fb	0.1629409
70	0x3d88a98a	0.06672962
71	0x3ba7045d	0.0050969557
72	0xbdffe44c	-0.12494716
73	0x3d94b097	0.07260244
74	0xbd660f16	-0.05616673
75	0xbd2ec52e	-0.042668514
76	0xbd864b17	-0.06557291
77	0x3cb43c9d	0.022001559
78	0x3e2eb385	0.17060669
79	0x3e371392	0.17878559
80	0x3dc5c230	0.09656179
81	0x3cede04b	0.029037615
82	0x3dcff7b3	0.10154667
83	0x3e628aef	0.22123311
84	0x3e7ae4f4	0.24501401
85	0x3da439f2	0.08018865
86	0xbe81736f	-0.2528338
87	0x3c6b6b59	0.014368855
88	0xbe004f03	-0.1253014
89	0xbd0684ae	-0.032841377
90	0xbe240b55	-0.16019948
91	0xbdd45e16	-0.10369508
92	0xbe93b007	-0.28845236
93	0x3d0c0a35	0.03418942
94	0xbe3956e4	-0.18099552
95	0xbd744e46	-0.05964496
96	0x3d0b3e83	0.033995163
97	0xbe455d92	-0.19273975
98	0x3e963606	0.29338092
99	0x3e8a8784	0.27056515
100	0x3e83fd0b	0.25778994
101	0x3e9675e3	0.29386815
102	0xbdbdaa40	-0.09260988
103	0x3db7b224	0.089695245
104	0xbdf127d1	-0.117751725
105	0xbdd5926a	-0.10428317
106	0xbe26e49b	-0.16298144
107	0xbe48e777	-0.19619547
108	0xbe792fdf	-0.24334668
109	0xbe148964	-0.14505535
110	0x3c5eba04	0.013594154
111	0xbe85418b	-0.26026568
112	0xbe0e9875	-0.13925345
113	0xbd8fdba8	-0.07024318
114	0xbe3cf2dc	-0.18452018
115	0xbe28686c	-0.16446084
116	0xbd014926	-0.0315639
117	0xbd8eb370	-0.06967819
118	0xbcaf48d9	-0.021397041
119	0xbe308129	-0.1723677
120	0xbda931dd	-0.08261464
121	0x3d38252d	0.04495733
122	0xbdc07b35	-0.093985
123	0x3cc4b1ef	0.024010627
124	0x3e3c0ede	0.18365046
125	0xbe1b7f1a	-0.15185204
126	0xba242900	-0.0006262213
127	0xbe053efd	-0.1301231
128	0x3d8b7d08	0.06810957
129	0x3ce354d0	0.027750403
130	0x3df6a1da	0.120425895
131	0xbe1a49c3	-0.150672
132	0xbdc44393	-0.09583201
133	0xbdd0f704	-0.102033645
134	0xbd7d92f6	-0.06190773
135	0x3e1d3697	0.15352856
136	0x3da6e2fc	0.081487626
137	0xbdde1e94	-0.10845676
138	0xbd6725bc	-0.05643247
139	0x3da33ea8	0.07970935
140	0xbd92511c	-0.07144377
141	0xbdc7860a	-0.09742363
142	0x3dba1128	0.090853035
143	0xb7ff2000	-3.041327e-05
144	0x3d1a2b44	0.037638918
145	0xbdad1923	-0.0845206
146	0x3e01106b	0.12603919
147	0xbde01df4	-0.10943213
148	0xbe1c4369	-0.1526009
149	0xbdf61758	-0.12016171
150	0xbdf4bffa	-0.11950679
151	0xbdd7ccd8	-0.10537118
152	0xbe0e436d	-0.13892908
153	0x3daa48b2	0.08314647
154	0x3dddd372	0.108313456
155	0xbba88f40	-0.00514403
156	0x3d6ce420	0.057834744
157	0xbe0afcfa	-0.13573065
158	0xbd17fcb6	-0.03710624
159	0xbe1c7345	-0.15278347
160	0x3d1466e8	0.03623095
161	0xbddaa255	-0.10675494
162	0x3dfdf926	0.12401037
163	0xbe102ff5	-0.14080794
164	0xbc42a1f0	-0.011879429
165	0xbab34580	-0.0013677329
166	0xbe15f2ba	-0.14643374
167	0x3d96f2f6	0.0737056
168	0x3e92b184	0.2865106
169	0x3d0fada7	0.035077717
170	0xbe4f6691	-0.2025397
171	0xbebc5de4	-0.36790383
172	0xbed3f6cc	-0.4139923
173	0xbe80eae9	-0.25179222
174	0xbed5c006	-0.41748065
175	0xbea749fe	-0.3267364
176	0xbea1e2d7	-0.31618378
177	0xbe8cc9b0	-0.27497625
178	0xbeaac485	-0.33353058
179	0xbe97e0aa	-0.29663593
180	0xbec22b7f	-0.3792381
181	0xbe3f259e	-0.18666694
182	0x3d801c7c	0.06255433
183	0x3e2664f3	0.16249447
184	0xbee4b7bc	-0.44671428
185	0xbe36bdb3	-0.17845802
186	0xbd6e96c9	-0.05824927
187	0x3e0c9d8c	0.13731974
188	0xbedc6e8d	-0.43053094
189	0xbeba365d	-0.363696
190	0xbe51858a	-0.20461097
191	0xbee48a8f	-0.44636962
192	0x3dbfd063	0.093659185
193	0x3e4e2e10	0.20134759
194	0x3ea27cae	0.31735748
195	0x3dc5f4ae	0.096658096
196	0x3e926e54	0.285998
197	0xbea2c9cd	-0.31794587
198	0x3e25f0dd	0.16205163
199	0xbe9256f9	-0.2858198
200	0xbee3c924	-0.44489396
201	0xbefdb6c3	-0.495535
202	0xbeb2881a	-0.34869462
203	0x3e9c89a1	0.30573753
204	0x3da43b49	0.0801912
205	0x3d870a32	0.065937415
206	0x3eab4a7b	0.33455262
207	0x3ea6c203	0.32569894
208	0xbd3f2e6c	-0.04667513
209	0x3dc55539	0.096353956
210	0xbe69a32a	-0.22816148
211	0x3d9cd070	0.07656944
212	0x3d99dc8b	0.07512768
213	0xbe097c1f	-0.13426255
214	0xbdeb037f	-0.11475276
215	0x3de86583	0.11347487
216	0xbb39c9ae	-0.002834897
217	0x3e03bd56	0.12865195
218	0xbf800b6d	-1.0003487
219	0x3d785ce0	0.060635448
220	0xbe234112	-0.15942791
221	0xbc0d71a1	-0.008633048
222	0xbda9a1c8	-0.082828104
223	0xbf3cf27a	-0.7380749
224	0x3ddc24a4	0.10749176
225	0xbdc5cd65	-0.096583165
226	0xbac6d33e	-0.0015169156
227	0xbc8b655b	-0.017016103
228	0xbd82db36	-0.063894674
229	0xbda762b3	-0.08173122
230	0x3d6666fc	0.056250557
231	0x3db50e83	0.088406585
232	0xbdd66d85	-0.10470108
233	0xbda95aa4	-0.082692415
234	0x3e01219d	0.12610479
235	0x3d39cbed	0.045360494
236	0x3c58a194	0.013222117
237	0x3e340273	0.1757906
238	0xbc9cc8ae	-0.01913866
239	0xbd5cba63	-0.05388869
240	0xbddd782b	-0.10813936
241	0xbe152b41	-0.14567281
242	0xbbd6555b	-0.006540937
243	0xbda96435	-0.08271066
244	0x3d5538aa	0.052055992
245	0x3d4d5e3e	0.050138704
246	0x3d98ac6c	0.07454762
247	0x3d3534c2	0.044239767
248	0xbd60144e	-0.054706864
249	0x3dd4cebd	0.10390995
250	0x3cab6064	0.020919986
251	0x3ea0bebb	0.31395516
252	0xbd098c11	-0.033580843
253	0x3d4659eb	0.048425596
254	0x3c98b6d7	0.018641872
255	0xbe0a4ff0	-0.13507056

shared.0.bias f4 [64]
0	0x3e091446	0.1338664
1	0x3e8da1fa	0.2766264
2	0x3d11d7da	0.035606243
3	0xbd952169	-0.07281763
4	0x3eb37319	0.3504875
5	0xbde3b0f6	-0.11117737
6	0xbdd1a4cc	-0.10236511
7	0x3e7326d0	0.23745275
8	0x3de505e9	0.11182768
9	0xbd461b4a	-0.04836587
10	0x3e9ceb71	0.30648378
11	0x3e8de9a6	0.27717322
12	0x3d920ac2	0.07130958
13	0x3e5206aa	0.20510355
14	0x3b771289	0.0037700257
15	0x3dd9f99b	0.106433116
16	0xbd150946	-0.036385797
17	0x3e1170e9	0.14203228
18	0xbdcce714	-0.10005012
19	0x3c0c149c	0.0085498355
20	0x3e11f9b9	0.14255418
21	0xbd4a445c	-0.0493816
22	0x3c35dd3d	0.011100111
23	0x3ed481cc	0.41505277
24	0xbca3ce5f	-0.019995866
25	0x3dfb3a8f	0.122670285
26	0xbd127b95	-0.03576239
27	0x3df9a44b	0.121895395
28	0x3e847ebc	0.2587794
29	0x3eae8f25	0.34093586
30	0xbd6a65ca	-0.05722598
31	0x3ddff97c	0.10936257
32	0x3e8cec6d	0.2752413
33	0x3dbbcb8a	0.09169681
34	0x3e07c708	0.13259518
35	0xbcb523fb	-0.022111883
36	0xbd7fcd47	-0.062451627
37	0xbdc56ea2	-0.09640242
38	0x3dd2b3b7	0.10288184
39	0xbdd8c7f0	-0.1058501
40	0xbc9dcec8	-0.01926364
41	0xbcb25a1b	-0.021771481
42	0x3e5cbdd8	0.21556795
43	0x3df3e804	0.11909488
44	0xbd23b2f0	-0.03996557
45	0x3dd60c09	0.10451514
46	0x3e484da6	0.1956087
47	0xbd82d3b5	-0.06388036
48	0x3e4dfdbd	0.20116325
49	0xbd19dc98	-0.03756389
50	0x3e00d180	0.12579918
51	0x3e0c3d57	0.13695274
52	0x3ef03169	0.46912697
53	0xbe69faf0	-0.22849631
54	0xbe3152ef	-0.17316793
55	0xbcb3f5a8	-0.021967724
56	0xbde39cb4	-0.11113873
57	0xbd836e70	-0.06417549
58	0xbe104fb0	-0.14092898
59	0x3eb37bdc	0.35055435
60	0xbe04b08b	-0.12957971
61	0x3ea5a286	0.32350558
62	0xbece2c26	-0.40268058
63	0x3e64fa1e	0.22361037

shared.2.weight f4 [32, 64]
0	0xbe1476f3	-0.144985
1	0x3f774512	0.9658977
2	0x3e8c6ca9	0.2742665
3	0xbdeaa9c2	-0.1145816
4	0xbee534f2	-0.44766957
5	0x3d9cbfc5	0.07653765
6	0xbdcd5aad	-0.10027061
7	0x3d3f43f5	0.04669567
8	0x3cd03055	0.025413672
9	0x3dbc3078	0.09188932
10	0x3e92769b	0.28606114
11	0x3c55c6f6	0.013047924
12	0xbcb0de69	-0.021590428
13	0xbd5e61be	-0.054292433
14	0x3d283030	0.04106158
15	0xbe0a78bc	-0.13522619
16	0x3b899dc0	0.0041997135
17	0x3d134071	0.035950128
18	0x3e2833ae	0.16425964
19	0xbce93f2c	-0.028472506
20	0x3af1f5a5	0.0018460049
21	0xbd362a42	-0.044473894
22	0xbd128326	-0.035769604
23	0xbc3b3f49	-0.011428663
24	0xbc3b0c84	-0.011416558
25	0xbea0ef3c	-0.3143252
26	0x3daff32d	0.08591304
27	0x3ef41d7a	0.4767874
28	0xbca8e58b	-0.020617267
29	0x3dd736a5	0.105084695
30	0x3e300c18	0.17192113
31	0x3e3bb7e1	0.18331863
32	0x3e77e09d	0.24206777
33	0xbdc6f6a4	-0.09715012
34	0x3e0baa59	0.13639201
35	0x3e794e3c	0.2434625
36	0xbcde530c	-0.02713921
37	0x3df709d3	0.12062421
38	0x3e52c8e2	0.20584443
39	0x3d864036	0.06555216
40	0xbd779b2c	-0.060450718
41	0xbc68cb20	-0.014208585
42	0xbdd77180	-0.10519695
43	0x3bc6f709	0.0060719294
44	0x3e2bba36	0.16770253
45	0x3dd470e8	0.10373098
46	0xbd8190cc	-0.06326446
47	0x3f02ddae	0.51119506
48	0xbc89b55a	-0.016810108
49	0xbdf0b362	-0.117529646
50	0x3dd0dd76	0.1019849
51	0x3d44ecfd	0.048077572
52	0x3e77f554	0.24214679
53	0xbc21402a	-0.009841958
54	0x3d983217	0.07431429
55	0x3d8bdea2	0.06829573
56	0x3d351c12	0.044216223
57	0xbd379a9f	-0.044825193
58	0x3da1095b	0.078631125
59	0xbd6d1335	-0.057879645
60	0x3d166bff	0.036724087
61	0x3e25e646	0.16201124
62	0xbe82c876	-0.25543565
63	0x3d5dfb5f	0.054194804
64	0x3bc23e04	0.005927803
65	0x3f7df725	0.9920524
66	0xbcfd5461	-0.030924024
67	0x3da9a4da	0.08283396
68	0xbedf3228	-0.43592954
69	0x3e086725	0.13320597
70	0x3d918f20	0.07107377
71	0x3dc0948b	0.09403332
72	0xbdecdc17	-0.11565416
73	0x3e064253	0.13111238
74	0x3dcac8e1	0.09901596
75	0xbd9f87de	-0.077895865
76	0xbe04a3d3	-0.12953119
77	0xbdc175e2	-0.094463125
78	0xbce48681	-0.027896168
79	0x3d5d9bf8	0.05410382
80	0xbd9c9df2	-0.07647313
81	0x3e1caad4	0.15299541
82	0xbca9a636	-0.020709138
83	0x3dece289	0.11566646
84	0x3cddbeb7	0.027068479
85	0xbd3eb3de	-0.046558253
86	0x3c6407f0	0.013917908
87	0x3daeb0ca	0.085298136
88	0x3d657dec	0.05602829
89	0xbe2361e8	-0.15955317
90	0x3d7eee65	0.06223907
91	0x3deae261	0.114689596
92	0x3e0b62e5	0.13611944
93	0xbc88c091	-0.016693385
94	0x3e47cbec	0.19511384
95	0x3dade5a8	0.08491069
96	0x3da46971	0.08027924
97	0x3c51cf4f	0.012805774
98	0x3c9b68af	0.018970815
99	0x3cc28562	0.023745243
100	0x3c8d7c28	0.017271116
101	0xbdc5561a	-0.09635563
102	0x3e18faff	0.14939497
103	0x3d38374e	0.044974618
104	0xbdc19798	-0.09452742
105	0xbb8c83fe	-0.0042881956
106	0xbe28d5b7	-0.16487776
107	0x3dc57650	0.09641707
108	0x3dc41e87	0.09576135
109	0x3e39d415	0.18147309
110	0x3d4c34a3	0.049854886
111	0x3e2dd841	0.16977026
112	0xbd6dc905	-0.058053035
113	0x3c0e72f0	0.008694395
114	0xbdc59d99	-0.096492
115	0xbd14122b	-0.03615014
116	0x3e100026	0.14062557
117	0x3e04a0a0	0.12951899
118	0x3d945a08	0.072437346
119	0x3c9dc451	0.01925865
120	0xbdd6452e	-0.10462414
121	0xbdc0c6cd	-0.09412918
122	0xbda3354c	-0.0796915
123	0xbdfb693e	-0.12275933
124	0xbe0998e7	-0.13437234
125	0x3df65a4a	0.1202894
126	0xbdaacbee	-0.08339678
127	0x3dd63a58	0.10460347
128	0x3e0bb620	0.13643694
129	0x3f4fad4a	0.81123793
130	0x3f328a90	0.6974268
131	0x3d204ae8	0.039133936
132	0xbe43e6df	-0.19131039
133	0x3d10ce94	0.03535326
134	0xbbcdb518	-0.0062776916
135	0x3da4c919	0.08046169
136	0xbeadb20e	-0.33924907
137	0x3f995372	1.197859
138	0xbd248ffe	-0.040176384
139	0x3e8e8891	0.27838567
140	0x3ecabfe3	0.39599523
141	0x3e4a60b9	0.1976346
142	0xbdce1730	-0.100630164
143	0xbc84598d	-0.016155982
144	0x3d34f7e4	0.04418172
145	0xbe78ded8	-0.24303758
146	0x3d7ae371	0.06125206
147	0xbe9a80ea	-0.3017648
148	0xbd9f1c8d	-0.077691175
149	0x3f6d8d0d	0.9279335
150	0x3dafbff0	0.08581531
151	0x3d583b25	0.05279078
152	0xbda1f64c	-0.079083055
153	0xbead2810	-0.33819628
154	0xbde8efaf	-0.11373841
155	0x3eefaea8	0.4681294
156	0xbdd41015	-0.1035463
157	0xbdea0b22	-0.11427905
158	0x3f358805	0.70910674
159	0x3ecb3e05	0.39695755
160	0x3ea99d6e	0.33127922
161	0x3d25f717	0.040518846
162	0x3d291aad	0.041285206
163	0x3dfaee6a	0.12252505
164	0x3e3a729b	0.18207781
165	0xbb1b1e09	-0.0023669025
166	0x3f4027be	0.7506064
167	0x3f6a1e5f	0.9145259
168	0x3dda33c6	0.10654406
169	0xbd038f01	-0.0321188
170	0x3e4f02c7	0.20215903
171	0x3f574029	0.84082276
172	0xbe076ca7	-0.13225041
173	0x3f52c175	0.8232644
174	0xbd5e5f6a	-0.054290213
175	0x3f3ad28b	0.72977513
176	0x3dba5a54	0.0909926
177	0xbd2d784c	-0.042351052
178	0xbe74b317	-0.23896442
179	0x3f0a16e9	0.5394121
180	0x3ece1a37	0.40254375
181	0x3d8141c7	0.06311374
182	0x3d89ccf1	0.067285426
183	0x3d1f668d	0.03891616
184	0xbd068305	-0.032839794
185	0x3eb78272	0.3584171
186	0x3e50d1be	0.2039251
187	0x3ecea45b	0.40359768
188	0xbdd5c0e3	-0.10437181
189	0x3e1e8a6b	0.1548249
190	0x3e6ee3f4	0.23329145
191	0x3d31b973	0.04338975
192	0x3d37ffc2	0.044921644
193	0x3c82f463	0.015985673
194	0xbcfa3fe1	-0.030548038
195	0x3d6d46e4	0.057928935
196	0xbd34d91c	-0.044152364
197	0x3d562dfe	0.052289955
198	0xbe2db953	-0.16965227
199	0xbd2c722b	-0.042101067
200	0xbd72f4fc	-0.059315667
201	0xbce61bd5	-0.028089443
202	0xbd73252d	-0.059361625
203	0x3ce0b12c	0.027428232
204	0xbe2a864c	-0.16652793
205	0xbdafe6e7	-0.08588963
206	0x3dce8c8e	0.100854024
207	0x3d9e31b2	0.077243224
208	0x3dc3bf20	0.095579386
209	0xbcb1aa77	-0.02168773
210	0xbdf97184	-0.121798545
211	0xbddbc0b0	-0.107301116
212	0x3d3c1d3d	0.04592632
213	0x3d622b80	0.055217266
214	0xbc9462fa	-0.018113602
215	0x3d90ec33	0.070763014
216	0xbd955dda	-0.072932914
217	0xbe404c50	-0.18779111
218	0xbe244cde	-0.16044948
219	0xbdd70d4e	-0.105005845
220	0xbdcb5d40	-0.099298954
221	0xbd099a70	-0.03359455
222	0xbd994391	-0.074835904
223	0xbc99e637	-0.018786533
224	0xbe12b1ed	-0.14325686
225	0xbd9202b9	-0.071294256
226	0xbd6f136d	-0.058368135
227	0xbd2b6eb2	-0.041853614
228	0xbd4b150d	-0.049580622
229	0xbd1865a0	-0.037206292
230	0xbdabc34b	-0.083868586
231	0xbc8af53b	-0.016962638
232	0x3d8c6916	0.06855981
233	0xbd8841f5	-0.06653205
234	0xbd6510b5	-0.055924136
235	0xbdaac7e3	-0.083389066
236	0xbdb6b138	-0.089205205
237	0xbd91a587	-0.0711165
238	0x3b2faea7	0.0026806982
239	0xbd912e61	-0.07088924
240	0xbcf09972	-0.029370043
241	0xbd7fc6ec	-0.062445566
242	0x3e3b45c7	0.18288337
243	0x3c14ae07	0.0090746945
244	0xbdb3e9b1	-0.087848075
245	0xbe1640c1	-0.14673139
246	0xbd3ad284	-0.04561092
247	0xbd7a7d2a	-0.061154522
248	0xbdeab539	-0.11460347
249	0xbca86ea6	-0.020560574
250	0xbde2c8bd	-0.11073444
251	0xbd443c50	-0.04790908
252	0xbcb5bc27	-0.022184445
253	0x3d22d343	0.039752256
254	0xbe45709e	-0.19281241
255	0xbe3ae736	-0.18252262

shared.2.bias f4 [32]
0	0x3e500989	0.20316137
1	0x3e9c4186	0.3051874
2	0x3e4d3588	0.20039952
3	0xbe39442e	-0.18092415
4	0x3d2bf618	0.04198274
5	0x3ea4bc72	0.32175022
6	0x3d8c791a	0.06859036
7	0xbd394b68	-0.04523793
8	0xbb726a2b	-0.003698955
9	0xbb9a9e3c	-0.00471857
10	0x3d9b187c	0.075730294
11	0x3ee134d9	0.43985632
12	0xbdc35636	-0.09537928
13	0x3e6d23db	0.23158209
14	0xbde55c4d	-0.111992456
15	0xbe53e3ab	-0.20692317
16	0xbe2cb213	-0.16864805
17	0xbdf6cf21	-0.120512255
18	0x3ce62a7e	0.028096434
19	0xbcc00c3d	-0.023443336
20	0xbe043ee2	-0.12914613
21	0x3e4eb4a2	0.20186093
22	0x3debb7ff	0.11509704
23	0x3ec14143	0.37745103
24	0x3e93e437	0.28885052
25	0x3eca4e98	0.39513087
26	0xbcd0c7bc	-0.025485866
27	0xbe48931f	-0.19587372
28	0xbd5749a3	-0.05256046
29	0xbdca2d32	-0.098719016
30	0x3900e6b6	0.00012292978
31	0x3e15e239	0.14637078

regressor.weight f4 [1, 32]
0	0xbb4ca4fd	-0.003122627
1	0x3cfe539b	0.031045726
2	0x3bb0edc0	0.0053994358
3	0xbc8dafd3	-0.017295754
4	0x3a3e5a33	0.00072613655
5	0x3db621c7	0.08893161
6	0x3cf37a3f	0.029721377
7	0x3ba05c32	0.004893803
8	0xbdbbfd7f	-0.0917921
9	0x3b27cb91	0.0025603513
10	0xbdc3ab35	-0.095541395
11	0x3d966169	0.07342798
12	0xbdeb4945	-0.114885844
13	0x3ca88ac4	0.020573981
14	0xbbc97e27	-0.0061490717
15	0x3d8195dd	0.06327412
16	0x3d10162f	0.035177406
17	0x3e0f17a8	0.13973868
18	0xbdd50125	-0.10400609
19	0xbe058489	-0.1303884
20	0x3d77b4e1	0.060475234
21	0xbdf967a4	-0.12177971
22	0x3b35b44d	0.0027725876
23	0x3e1107f7	0.14163195
24	0x3d3026b5	0.043005664
25	0x3dfcad5f	0.123377554
26	0xbb267d6b	-0.0025404345
27	0x3bfd596b	0.0077316067
28	0xbdbfd8c3	-0.09367516
29	0xbe00be0b	-0.12572496
30	0x3a8be619	0.0010673433
31	0x3c09dd4f	0.0084145805

classifier.weight f4 [3, 32]
0	0x3e04b86c	0.12960976
1	0x3e49fd30	0.1972549
2	0x3e593f74	0.21215612
3	0x3cf373bb	0.02971827
4	0x3e1a367c	0.15059847
5	0x3e5d60be	0.21618935
6	0xbdf89b16	-0.12138955
7	0x3e08d026	0.13360652
8	0xbde826d7	-0.11335533
9	0x3daf39af	0.08555924
10	0xbd47246d	-0.048618723
11	0x3da506dc	0.08057949
12	0xbd0acb60	-0.03388536
13	0xbd2429c8	-0.04007891
14	0x3d14bb29	0.036311302
15	0xbd9849e3	-0.07435968
16	0xbdb5adef	-0.08871066
17	0xbe018063	-0.12646632
18	0x3e3cae5a	0.18425885
19	0x3cdb399a	0.026760865
20	0xbd150245	-0.036379118
21	0x3e2c6443	0.16835122
22	0x3dda7ec1	0.10668708
23	0x3d85ae74	0.06527415
24	0x3e5a0bdd	0.21293588
25	0x3c9c9142	0.019112233
26	0x3d9ceb25	0.07662038
27	0x3d26fbc9	0.040767465
28	0x3dacb85d	0.08433602
29	0x3df45539	0.119303174
30	0x3e28a6e0	0.16469908
31	0x3e6126c6	0.21987447
32	0xbe4129ac	-0.18863553
33	0xbde51959	-0.11186475
34	0xbf6784ba	-0.904369
35	0x3d7b61e3	0.06137265
36	0x3e9512e9	0.2911599
37	0xbdb6229a	-0.088933185
38	0xbcee2836	-0.029071908
39	0xbea0c22b	-0.31398138
40	0xbd8de784	-0.06928924
41	0xbeb355c9	-0.35026386
42	0x3e013cdf	0.12620877
43	0x3e8eac8e	0.27866024
44	0x3d6d94ea	0.058003344
45	0xbea31fbb	-0.31860146
46	0xbd58fec1	-0.052977327
47	0xbda73be7	-0.08165722
48	0x3dc4f736	0.09617464
49	0xbe426f4b	-0.18987767
50	0xbcc1f2d7	-0.023675365
51	0x3da80833	0.08204689
52	0xbdef423c	-0.11682555
53	0xbe28e0f8	-0.16492069
54	0x3d9f1c08	0.077690184
55	0xbe1cabe6	-0.15299949
56	0xbe3402b0	-0.1757915
57	0xbe44ebaf	-0.19230531
58	0x3d2b0190	0.041749537
59	0xbd8fbbe1	-0.07018257
60	0x3e0f489b	0.1399254
61	0x3e02b165	0.12762983
62	0x3ea40830	0.32037497
63	0xbedabf0b	-0.4272388
64	0xbde3bd13	-0.111200474
65	0xbc4aeebd	-0.012386021
66	0x3e5bda27	0.21469937
67	0xbd9d246f	-0.07672965
68	0xbf362163	-0.71144694
69	0xbe428317	-0.1899532
70	0x3dd1bfa2	0.10241629
71	0xbea21267	-0.31654665
72	0x3df3d3a4	0.119056016
73	0x3ca56f01	0.020194532
74	0x3dbac7f0	0.09120166
75	0xbf6419e0	-0.8910198
76	0xbe308382	-0.17237666
77	0xbd9e6401	-0.07733918
78	0xbe2255ab	-0.15852992
79	0xbe9b1841	-0.30291942
80	0x3d19cdc0	0.037549734
81	0x3cac6bcf	0.0210475
82	0xbe16e205	-0.14734657
83	0xbce7afa8	-0.028282002
84	0x3d035cf8	0.032071084
85	0xbe40fb14	-0.18845779
86	0xbe871bb0	-0.2638831
87	0xbd869854	-0.06572023
88	0xbe2253ab	-0.1585223
89	0xbe8e1765	-0.27752224
90	0xbe47a7e5	-0.1949764
91	0xbe3ecd7a	-0.1863307
92	0xbea09b5c	-0.3136853
93	0xbe007b3c	-0.1254701
94	0xbf7949d3	-0.9737827
95	0x3dc7cfa3	0.097564004

classifier.bias f4 [3]
0	0x3ee14e7b	0.44005188
1	0xbeb261b8	-0.34840178
2	0xbe1ef06a	-0.15521398
