Trading_Model/trading_model_US30.pth (torch, 22262 bytes, 5 tensors)

net.0.weight f4 [64, 42]
0	0x3e0d19b1	0.13779332
1	0xbd4bd440	-0.049762964
2	0xbb4ac931	-0.0030942673
3	0xbd63821a	-0.055543996
4	0xbdc79ccd	-0.09746704
5	0xbc0d4be9	-0.008624055
6	0xbde2a354	-0.110663086
7	0x3c5fe808	0.01366616
8	0x3d99434e	0.074835405
9	0xbe576061	-0.2103286
10	0xbe424183	-0.18970303
11	0xbda094f5	-0.07840911
12	0x3db4ddb2	0.088313475
13	0xbe0ddbd4	-0.13853389
14	0xbd798cf2	-0.06092543
15	0xbe2062a2	-0.15662625
16	0x3d87e85e	0.066361174
17	0xbe0983a4	-0.13429123
18	0xbe146a2a	-0.14493623
19	0xbe1c6e98	-0.15276563
20	0xbe2966dc	-0.16543144
21	0xbdd2c7b3	-0.10291996
22	0xbd86c36e	-0.06580244
23	0xbc720e27	-0.014773882
24	0x3cc268af	0.023731558
25	0x3de709c7	0.11281162
26	0xbe0ed307	-0.13947688
27	0xbcbc276c	-0.022968017
28	0x3dfd6eda	0.12374659
29	0xbdd31d65	-0.10308341
30	0xbd928626	-0.07154493
31	0xbd1fc3dd	-0.03900515
32	0xbddba882	-0.107255
33	0xbe49de0d	-0.19713612
34	0xbde1ce70	-0.11025703
35	0x3c3d7418	0.011563323
36	0xbe0b727d	-0.13617893
37	0xbbfd8f1d	-0.0077380077
38	0x3d61f5ca	0.055166043
39	0xbd708cf5	-0.058728177
40	0x3d37dba4	0.0448872
41	0xbda3636f	-0.0797795
42	0xbe1d3b1c	-0.1535458
43	0x3c822e3d	0.015891189
44	0xbe0c4383	-0.13697629
45	0xbded9d28	-0.11602241
46	0x3df7401c	0.12072775
47	0x3ab3d4fd	0.0013720092
48	0xbd842309	-0.06451995
49	0x3e0f30c4	0.13983446
50	0x3d47b91b	0.048760515
51	0xbcf6a3bc	-0.030107372
52	0x3d83c0c9	0.06433255
53	0xbd18ea19	-0.037332628
54	0x3b57d494	0.0032933103
55	0xbe1d2d65	-0.15349348
56	0x3d01d61e	0.03169834
57	0xbbad8a02	-0.005295993
58	0x3d010bd2	0.031505413
59	0x3d430526	0.04761233
60	0xbe21269a	-0.15737382
61	0x3d97a8be	0.07405232
62	0xbdce9c3c	-0.10088393
63	0x3db6cc18	0.089256465
64	0xbdc1cce9	-0.09462912
65	0xbded46d0	-0.11585772
66	0xbd0db7cb	-0.034599107
67	0xbd39efae	-0.045394592
68	0x3dfd2c4b	0.12361964
69	0x3e00870e	0.1255152
70	0x3da55d2d	0.080744125
71	0x3cda166b	0.026622018
72	0xbdc84c60	-0.097801924
73	0x3e11204a	0.14172474
74	0xbde86b2f	-0.11348569
75	0xbd29e648	-0.04147938
76	0xbe04f1fe	-0.12982938
77	0xbdba91c3	-0.09109833
78	0xbd740f0c	-0.059584662
79	0x3d7dbb49	0.061946187
80	0xbd338850	-0.04383117
81	0xbda92b75	-0.08260242
82	0x3d5a5e66	0.05331268
83	0x3db8badb	0.09020015
84	0x3d600b95	0.054698545
85	0x3d8a3f3d	0.06750343
86	0x3c2cc183	0.010544184
87	0xbd1571a8	-0.036485344
88	0x3d25345f	0.040333148
89	0xbd9f5e11	-0.077816136
90	0xbe2c2ada	-0.16813222
91	0xbd138bd1	-0.03602201
92	0x3de2f16c	0.11081204
93	0x3defac9e	0.11702846
94	0xbd9b67e8	-0.07588178
95	0xbd66c4fa	-0.056340195
96	0x3c4decc3	0.012568655
97	0xbe056240	-0.1302576
98	0x3d4a824b	0.049440663
99	0x3dabe7b5	0.08393804
100	0xbe35cfac	-0.17755002
101	0xbca79c89	-0.020460384
102	0xbe4c129c	-0.19928974
103	0x3b3ad245	0.0028506678
104	0xbd43174c	-0.04762964
105	0x3e18f1b4	0.14935952
106	0x3df61805	0.120163
107	0xbdfa66ce	-0.1222664
108	0x3d25cd02	0.040478714
109	0xbd60dedf	-0.054900046
110	0x3d315fdc	0.04330431
111	0xbc888711	-0.016665967
112	0x3ad34790	0.001611935
113	0xbdce5385	-0.10074524
114	0xbd4a259f	-0.049352285
115	0xbdd66c1d	-0.1046984
116	0xbd9292bf	-0.07156896
117	0xbd172cbb	-0.036907893
118	0x3d1ee969	0.038796816
119	0x3b87dfd4	0.0041465554
120	0x3d31528d	0.043291617
121	0x3dc94d74	0.09829226
122	0x3d686044	0.05673243
123	0xbda85dc7	-0.082210116
124	0xbe25040d	-0.16114827
125	0x3d62c16f	0.055360254
126	0xbe4c5dfa	-0.19957724
127	0xbd3e1e3a	-0.046415545
128	0x3c5a8fc7	0.013339943
129	0xbe639226	-0.2222372
130	0xbf3cd828	-0.7376733
131	0xbf5d77c0	-0.8651085
132	0xbea78ce1	-0.3272467
133	0xbf3da13e	-0.7407416
134	0x3e2936b2	0.16524771
135	0xbc4093e6	-0.011754012
136	0xbeb935ab	-0.36173758
137	0x3e0e9b45	0.13926418
138	0xbed7f022	-0.42175394
139	0x3e549d1e	0.2076306
140	0xbf328237	-0.6972994
141	0xbe229c05	-0.15879829
142	0x3e58a79a	0.21157685
143	0xbc760aad	-0.015017194
144	0x3c951ee3	0.018203204
145	0xbc959423	-0.018259114
146	0x3c432c28	0.011912383
147	0xbef32cd4	-0.4749514
148	0xbda17b7a	-0.078848794
149	0xbef90ede	-0.48644155
150	0xbe85cf48	-0.26134706
151	0xbc0ad2f4	-0.008473147
152	0x3d1f14b6	0.03883811
153	0x3c09ff07	0.00842262
154	0x3e5be54e	0.21474192
155	0xbe86fd0f	-0.26364943
156	0x3e358714	0.1772731
157	0xbef0b156	-0.47010297
158	0x3c8af1d7	0.016961021
159	0xbea3ede2	-0.32017428
160	0xbb0227d0	-0.0019860156
161	0x3da8aa11	0.082355626
162	0x3d8b3e76	0.06799023
163	0x3c87713c	0.016533487
164	0x3dd7641e	0.10517143
165	0xbe587091	-0.2113669
166	0xbe706c17	-0.23478733
167	0xbe038e77	-0.12847315
168	0x3cb1f8ff	0.021725176
169	0x3d2af11c	0.041733846
170	0x3d2f3e43	0.042783987
171	0xbdf65bb1	-0.120292075
172	0xbd80c54f	-0.06287634
173	0xbd1fae68	-0.038984686
174	0x3da63e53	0.08117356
175	0xbdd09dd1	-0.10186351
176	0xbeb5fe40	-0.3554554
177	0x3d18b4d8	0.03728184
178	0x3e04a0e9	0.12952007
179	0x3df4ec1a	0.11959095
180	0xbd8fea98	-0.07027167
181	0x3ca63795	0.020290175
182	0x3e7f7467	0.24946748
183	0xbe1ae5cf	-0.15126728
184	0x3e1ec9ba	0.1550664
185	0x3c6184dd	0.013764587
186	0xbd3515a7	-0.044210102
187	0xbe72d708	-0.2371484
188	0x3df39a5d	0.11894677
189	0x3d813a04	0.06309894
190	0xbcbad46c	-0.022806369
191	0xbe252805	-0.16128547
192	0x3dbb4905	0.09144787
193	0xbdef5444	-0.11685994
194	0x3ca028be	0.019550677
195	0xbe3f9419	-0.18708839
196	0xbb576a1f	-0.003286965
197	0x3de6a129	0.112612076
198	0xbebbc58a	-0.36674148
199	0xbd742cc5	-0.059613008
200	0xbb1591d2	-0.0022822511
201	0x3d8aca6f	0.067768924
202	0xbdb9998f	-0.09062492
203	0xbded775f	-0.11595034
204	0xbdfad732	-0.122480765
205	0x3e16ae83	0.14715008
206	0x3d059b92	0.032619067
207	0xbdaedd86	-0.08538346
208	0x3e30cb5f	0.1726508
209	0x3e08cb07	0.13358699
210	0x3cc52b29	0.024068432
211	0xbd60da0d	-0.05489545
212	0xbccda8b4	-0.025104858
213	0x3cd6f4f8	0.026239857
214	0xbcbad7ff	-0.022808073
215	0x3d9cebfa	0.076621965
216	0xbe02ad7a	-0.12761489
217	0x3dc5b7fa	0.09654231
218	0xbda40445	-0.08008627
219	0xbe4d4006	-0.20043954
220	0x3dfbecdc	0.12301037
221	0x3c1b358b	0.009473215
222	0xbd3f64ab	-0.046726864
223	0xbd6a7d01	-0.05724812
224	0xbc84480b	-0.016147634
225	0xbcaa1f37	-0.020766838
226	0x3cc3f44f	0.023920206
227	0xbb93907f	-0.0045033093
228	0xbc839312	-0.01606134
229	0x3dccc9d8	0.09999436
230	0x3dcc8839	0.0998692
231	0xbc83485c	-0.016025715
232	0xbd2e93f1	-0.042621557
233	0xbe322039	-0.17395104
234	0xbd190756	-0.03736051
235	0x3db2230f	0.08698093
236	0xbce0882f	-0.027408687
237	0x3d9cf71b	0.07664319
238	0x3d4ace31	0.049513046
239	0xbdfa6d9e	-0.12227939
240	0x3e08c19d	0.13355108
241	0x3d350310	0.044192374
242	0xbe31de10	-0.17369866
243	0xbcb5048e	-0.022096898
244	0xbd6b3f82	-0.057433613
245	0xbdbb40fd	-0.09143255
246	0x3ca0df7a	0.019637812
247	0xbde16ef1	-0.110074885
248	0x3d15545d	0.03645741
249	0xbdcdb947	-0.100451045
250	0x3c5751c4	0.013142053
251	0xbd3bdc6c	-0.045864508
252	0xbbc48c21	-0.00599815
253	0xbe1c5a58	-0.15268838
254	0x3b8a8ad0	0.0042279735
255	0x3c0080db	0.007843222

net.0.bias f4 [64]
0	0x3e02c0df	0.12768887
1	0xbda32f00	-0.07967949
2	0xbd920a1b	-0.07130834
3	0xbe08c5bc	-0.1335668
4	0x3e4e6ca0	0.20158625
5	0xbb4b4143	-0.003101424
6	0x3e5a756f	0.2133386
7	0x3e88d019	0.26721266
8	0xbd3ce41d	-0.046115983
9	0x3d527021	0.051376466
10	0x3f003695	0.50083286
11	0x3ee4f39e	0.44717115
12	0xbc2b83ad	-0.010468406
13	0xbc60eba0	-0.013728052
14	0x3da8211c	0.0820944
15	0xbe2d6b72	-0.16935518
16	0x3d784c11	0.060619418
17	0xbc6b9204	-0.014378075
18	0xbc2f5485	-0.010701303
19	0xbc3df32a	-0.011593619
20	0x3dc0f408	0.09421545
21	0x3e2d4bc9	0.16923441
22	0x3e326597	0.17421566
23	0xbd44c782	-0.048041828
24	0xbe211b54	-0.15733081
25	0xbddc1f6e	-0.10748182
26	0x3da2b5a1	0.07944799
27	0xbdfba942	-0.12288143
28	0xbd442179	-0.047883485
29	0xbd223570	-0.039601743
30	0x3d460e38	0.048353404
31	0xbdf8efea	-0.12155135
32	0xbd743c83	-0.05962802
33	0xbd89067c	-0.0669069
34	0x3e0ff596	0.14058527
35	0xbdaa8c81	-0.0832758
36	0x3db49eb0	0.0881933
37	0x3dc80266	0.097660825
38	0x3d738423	0.059452187
39	0xbe0ccec8	-0.13750756
40	0xbd79d5da	-0.06099496
41	0xbd26ccea	-0.040722765
42	0x3ddecbe6	0.10878734
43	0x3cd5bd0b	0.02609112
44	0xbdb27cc9	-0.08715207
45	0xbe139e92	-0.14415959
46	0x3d3c3924	0.04595293
47	0x3d85b9b6	0.06529562
48	0xbd5423fe	-0.051792137
49	0xbd951b5c	-0.07280609
50	0x3d0c9aa4	0.034327164
51	0xbe54b317	-0.20771442
52	0xbab3a3bd	-0.0013705414
53	0xbd57f8f0	-0.05272764
54	0x3d1d07b1	0.038337413
55	0x3dc0e25a	0.09418173
56	0x3dffcea0	0.124905825
57	0xbddd667f	-0.10810565
58	0x3e2eac04	0.17057806
59	0x3dd775cc	0.10520515
60	0xbcce212e	-0.025162306
61	0xbdeac6fe	-0.11463736
62	0xbda604e7	-0.08106404
63	0xbe30aaf7	-0.17252718

net.2.weight f4 [32, 64]
0	0x3c1d47cd	0.009599638
1	0xbd0270e7	-0.031845953
2	0xbdb2631e	-0.08710311
3	0x3a4b0105	0.00077439874
4	0x3d7e988f	0.06215721
5	0xbcbdf037	-0.023185832
6	0xbdcdd99a	-0.1005127
7	0xbb09e0b6	-0.002103848
8	0xbe1a0ded	-0.15044375
9	0x3d6d8174	0.057984784
10	0xbe129a33	-0.14316635
11	0xbc23b98d	-0.009992969
12	0xbcebe16e	-0.028794017
13	0xbdd3a7f4	-0.10334769
14	0xbc0e9995	-0.008703609
15	0x3d6597fc	0.056053147
16	0xbc8a0239	-0.016846763
17	0x3cd2c0f8	0.02572678
18	0xbd3158f4	-0.043297723
19	0xbe0d23a2	-0.13783124
20	0xbc54f8b6	-0.01299875
21	0x3d0d4a37	0.034494605
22	0xbe3fa28b	-0.18714349
23	0xbdf24044	-0.11828664
24	0xbdb8256b	-0.08991512
25	0x3ae5aad4	0.0017522224
26	0x3a0f4fde	0.0005466918
27	0xbdcb01e9	-0.09912474
28	0x3dac8cdc	0.08425304
29	0xbd7f60f1	-0.06234831
30	0xbdef0bb7	-0.11672156
31	0xbbd501f4	-0.006500477
32	0x3dd010fb	0.10159489
33	0xbcc3e7dd	-0.023914272
34	0xbde27225	-0.110569276
35	0x3d1b85a8	0.03796926
36	0xbdcb73d7	-0.09934204
37	0xbdce7974	-0.10081759
38	0x3c62c6a0	0.013841301
39	0xbdc1a3d8	-0.09455079
40	0xbca003bd	-0.019533033
41	0x3c49dc94	0.012320656
42	0xbd82c84e	-0.06385861
43	0xbaecaf23	-0.0018057566
44	0xbba7dac3	-0.005122514
45	0xbc906821	-0.017627778
46	0x3d3a19d4	0.045434788
47	0xbcbccd10	-0.023047
48	0x3bd57024	0.0065136123
49	0x3bdcb65a	0.006735605
50	0xbd292add	-0.041300643
51	0xbcccc8b5	-0.024998048
52	0xbdc4ca32	-0.09608878
53	0xbcaac8d5	-0.020847717
54	0xbe15e02a	-0.14636293
55	0x3b76c31d	0.0037652918
56	0xbd67c5a2	-0.05658496
57	0xbdd134ac	-0.102151245
58	0xbc0ebdf0	-0.008712277
59	0xbdac20b2	-0.08404674
60	0x3d638226	0.05554404
61	0xbdba711a	-0.09103604
62	0xbadb1c00	-0.0016716719
63	0xbc141dd1	-0.009040312
64	0xbcd7c1a3	-0.02633745
65	0x3d832c65	0.06404952
66	0xbceb91bb	-0.028756013
67	0x3e3f027c	0.18653291
68	0x3ce88a5d	0.02838629
69	0x3bee189c	0.0072661173
70	0xbc927432	-0.017877672
71	0xbd0bead8	-0.03415951
72	0x3d993729	0.07481224
73	0xbce6259d	-0.028094107
74	0x3e3f24ba	0.18666354
75	0x3e367257	0.17817055
76	0xbd02de97	-0.03195056
77	0x3d165e60	0.036711097
78	0x3dca138f	0.09867012
79	0xbd55ee56	-0.052229248
80	0x3df1b8ba	0.11802812
81	0xbdb235f1	-0.08701695
82	0xbd67e886	-0.056618236
83	0x3d498fc1	0.04920936
84	0xbd636d68	-0.05552426
85	0x3d6a714f	0.057236966
86	0xbddf4001	-0.1090088
87	0x3d5c9f32	0.053862758
88	0x3e12e1bf	0.14343928
89	0x3ddc07f4	0.107437044
90	0x3df0de0e	0.117611036
91	0x3da7cb57	0.08193081
92	0x3e016cfc	0.1263923
93	0x3bb4ba46	0.0055153696
94	0xbc91b162	-0.017784778
95	0x3c8974e9	0.01677938
96	0xbd84d911	-0.06486715
97	0x3d9ff0cb	0.078095995
98	0xbc8b2d01	-0.016989233
99	0xbcda448f	-0.02664402
100	0xbba1a392	-0.004932829
101	0x3dbbb4a8	0.09165317
102	0xbd8d0164	-0.06885031
103	0x3dcee0a4	0.101014405
104	0x3d8c5c55	0.068535484
105	0xbdcc0f09	-0.09963805
106	0xbcc40f88	-0.023933187
107	0xbdf7d5d6	-0.12101333
108	0xbcb48149	-0.022034304
109	0x3c8ea0e9	0.017410712
110	0x3d536ed8	0.05161938
111	0xbdeabc7e	-0.11461733
112	0x3dc4c2be	0.096074566
113	0x3d6a6dbd	0.05723356
114	0x3e757156	0.23969015
115	0x3da8fe86	0.082516715
116	0x3e8b9dab	0.2726873
117	0x3dea3c36	0.114372656
118	0x3d0c9374	0.03432031
119	0xbd8b172e	-0.067915305
120	0x3d9b8fbb	0.07595774
121	0xbdd417fa	-0.10356136
122	0x3eb10c81	0.34579852
123	0x3d9c432b	0.07629999
124	0xb95c228c	-0.00020993705
125	0xbd69718c	-0.056993052
126	0xbdf99a51	-0.12187637
127	0x3de9d5c1	0.114177234
128	0x3dd7816e	0.10522734
129	0xbc38e260	-0.011284441
130	0x3dcb64da	0.09931345
131	0xbc8925b0	-0.016741604
132	0xbccaaf8b	-0.024741909
133	0x3d808b35	0.06276552
134	0xbd1240c3	-0.035706293
135	0x3bde905b	0.006792111
136	0xbd908e2c	-0.07058367
137	0xbd8cd198	-0.06875914
138	0xbc83ba17	-0.016079945
139	0xbb9cc3c3	-0.004784079
140	0xbd86d39d	-0.06583331
141	0xbdc04fd4	-0.09390226
142	0xbe192579	-0.14955701
143	0x3bdcacc2	0.0067344615
144	0xbd9adcf9	-0.075616784
145	0xbd57497c	-0.052560315
146	0xbcca007e	-0.024658438
147	0xbdbf1fab	-0.09332212
148	0x3d4b6fb0	0.04966706
149	0xbdc22348	-0.094793856
150	0xbdafb340	-0.08579111
151	0xbcd06cc0	-0.025442481
152	0xbdece16b	-0.115664326
153	0xbdef6017	-0.116882496
154	0xbdd672e0	-0.104711294
155	0x3d856fcb	0.065154634
156	0x3db674db	0.08909007
157	0x3cefdbfe	0.029279705
158	0xbe051efb	-0.130001
159	0xbda1d8c7	-0.07902675
160	0x3cc6659c	0.024218373
161	0xbc95dece	-0.018294718
162	0xbdca655f	-0.09882616
163	0x3d6e46b8	0.05817291
164	0xbdb5cc0b	-0.08876809
165	0x3d23beaf	0.039976772
166	0x3db10aae	0.08644615
167	0xbdbf1668	-0.093304455
168	0xbda6ec68	-0.0815056
169	0x3da6642b	0.08124574
170	0x3d9168a4	0.07100037
171	0x3dab6a78	0.08369917
172	0xbc9c74d5	-0.019098679
173	0x3b3ab26a	0.002848769
174	0x3caca420	0.021074355
175	0xbe1af46f	-0.15132307
176	0x3dac12ee	0.08402048
177	0xbdcaee08	-0.09908682
178	0x3d90abc3	0.07064011
179	0xbce905e5	-0.028445194
180	0xbd9431ce	-0.07236062
181	0x3cdf584a	0.02726378
182	0xbe088c19	-0.13334693
183	0x3da24256	0.07922809
184	0xbd808e8c	-0.06277189
185	0x3df44b28	0.119283974
186	0x3de0eac0	0.10982275
187	0x3a5798cb	0.0008224367
188	0x3c78af43	0.015178504
189	0xbdb09408	-0.08621985
190	0x3dcd704e	0.10031186
191	0xbe05da5c	-0.13071579
192	0x3d79af3c	0.060958132
193	0x3ddda6e8	0.108228505
194	0xbcd14d58	-0.025549576
195	0x3d4e8020	0.05041516
196	0x3da921d3	0.082584046
197	0x3ba85779	0.0051373807
198	0xbd7bd855	-0.061485607
199	0xbc8f7719	-0.017512845
200	0xbccc7778	-0.02495931
201	0xbd7bccec	-0.061474726
202	0xbdca169b	-0.09867593
203	0x3d502a75	0.05082174
204	0x3ca35c40	0.01994145
205	0x3dfb8504	0.1228123
206	0xbda96010	-0.082702756
207	0xbdf99610	-0.12186825
208	0xbe150491	-0.14552523
209	0xbdc905ce	-0.0981556
210	0xbda14394	-0.07874218
211	0xbcd22918	-0.02565436
212	0xbde7e908	-0.11323744
213	0xbdb16f0a	-0.08663757
214	0xbd7d4994	-0.061837748
215	0xbdf974d0	-0.12180483
216	0xbcd2c488	-0.025728479
217	0x3cf11768	0.029430106
218	0x3de2ba3e	0.11070679
219	0xbcf8f0f0	-0.030388325
220	0x3da8ff46	0.082518145
221	0x3dea809a	0.1145031
222	0xbdb81f38	-0.089903295
223	0x3d18afc0	0.037276983
224	0x3d85dcae	0.06536232
225	0xbdc4b524	-0.09604862
226	0x3baa1b40	0.0051912367
227	0xbd954f30	-0.072904944
228	0x3bc7ede0	0.006101355
229	0x3ac1480f	0.0014746207
230	0x3cfb3f58	0.030669853
231	0xbd032d44	-0.03202559
232	0xba9e2900	-0.0012066662
233	0xbd4eade4	-0.050458804
234	0xbd5f0554	-0.05444844
235	0xbc7f7890	-0.015592709
236	0x3dc77b2e	0.097402915
237	0x3c9467f8	0.018115982
238	0x3d4e4e08	0.050367385
239	0x3c09d0c0	0.008411586
240	0x3d2a852c	0.04163091
241	0x3d19f9d4	0.03759177
242	0x3adcdb00	0.0016849935
243	0x3df7a66a	0.12092288
244	0x3d51188c	0.0510488
245	0xbbd08c40	-0.0063643754
246	0xbaaa4300	-0.0012989938
247	0xbc0d58e0	-0.0086271465
248	0xbdb6e338	-0.08930057
249	0xbbda58a0	-0.006663397
250	0x3c6aec80	0.014338613
251	0xbd5164cc	-0.051121518
252	0x3a4e3700	0.0007866472
253	0xbba50840	-0.005036384
254	0xbcc29ad0	-0.023755461
255	0xbd4d75a4	-0.05016102

net.2.bias f4 [32]
0	0x3c5e9b4d	0.013586831
1	0x3e892cbe	0.26791948
2	0xbd3b20dc	-0.045685634
3	0xbcc69f90	-0.024246007
4	0xbd78843e	-0.06067299
5	0xbd8498c6	-0.06474452
6	0x3eafccd3	0.34335956
7	0x3e279a07	0.1636735
8	0xba498230	-0.0007686941
9	0xbe237ef0	-0.15966392
10	0x3e4b171c	0.19833034
11	0x3910e8aa	0.00013819584
12	0x3dc99bfd	0.098442055
13	0x3e88ecea	0.2674325
14	0xbe086055	-0.13317998
15	0x3d942a3e	0.072346196
16	0xbcd921d0	-0.02650538
17	0xbe181b30	-0.14854121
18	0xbd475afa	-0.048670746
19	0xbe2026c4	-0.15639788
20	0x3d44363e	0.047903292
21	0x3e461dd6	0.19347319
22	0xbde355aa	-0.111003235
23	0xbcd546b3	-0.026034689
24	0xbdceb05e	-0.10092233
25	0x3e132aa1	0.1437173
26	0x3d4ee2a6	0.050509118
27	0xbe212231	-0.15735699
28	0xbd610890	-0.054939806
29	0x3d424400	0.04742813
30	0x3da43709	0.080183096
31	0xbc9d9513	-0.019236123

net.4.weight f4 [1, 32]
0	0xbdece89c	-0.11567804
1	0x3e2e19d7	0.17002045
2	0xbd38184f	-0.044945057
3	0xbe1084e1	-0.1411319
4	0x3bdeedf5	0.006803269
5	0xbd7801bb	-0.060548525
6	0x3e6e0aea	0.23246351
7	0x3db36435	0.08759347
8	0xbdb9ea04	-0.09077838
9	0x3d30702e	0.043075733
10	0x3decd43d	0.11563919
11	0xbd8fd5b3	-0.07023182
12	0x3dbbd9e7	0.09172421
13	0x3dd328b9	0.103105016
14	0xbdc1c322	-0.09461047
15	0x3cac01b1	0.0209969
16	0x3e25ffb9	0.16210832
17	0x3de68911	0.11256612
18	0xbd86ced0	-0.06582415
19	0xbc0a2cb8	-0.008433513
20	0xbd962068	-0.073304
21	0x3dd3c2aa	0.103398636
22	0xbbacb664	-0.005270766
23	0xbe1ce544	-0.15321833
24	0xbbde3ce2	-0.00678216
25	0x3d913b77	0.0709142
26	0xbd781de8	-0.060575396
27	0xbd22b9bf	-0.039727923
28	0xbd823c8e	-0.06359206
29	0xbcd3f2ea	-0.025872666
30	0xbc9f5070	-0.019447535
31	0xbd9defe6	-0.077117726
