Trading_Model/trading_model_EURUSD.pth (torch, 16650 bytes, 5 tensors)

net.0.weight f4 [64, 20]
0	0x3d3da6cf	0.04630166
1	0xbe12b1f4	-0.14325696
2	0xbd9b829c	-0.07593271
3	0xbc9fc566	-0.019503307
4	0x3c838562	0.016054813
5	0xbe4e21ae	-0.20130035
6	0xbe1bdeb5	-0.15221675
7	0xbe04e190	-0.1297667
8	0xbdaf7c08	-0.08568579
9	0x3c7fdf02	0.015617134
10	0xbd887ad8	-0.066640556
11	0x3d4b4d24	0.049634114
12	0x399c48b9	0.0002980882
13	0x3d70f9a6	0.058831833
14	0xbd15ec2d	-0.036602188
15	0x3e383589	0.17989172
16	0xbc1b83d2	-0.009491878
17	0xbe45f22e	-0.19330665
18	0xbe0c43e5	-0.13697775
19	0x3dcbad38	0.09945148
20	0x3dbd83ec	0.09253678
21	0xbe0a7914	-0.1352275
22	0xbdbc86e3	-0.09205415
23	0x3ca9ce3b	0.020728221
24	0xbe24eff1	-0.16107155
25	0xbdebe81a	-0.11518879
26	0x3dc20da5	0.09475259
27	0xbe3c90a3	-0.1841455
28	0xbdeb697c	-0.11494729
29	0xbcd5527a	-0.026040304
30	0xbd668d46	-0.056287073
31	0x3e3ff80d	0.18746968
32	0x3b9b2853	0.0047350316
33	0xbec82457	-0.39090225
34	0x3cfd9348	0.030954018
35	0x389d95ad	7.514223e-05
36	0x3d461de8	0.048368365
37	0x3de6cbdc	0.11269352
38	0x3d2505a2	0.040288575
39	0xbdf2309a	-0.11825676
40	0xbde16b59	-0.11006803
41	0xbd0569a7	-0.03257146
42	0xbe2b9fd6	-0.16760191
43	0xbd80387b	-0.06260773
44	0xbda2425f	-0.079228155
45	0xbe412909	-0.1886331
46	0x3dd21f69	0.10259897
47	0xbe0087fe	-0.12551877
48	0x3dea1603	0.1142998
49	0xbda4be7c	-0.080441445
50	0x3c86fe8c	0.0164788
51	0x3dcaf5a1	0.09910131
52	0xbe20aaee	-0.15690205
53	0x3d00b960	0.031426787
54	0xbde3fcf5	-0.11132232
55	0x3ccf1aba	0.025281299
56	0x3d0880b1	0.033325855
57	0xbd30c53a	-0.04315684
58	0xbe44e6e3	-0.19228701
59	0xbe970681	-0.2949715
60	0x3e1c7716	0.15279803
61	0xbc5bb182	-0.01340902
62	0xbe1d0131	-0.15332486
63	0xbe30963e	-0.17244813
64	0xbde325f7	-0.110912256
65	0xbdfc5083	-0.12320044
66	0x3e37aec4	0.17937762
67	0xbd7da2bb	-0.06192277
68	0xbe294eb7	-0.16533934
69	0xbe304e62	-0.172174
70	0xbdeb42b4	-0.11487332
71	0x3e2b5e78	0.16735256
72	0xbe238079	-0.15966977
73	0xbcfc3706	-0.030787956
74	0xbe5636a0	-0.20919275
75	0x3e00d201	0.1258011
76	0x3cbde13f	0.023178695
77	0xbe2a7de4	-0.16649586
78	0xbe5d1788	-0.21591008
79	0xbbed8a4d	-0.0072491528
80	0xbd8d6eae	-0.06905876
81	0x3cf564e5	0.029955337
82	0xbc9e289f	-0.019306479
83	0x3e2d29e0	0.16910505
84	0xbe66d298	-0.22541273
85	0x3e039c5b	0.12852614
86	0xbe2637f8	-0.16232288
87	0xbe6e1dca	-0.23253551
88	0xbe41c076	-0.18921074
89	0x3db038fe	0.086046204
90	0xbe4546b8	-0.19265258
91	0xbe080168	-0.13281786
92	0xbe24e488	-0.16102803
93	0xbdbde327	-0.092718415
94	0x3c514aea	0.012774209
95	0xbb653656	-0.0034975014
96	0x3df23d37	0.11828082
97	0x3d3f613c	0.04672359
98	0x3c700c80	0.014651418
99	0x3d82f93a	0.063951924
100	0x3d91739a	0.071021274
101	0xbe267aa7	-0.16257726
102	0xbc7b7f54	-0.015350182
103	0xbe9b4351	-0.30324796
104	0xbdc3c26c	-0.095585674
105	0xbdf303a8	-0.11865932
106	0x3d26c5c5	0.04071595
107	0x3c437cd5	0.011931618
108	0x3dcbf03d	0.09957931
109	0xbde73948	-0.112902224
110	0x3d718b88	0.058970958
111	0xbe73efd3	-0.23821954
112	0xbe8c1846	-0.2736227
113	0x3e6f28c4	0.23355395
114	0xbe405341	-0.18781759
115	0xbdf09686	-0.1174746
116	0xbe41afc2	-0.18914703
117	0xbe9e8aca	-0.30965263
118	0x3e98600e	0.29760784
119	0xbedf2d84	-0.43589413
120	0x3bef0aad	0.007294974
121	0xbc9e93af	-0.01935753
122	0x3cb5417a	0.022125948
123	0xbc8cf7a8	-0.017207935
124	0xbda5a63e	-0.08088349
125	0xbe782689	-0.2423345
126	0x3da16916	0.07881372
127	0xbdaede34	-0.08538476
128	0x3eba5653	0.36393985
129	0x3e1caf32	0.15301207
130	0x3e0b4eb6	0.13604245
131	0xbd858ed8	-0.06521386
132	0x3e172e40	0.14763737
133	0xbe075562	-0.13216165
134	0xbed44a0e	-0.4146275
135	0x3e909c2a	0.28244144
136	0xbea4ac16	-0.3216254
137	0xbcff312c	-0.031151377
138	0xbdf2e9da	-0.1186101
139	0x3e3d2192	0.18469837
140	0x3da3b00c	0.07992563
141	0xbb9f3257	-0.004858296
142	0xbd2751a1	-0.04084933
143	0xbe34b286	-0.17646226
144	0xbe30fb6e	-0.17283413
145	0x3c993ca3	0.018705672
146	0x3db73dd1	0.089473374
147	0x3df364a6	0.118844315
148	0xbd7a701d	-0.061142076
149	0xbe5c8b66	-0.21537551
150	0xbe09f4e8	-0.1347233
151	0x3e098bd8	0.13432252
152	0xbe287a00	-0.1645279
153	0xbdd93493	-0.10605731
154	0xbde121ee	-0.109928
155	0xbbdb3d3b	-0.006690649
156	0xbd92ac39	-0.07161755
157	0xbd8e102c	-0.06936678
158	0x3dc44465	0.09583358
159	0xbe04b63c	-0.12960142
160	0x3d985dbd	0.07439754
161	0xbd584cd7	-0.052807655
162	0x3d9c9bcf	0.07646906
163	0x3dc2b7cf	0.09507715
164	0xbe31f4c4	-0.17378527
165	0x3d7a6b2e	0.06113737
166	0x3d9b5169	0.07583887
167	0xbe8a3729	-0.2699521
168	0x3dfcb5ab	0.12339338
169	0xbe4a8d8b	-0.19780557
170	0xbd6b60f5	-0.057465512
171	0xbd8ff92d	-0.070299484
172	0xbe8ad6f3	-0.27117118
173	0xbbb73132	-0.0055905813
174	0x3d5f21d9	0.05447564
175	0xbc8defcc	-0.017326258
176	0x3d251b4d	0.04030924
177	0x3e009658	0.12557352
178	0xbbeee3ac	-0.007290324
179	0xbe3716fe	-0.17879865
180	0x3d3e48f8	0.046456307
181	0xbbdccadb	-0.0067380494
182	0x3d3a98f2	0.045556016
183	0x3ba0e3b7	0.004909958
184	0xbe9ab934	-0.30219424
185	0xbd568af6	-0.052378617
186	0x3c721b81	0.014777065
187	0x3cf60f7b	0.030036679
188	0xbe7a9e64	-0.24474484
189	0xbebeb050	-0.3724389
190	0xbd905ac1	-0.0704856
191	0xbe15ec83	-0.14641003
192	0x3cb50be7	0.022100402
193	0xbdc6f031	-0.097137816
194	0xbebe4234	-0.37159884
195	0x3bd090fa	0.006364939
196	0xbe193bfe	-0.14964291
197	0xbdb94ccb	-0.0904785
198	0x3daaf601	0.08347703
199	0xbd934b7d	-0.071921326
200	0xbe279f5c	-0.16369385
201	0x3dcbedc6	0.09957461
202	0xbdc497d0	-0.095992684
203	0x3e4cc502	0.19997028
204	0x3dff03bc	0.12451884
205	0xbc17cd4c	-0.009265255
206	0xbe601fb0	-0.21887088
207	0x3e3d056b	0.18459098
208	0xbe197210	-0.14984918
209	0xbe0b11c0	-0.1358099
210	0xbe4e2435	-0.20131
211	0xbe455f27	-0.19274579
212	0xbd7117ea	-0.058860697
213	0xbd8ac6ea	-0.06776221
214	0x3da6a267	0.081364445
215	0xbe178239	-0.1479577
216	0x3da3b5ba	0.07993646
217	0xbd42b781	-0.047538284
218	0xbd5f7749	-0.05455712
219	0xbe5ff2dd	-0.21869989
220	0xbdec8521	-0.1154883
221	0x3d2ee8af	0.042702373
222	0xbe69b9d6	-0.22824797
223	0xbe06b82f	-0.13156198
224	0xbdebd5a9	-0.11515362
225	0xbdb99e01	-0.0906334
226	0xbe785a49	-0.24253191
227	0xbd4063cf	-0.046970185
228	0xbe4d39b8	-0.20041549
229	0xbe2c8bad	-0.16850157
230	0xbe3c2e2f	-0.18376993
231	0x3bc148c3	0.0058985665
232	0xbdae8e2f	-0.08523213
233	0x3cc89906	0.02448703
234	0x3e0de9b1	0.13858677
235	0xbd772cec	-0.060345575
236	0xbe7988cc	-0.2436859
237	0xbde403ab	-0.11133512
238	0xbe068eb1	-0.1314037
239	0x3d809b39	0.06279606
240	0x3dcd6c0c	0.10030374
241	0xbdc4a30c	-0.09601411
242	0x3de491e7	0.11160641
243	0xbe20476d	-0.15652247
244	0xbe338ac1	-0.17533399
245	0xbc5326e7	-0.012887693
246	0xbc62af71	-0.013835774
247	0xbca7d96f	-0.020489423
248	0x3dd45ac4	0.10368875
249	0xbc4a145a	-0.012333954
250	0x3dbf232e	0.09332882
251	0x3dec87aa	0.11549313
252	0xbdd44c92	-0.10366167
253	0xbe55179a	-0.20809785
254	0xbe637cff	-0.22215651
255	0xbd55f3a7	-0.052234318

net.0.bias f4 [64]
0	0xbcb19783	-0.021678692
1	0xbe2e981f	-0.17050217
2	0x3dbec58f	0.09315025
3	0x3c16279d	0.009164718
4	0xbe7df5f0	-0.24800849
5	0x3e3f77ca	0.1869804
6	0x3e9a259d	0.30106822
7	0xbc21ad59	-0.009867989
8	0xbe607994	-0.21921378
9	0x3cdff04c	0.027336262
10	0xbd14abf8	-0.036296815
11	0x3b5c9b95	0.003366207
12	0xbd94bde7	-0.072627835
13	0x3e6e28cf	0.23257755
14	0x3e59715c	0.2123465
15	0xbc800f63	-0.015632337
16	0xbc229576	-0.00992333
17	0xbe4963d5	-0.19666989
18	0x3e1765b2	0.14784887
19	0xbd28c33a	-0.041201808
20	0xbd9d53b1	-0.076819785
21	0xbda877d9	-0.08225984
22	0xbe094130	-0.13403773
23	0x3dd70c42	0.10500385
24	0x3e8a0fa9	0.26965073
25	0xbdb0fe48	-0.0864225
26	0xbe6407f1	-0.22268654
27	0x3d3d304f	0.04618865
28	0x3daddcd6	0.08489387
29	0xbcab2c17	-0.020895047
30	0xbe81e118	-0.25367045
31	0x3e0a44d3	0.13502817
32	0xbe7fe3a0	-0.24989176
33	0x3beccfcb	0.0072269193
34	0xbe027328	-0.12739241
35	0x3e8081b5	0.2509896
36	0xbe0c8ca6	-0.13725528
37	0x3e12523a	0.1428918
38	0x3e3ee1d9	0.18640842
39	0xbb571ce7	-0.0032823624
40	0x3cf74a3e	0.030186769
41	0xbe501dac	-0.20323819
42	0x3ecfe098	0.4060104
43	0x3dadb664	0.08482054
44	0x3dd0de54	0.10198656
45	0x3e405f93	0.18786459
46	0xbe803abe	-0.25044817
47	0x3d2f2719	0.042761896
48	0x3d92f688	0.07175928
49	0x3e1c9d85	0.15294464
50	0x3dcb2ff5	0.099212565
51	0x3cb7fe61	0.022460165
52	0x3e5fd373	0.21858005
53	0xbccabd37	-0.024748428
54	0xbe4e20e2	-0.20129731
55	0x3ddb41be	0.10705899
56	0xbde36434	-0.111030966
57	0xbe99cc92	-0.30038887
58	0xbd8ea4ac	-0.069650024
59	0xbe27c474	-0.16383535
60	0x3d85f340	0.06540537
61	0x3e29b305	0.16572197
62	0x3e614457	0.21998726
63	0xbdfbb7fb	-0.12290951

net.2.weight f4 [32, 64]
0	0xbda03be0	-0.0782392
1	0xbe11ec91	-0.14250399
2	0x3d36adf6	0.044599496
3	0xbd514014	-0.0510865
4	0xbd0482a6	-0.03235116
5	0x3d964947	0.07338195
6	0xbd86497f	-0.06556987
7	0xbd915983	-0.07097151
8	0xbd862043	-0.06549122
9	0x3d8c88ff	0.068620674
10	0xbc1a5dbd	-0.009421763
11	0x3d4d59ef	0.050134595
12	0xbd84ea60	-0.06490016
13	0x3d3e4a54	0.046457604
14	0xbd41550a	-0.04720024
15	0xbd106336	-0.035250865
16	0x3d2e59a3	0.042565953
17	0x3cd6a9a8	0.026203945
18	0xbe155b06	-0.14585504
19	0x3ccd2e81	0.025046589
20	0xbe01d276	-0.1267794
21	0xbd93d002	-0.07217409
22	0xbdd73b62	-0.10509373
23	0xbdfb4434	-0.12268868
24	0xbe290f63	-0.16509776
25	0x3c4f04ca	0.012635419
26	0xbd107e3a	-0.03527663
27	0xbd0d9289	-0.034563575
28	0xbe222f15	-0.15838273
29	0xbdf4307c	-0.1192331
30	0x3da3d165	0.07998923
31	0xbe050bd0	-0.12992787
32	0x3cd0278b	0.02540948
33	0xbdf3b69b	-0.119000636
34	0x3c39b645	0.01133496
35	0xbd592e34	-0.05302258
36	0xbbe70c8a	-0.0070510553
37	0xbdfa0931	-0.12208784
38	0xbda98ec9	-0.08279187
39	0x3c3ed500	0.011647463
40	0x3dd9b759	0.10630674
41	0xbd8d0108	-0.06884962
42	0xbd4119e5	-0.047143836
43	0x3da7dc5f	0.08196329
44	0xbd38e751	-0.045142476
45	0xbcbc8a28	-0.023015097
46	0x3dae0c01	0.08498383
47	0x3c3c3e8b	0.011489521
48	0xbd75bc42	-0.05999399
49	0x3d5e85bb	0.054326754
50	0xbdbc81c4	-0.09204438
51	0xbd4bd72b	-0.049765747
52	0xbe007f10	-0.1254847
53	0xbde39d29	-0.1111396
54	0xbe05138a	-0.12995735
55	0xbe276510	-0.16347146
56	0xbdd20639	-0.10255093
57	0xbdcf651f	-0.10126709
58	0xbd01e636	-0.031713687
59	0x3c957986	0.018246423
60	0x3d84df26	0.06487875
61	0xbce2b7e5	-0.027675578
62	0xbd8fcc58	-0.07021397
63	0x3da03e7a	0.078244165
64	0x3c814558	0.015780136
65	0xbda2b144	-0.07943967
66	0xbdb8bfb5	-0.0902094
67	0x3bef2066	0.0072975634
68	0x3db258dc	0.08708355
69	0x3d553d14	0.0520602
70	0xbd766ed2	-0.06016428
71	0x3d822198	0.06354064
72	0x3c65ba4c	0.014021467
73	0x3da7a841	0.08186389
74	0xbe1522c8	-0.14564049
75	0xbd730d49	-0.05933884
76	0xbd3f93a8	-0.046771675
77	0x3de7dafe	0.11321066
78	0xbe2bae76	-0.1676577
79	0xbd963f79	-0.07336325
80	0x3d0e935e	0.03480851
81	0xbd96a4f6	-0.073556826
82	0xbd4840bd	-0.048889864
83	0xbd1b511a	-0.03791914
84	0x3cc93c39	0.02456485
85	0xbde010c5	-0.109406985
86	0x3bd51bc0	0.006503552
87	0xbd8cd3d0	-0.068763375
88	0xbdd22bf6	-0.10262291
89	0xbd986387	-0.07440858
90	0xbd2735bb	-0.040822726
91	0x3dbdb4af	0.09262978
92	0x3d41f793	0.047355246
93	0x3d126a17	0.035745706
94	0x3b9835c6	0.004645082
95	0xbd7ceb9d	-0.061748136
96	0xbd9ba33d	-0.075994946
97	0xbda0d288	-0.07852656
98	0xbd5d5bcf	-0.054042634
99	0x3d963d37	0.073358946
100	0xbd8c98ee	-0.068651065
101	0xbdad7dbe	-0.08471249
102	0xbd8f75c1	-0.07004882
103	0xbcf1bad0	-0.029508024
104	0xbd4a74f7	-0.049427953
105	0xbc8a7728	-0.016902521
106	0xbde91e35	-0.11382715
107	0x3d367973	0.044549417
108	0x3cf55fa4	0.029952832
109	0x3d5a755f	0.05333459
110	0xbdc5eee4	-0.096647054
111	0xbd29206d	-0.04129069
112	0xbd88dc4e	-0.06682645
113	0x3daaa53c	0.08332297
114	0xbdd84414	-0.1055986
115	0x3ca0342a	0.019556124
116	0xbe0e13c2	-0.13874725
117	0x3d90123a	0.070347264
118	0x3d823a42	0.06358768
119	0xbdeb170e	-0.11479007
120	0x3d9071e9	0.07052977
121	0xbc5edc44	-0.01360232
122	0xbc9187a6	-0.017764878
123	0x3d1fa83d	0.038978804
124	0xbd684b12	-0.056712218
125	0xbd9fb3f0	-0.07797992
126	0xbd36e6e5	-0.044653792
127	0xbc2bb258	-0.010479532
128	0xbdd6bada	-0.10484858
129	0xbe01005c	-0.12597793
130	0x3d6ce3f9	0.0578346
131	0x3df33f97	0.11877363
132	0xba6cf876	-0.0009039709
133	0x3db14ae5	0.08656863
134	0xbd154166	-0.036439322
135	0x3c864e21	0.016394677
136	0x3cfc431f	0.030793725
137	0x3c5c4b86	0.013445741
138	0x3d1d14e2	0.038349994
139	0xbd992fc5	-0.074798144
140	0x3c971e88	0.018447176
141	0xbdf89b88	-0.1213904
142	0x3ce3b893	0.027797973
143	0xbe13fc33	-0.14451675
144	0xbde278d8	-0.11058205
145	0x3cc803a8	0.024415806
146	0xbd9c6ded	-0.07638154
147	0xbd3c6692	-0.045996256
148	0xbdeb7827	-0.114975266
149	0xbca0f0c9	-0.019646065
150	0x3d58ca0c	0.052927062
151	0x3d01225f	0.03152692
152	0xbe2223f7	-0.15834032
153	0x3da5ac3e	0.08089493
154	0x3d9f9a4a	0.077931
155	0xbdf07998	-0.11741942
156	0xbdac5dcc	-0.08416328
157	0xbe1d1328	-0.15339339
158	0xbdbf6e86	-0.093472525
159	0x3db91ed1	0.09039081
160	0xbdec7186	-0.115450904
161	0xbdb3d05e	-0.08779977
162	0xbdce3532	-0.1006874
163	0x3d0b9bd4	0.034084156
164	0xbdf80b27	-0.12111502
165	0x3dc27672	0.09495248
166	0x3d9e05c2	0.07715942
167	0x3d9eb082	0.0774851
168	0xbc4569ef	-0.012049182
169	0x3df9f8fe	0.122056946
170	0xbd5a8bed	-0.0533561
171	0x3d9e1237	0.07718318
172	0x3d0638e6	0.032769106
173	0x3bf2cb8a	0.0074095177
174	0x3da3e73e	0.0800309
175	0xbe12096a	-0.14261404
176	0xbdcd068d	-0.10011015
177	0x3ce3450d	0.027742887
178	0x3d78b977	0.060723748
179	0x3c4708d8	0.012148105
180	0xbd631b9e	-0.05544626
181	0x3de8f9b1	0.1137575
182	0x3cdf898e	0.02728727
183	0xbe1a6450	-0.15077329
184	0xbd981fd9	-0.074279495
185	0x3d430e41	0.047621015
186	0xbd99b54a	-0.07505281
187	0x3dbc580a	0.091964796
188	0x3caa5226	0.020791125
189	0x3d8f0997	0.06984251
190	0xbdec3ba5	-0.11534814
191	0x3d9de8c5	0.07710413
192	0xbdc84c4e	-0.09780179
193	0x3dcc0d6a	0.09963496
194	0xbde4596d	-0.11149869
195	0x3b9b5fa0	0.004741624
196	0x3ddb467f	0.107068054
197	0x3dae1cc5	0.08501581
198	0x3c134424	0.008988414
199	0x3d89ec0e	0.06734477
200	0x3ddbda00	0.107349396
201	0xbdb98f84	-0.090605766
202	0xbd2118b8	-0.039330214
203	0xbdd5a28e	-0.104313955
204	0xbdc9e5ca	-0.09858282
205	0xba922ac0	-0.0011151657
206	0x3d722aec	0.059122965
207	0xbda88838	-0.08229107
208	0x3d94675e	0.07246278
209	0xbcd10670	-0.025515765
210	0xbc6647c1	-0.014055193
211	0xbdcb7d65	-0.099360265
212	0xbdbe0f7a	-0.09280296
213	0xbd171f00	-0.0368948
214	0xbd4391dc	-0.047746524
215	0xbd800967	-0.06251793
216	0x3d09b4df	0.033619758
217	0xbdfbfca7	-0.12304049
218	0x3c191c02	0.0093450565
219	0x3dbb8323	0.09155872
220	0xbd88db7f	-0.066824906
221	0xbb3891f0	-0.0028163157
222	0x3ddaaf4e	0.10677968
223	0x3d7e4b79	0.062083695
224	0xbe0c793d	-0.13718124
225	0x3de124ec	0.109933704
226	0xbd688b6d	-0.05677359
227	0xbd85fdd8	-0.065425575
228	0xbd80b495	-0.06284443
229	0xbd941038	-0.07229656
230	0xbc887839	-0.01665889
231	0x3dd73714	0.10508552
232	0xbd8fe244	-0.070255786
233	0xbd4360b4	-0.047699645
234	0x3d588dd7	0.052869644
235	0xbdbe150a	-0.09281357
236	0x3c856f23	0.016288346
237	0xbdee6f24	-0.11642292
238	0x3c507f70	0.012725696
239	0x3d1ffbcc	0.03905849
240	0x3dc470db	0.09591838
241	0xbdf669f7	-0.1203193
242	0x3d7bcb51	0.061473195
243	0xbdc09ad2	-0.0940453
244	0xbd95cdee	-0.073146686
245	0xbca619c0	-0.02027595
246	0xbdf8c06c	-0.121460766
247	0xbde48395	-0.1115791
248	0xbde5e2bd	-0.112248875
249	0xbc3c7468	-0.011502363
250	0x3c91ac79	0.017782437
251	0x3c7c24c9	0.01538963
252	0x3c8a7999	0.016903685
253	0x3a24100a	0.00062584935
254	0x3d86d956	0.06584422
255	0xbcfb28af	-0.030659048

net.2.bias f4 [32]
0	0xbd2f8414	-0.04285057
1	0xbd2b5465	-0.04182853
2	0xbdae634e	-0.085150346
3	0xbe05ef9e	-0.13079688
4	0xbac3115d	-0.0014882494
5	0xbcd2c42f	-0.025728313
6	0xbd8119d6	-0.06303756
7	0xbd177749	-0.036978994
8	0xbd7858dd	-0.06063162
9	0xbe19b29f	-0.15009545
10	0xbdde168f	-0.108441465
11	0x3e6b2118	0.22961843
12	0xbda36972	-0.079790965
13	0xbe0ce72a	-0.13760057
14	0xbcefafda	-0.029258657
15	0xbced89bb	-0.028996339
16	0xbd8bcf6c	-0.06826672
17	0x3e9f105b	0.31067166
18	0xbd0256d4	-0.031821087
19	0xbd28781e	-0.041130178
20	0xbe4e8d20	-0.20171022
21	0xbd20c342	-0.039248712
22	0xbd644ce0	-0.055737376
23	0xbdb04d9a	-0.08608551
24	0xbc724968	-0.014788009
25	0xbd509415	-0.050922472
26	0xbdb2d74c	-0.08732471
27	0xbd9ba2ba	-0.07599397
28	0xbd5681f4	-0.052370027
29	0x3dd7c5b8	0.10535759
30	0xbc6874d7	-0.014188013
31	0xbd03db4e	-0.032191567

net.4.weight f4 [1, 32]
0	0xbdc928dd	-0.09822247
1	0xbd00c7d9	-0.03144059
2	0x3ba136fd	0.004919885
3	0xbdef26e7	-0.11677342
4	0xbdbd3426	-0.09238462
5	0xbdde231b	-0.108465396
6	0xbe908163	-0.28223714
7	0xbd9c0527	-0.0761817
8	0xbca31b4c	-0.019910477
9	0x3c4fffaf	0.012695237
10	0xbddd821f	-0.10815834
11	0x3df4b2eb	0.119481884
12	0xbd0e87bf	-0.034797426
13	0x3bfcbdcc	0.0077130552
14	0x3cdd1407	0.026987089
15	0xbd4cd8d0	-0.050011456
16	0xbaea2f05	-0.0017866796
17	0x3e254d83	0.1614285
18	0xbcc326ec	-0.02382227
19	0xbd38d93a	-0.04512904
20	0xbcdd09fb	-0.026982298
21	0x3c0620e2	0.008186551
22	0x3d251442	0.040302522
23	0x3cd2f77d	0.025752777
24	0xbdd56bf2	-0.104209796
25	0xbd29b001	-0.041427616
26	0x3dfc99a9	0.12333996
27	0x3ebe944d	0.3722252
28	0xbc5f58b5	-0.013631989
29	0x3d9e13d1	0.077186234
30	0xbd9dbe7e	-0.07702349
31	0x3c9c90b6	0.019111972
