Trading_Model/trading_model_EURUSD.pth (torch, 16650 bytes, 5 tensors)

net.0.weight f4 [64, 20]
00000000: 8e41 f93d 5768 863f b57f e1bd 2e8f e73e
00000010: 8ff4 193e c1a6 b53e 110a 233e 45ac 973e
00000020: 794a b73e e9d1 bc3e 9398 0b3e bc35 063f
00000030: bc03 493e a7be 273f 9c2e 97bd ece0 0a3e
00000040: 6980 e5bd 3cd3 fa3c 4127 e4bc be50 ee3e
00000050: 8b76 f4bd f8db 19be 1556 9a3d c8e3 34be
00000060: 7a2c 783d 6af6 08bd 9e3b af3d 7f84 6dbe
00000070: 117e 61bd 2dcc d83c 83c4 7c3d af12 14be
00000080: cd59 ccbd d514 71bd 20a3 f93c 260f 06be
00000090: 8ec3 7fbe 383f 3abe 9629 953d 93f5 8c3d
000000a0: 901b a93d 4434 21bf a858 c93e 92cc 0a3e
000000b0: 567e 153e 1950 1a3e 5d2d 663d d3b9 163e
000000c0: 7107 40be 846b 273d 595d cc3d 4f9b 8d3e
000000d0: 2615 ad3e 14f4 9bbe 5796 bf3e 84dd 8e3c
000000e0: 1e83 023f d057 ac3e 19e3 e83c 8a88 013e
000000f0: 3b3c f83e e294 aabe e049 0d3f 22b6 ac3e
00000100: 0edb 163f c6f5 2b3f ab79 063f c214 863e
00000110: daf6 843e acfc f73e 0242 1b3f ba86 063f
00000120: 7a75 d43e 9803 4a3e e823 093f fcbf 003f
00000130: 2172 033f 93af 373f d207 0c3f 7dad 173f
00000140: 371d 8c3e 3326 4bbf 7533 f43e 0526 a33e
00000150: fc63 1c3e 23b1 ad3e ddbc 8c3e 8390 a93e
00000160: e580 72be 7d16 6f3e e633 ce3d 78fb c33e
00000170: 350d a93e 4fc7 74be f147 f23e 27d1 fe3e
00000180: c501 093f 472a d03e 85ec be3e 5ee3 bc3e
00000190: f963 51bc 76f5 5f3d 7a0e 67bc de21 063e
000001a0: 9320 4cbe 6b11 2fbe 8487 0e3e 6b78 00bd
000001b0: 9e33 eebd bb95 96ba f6a1 80bd 2702 58bd
000001c0: 9920 c73d 1594 093d 03c0 24be dda2 8f3d
000001d0: 6123 a5bc 98d7 6cbe b836 8f3c fa8d e1bd
000001e0: 0853 aa3c bccd bfbd 468d 9ebd 107e e13d
000001f0: 5c1f fa3d 9e7c fbbd ba8a 29be d04a 0d3e
00000200: 406f 633e a5a4 cebd 842d c33d 9586 4abe
00000210: 201b 60bd 30f1 733d 6c22 513e 6450 c3bd
00000220: 6e8d 13be 11fc 59be f041 f53c f832 5cbd
00000230: dd28 0d3e 47a5 4cbe b955 813c d26f 13be
00000240: c02c 01be 02f8 44bd 5160 74bc d752 50be
00000250: 95d4 32be 98f6 e33d cf44 fe3c da34 63be
00000260: f1ea f83d 23b5 2fbe bb5e 81be 73aa 953d
00000270: cef8 20be 4078 bd3d 2649 193e 87a5 67be
00000280: 4b3e ec3e ccf8 40bf 11a0 1b3f e1d4 133f
00000290: 0d57 ba3e e207 0c3f eb8a 393f c500 a63e
000002a0: 55d5 8f3e b957 113f 2bed 303f 8fe5 373f
000002b0: f4e2 9f3e 7330 683c e42a 243f 5a18 053f
000002c0: 22ef 513f 5e6a 553f 4d60 0a3f 10ea 0c3f
000002d0: 3a24 a03d 1e41 babe ad5b 733e 16d4 b93d
000002e0: 2663 6a3e 9364 8b3e e806 cabd 9c36 443e
000002f0: 0511 563b 4bbb 73bc cafa 123c 16a3 943e
00000300: 6e11 813e 5af2 9cbe d4a4 d73d 3d06 aa3e
00000310: 1756 873d 09ca 393e 12ca 3f3e d79b a43e
00000320: 28a0 a13e 1690 133e 16fd af3e 035a 8d3a
00000330: 099e ac3d 0787 123e 24c8 563e 6830 523e
00000340: 7d1c be3e 05f4 933e 9c4c 9f3c d549 d53e
00000350: 469d 4c3d de8a 273e 18d0 323c 7d68 723e
00000360: be03 4d3e 25ea 713e b349 ad3e 693d 943e
00000370: 9ea1 f43e 32b5 46bf 5716 423f 1d8a 183f
00000380: 751a 953e 0305 e93e d5b8 0f3f 2742 ac3e
00000390: de31 27be e949 093f da46 0b3f f4bf af3e
000003a0: ea47 ec3e 3886 44be 2699 353f 5346 e73e
000003b0: 9e50 3a3f fa0d 493f e5c5 193f c5aa 0d3f
000003c0: 8d12 c6bd ebea ecbf 0e17 763e 3bf8 033e
000003d0: 6768 63be 7973 9dbd 88c2 6fbd a41b fbbd
000003e0: e448 4abf d041 4dbe a302 c83c ecc4 423e
000003f0: efb3 62be 5e66 20bf 280a b03e 70cc 343c
0.12170707 1.0500592 -0.11010686 0.45226425 0.15034698 0.35478786 0.15921809 0.2962362
0.35799006 0.368789 0.13632421 0.5242574 0.19630331 0.6552529 -0.07381937 0.13562363
-0.11206133 0.030618303 -0.027850749 0.46545976 -0.11936673 -0.15025318 0.0753595 -0.17665017
0.06058929 -0.033438124 0.08556293 -0.23195074 -0.055051867 0.026464546 0.061710846 -0.14460252
-0.09978066 -0.058857758 0.030473292 -0.13091716 -0.24976942 -0.18188179 0.072833225 0.06882777
0.0825721 -0.62970376 0.39325452 0.135546 0.14598975 0.15069617 0.056195606 0.14719324
-0.18752839 0.04087402 0.09978742 0.27657554 0.33805197 -0.30459654 0.37419388 0.017439611
0.5098132 0.33660746 0.028428601 0.12649742 0.48483452 -0.33316714 0.5519085 0.33732706
0.58928 0.67171896 0.525294 0.26187712 0.25969583 0.4843496 0.60647595 0.52549326
0.41495878 0.19727933 0.53570414 0.50292945 0.5134602 0.7175228 0.5469943 0.592491
0.2736604 -0.7935516 0.4769551 0.31864944 0.15272516 0.33924207 0.2748784 0.33118066
-0.23681982 0.23348422 0.100684926 0.38277793 0.3301789 -0.23904155 0.47320512 0.49768946
0.53518325 0.40657255 0.37289825 0.36892217 -0.012780183 0.05467745 -0.014102573 0.13098857
-0.19934301 -0.17096488 0.13918883 -0.03136484 -0.11630939 -0.0011488715 -0.062808916 -0.052736428
0.097230144 0.033588488 -0.16088872 0.070134856 -0.020158472 -0.23129117 0.017482147 -0.11013408
0.020791546 -0.093654126 -0.077417895 0.11010373 0.122130126 -0.12279628 -0.16556826 0.1379807
0.22210407 -0.10089997 0.09530166 -0.19777901 -0.05471337 0.059556186 0.20423287 -0.09536818
-0.1440942 -0.21287562 0.029938668 -0.053759545 0.1378512 -0.19984923 0.015787946 -0.14398125
-0.12614727 -0.04808808 -0.014915542 -0.20344101 -0.17463906 0.111310184 0.03103867 -0.2218813
0.121541865 -0.17158942 -0.25267586 0.07307901 -0.15719911 0.092514515 0.1496931 -0.22621737
0.46141276 -0.75379634 0.60791117 0.577467 0.3639454 0.5469953 0.72477597 0.32422462
0.28092447 0.5677448 0.6911189 0.71834654 0.3122784 0.014171707 0.64127946 0.5199028
0.8200551 0.8336543 0.54053193 0.5504465 0.0781941 -0.36377805 0.2376544 0.09073655
0.22889385 0.2722517 -0.098645985 0.19161457 0.0032663953 -0.014876197 0.008970926 0.29030675
0.2520861 -0.3065365 0.10529485 0.33207884 0.06608217 0.18143477 0.18729427 0.32150146
0.31567502 0.14410433 0.34372777 0.0010784272 0.0842858 0.14309321 0.20974785 0.20526278
0.3713111 0.2889711 0.01944571 0.41657892 0.049954675 0.16361567 0.010913871 0.23672672
0.20020959 0.23624475 0.3384529 0.28953102 0.47779554 -0.7762023 0.7581534 0.59585744
0.29121748 0.45511636 0.56141406 0.3364422 -0.16327617 0.536284 0.54404986 0.34326136
0.46148616 -0.19191825 0.7093681 0.4517084 0.7277926 0.7853695 0.6006759 0.553387
-0.09671507 -1.8509191 0.24032232 0.12887661 -0.22207795 -0.0768804 -0.05853513 -0.122611314
-0.7901747 -0.20044637 0.02441532 0.19020432 -0.22138952 -0.626562 0.3438275 0.01103507

net.0.bias f4 [64]
00000000: 343a 323f fe06 393b 1cce 8b3e 3b79 403f
00000010: a807 223f 7d82 3abd 3aa6 23be cbf8 25bd
00000020: e86e 1c3f 6cb0 ca3d 3a1d d33e 0668 d73e
00000030: 4e5c 413e 2e75 92bd 2a49 093f fc93 67be
00000040: cec4 ce3e aef7 d13e 1c5d 4b3f 3ee9 d13e
00000050: d0a4 f03e ea92 d1bd a83b 17be 5b34 8abd
00000060: b1f5 ea3e e34f 953e f378 933d 09bf 1bbd
00000070: 345a ce3e 4112 a63d 8751 e03e ba85 513f
00000080: 7386 ca3e 2df1 df3e 9ee6 aabe 08c7 1f3f
00000090: e165 f0bb edc1 b73e 71b4 e03e 9e6d b43e
000000a0: d896 b83e 6bd6 e5bd 1cf6 823e 3341 5b3f
000000b0: 0e72 423e 9c01 263f 3892 973e 51ad dd3e
000000c0: d687 58be 675a 7b3f 28dd 0e3f d60d 5cbe
000000d0: d2e4 143f df6b 093f 05e8 593f d461 883e
000000e0: 698b 9b3e c0a3 8dbd e6b1 183f e214 f93e
000000f0: 236a 073f 863c 853e e78e 63be 3c2e 31be
0.6962006 0.0028232927 0.27305686 0.75184983 0.6329293 -0.0455346 -0.15981379 -0.04052047
0.6110673 0.09896931 0.41233236 0.4207155 0.18882868 -0.071512565 0.53627264 -0.22615045
0.40384525 0.41009277 0.7943895 0.40998262 0.47000742 -0.102331 -0.14768851 -0.06748267
0.45890573 0.2916251 0.072008036 -0.038023982 0.40303195 0.081089504 0.438122 0.81844676
0.39555702 0.4373869 -0.33379072 0.6241307 -0.0073363637 0.3589014 0.43887666 0.3523988
0.36052585 -0.112225376 0.25578392 0.8564636 0.18988821 0.64846206 0.29603744 0.43296292
-0.21145567 0.9818482 0.5580621 -0.21489653 0.5816165 0.53680223 0.8511966 0.26637137
0.303798 -0.069159985 0.5964645 0.48648745 0.52896327 0.26022738 -0.22222482 -0.17302793

net.2.weight f4 [32, 64]
00000000: 1f44 19be f508 6abe 6ee6 123d 9dcd bc3c
00000010: 6a9b 62bd f201 f83d 24ea b53d 8fa3 36bc
00000020: 74f6 813d ecaa e2bd 2bd2 4abe 3eb6 e63d
00000030: 41f3 c5be 8f48 173c 3749 1cbe ac94 d73d
00000040: 0a8b fc3c d16a 983d f00f 9f3c f017 0fbd
00000050: 9f4a 1f3d 182d abbc 12f0 cbbd 7caa b3bd
00000060: 4054 9d3d 1f8c 733d 3fe4 873d da8a 49bd
00000070: 3f4c c43c 27a2 6abc 8a47 f0bd 97d3 a23d
00000080: bc84 673c 8766 b4bd 309a e93c 5729 8abc
00000090: 9eb6 9c3d 5eb6 783d e71a c63d 359c 6a3e
000000a0: 51dd 213e d967 08be 9708 2fbe c501 70bd
000000b0: b45e 1e3e 1d77 ea3d b630 5d3d 5ef0 0bbe
000000c0: 9a03 293e 39d7 8fbd bca2 8b3b 25b5 053c
000000d0: ba17 183d 28e5 873e f966 11bf 80be ecbe
000000e0: 6f27 62be beaa 1b3d bdf7 fcbd 7b70 c9be
000000f0: 564b 5a3d 6ac8 613d 2290 733d 0445 c6bd
00000100: 0571 c93d 99b1 8dbd 4a92 fcbb 6fba 8a3d
00000110: de80 12bd a2d6 9fbd 743b 93bd 62a7 74bd
00000120: 9976 1abe c021 77bd 0e6e 9fbd 7395 c7bd
00000130: 90ea ddbd 1a4a d8bd 5186 6e3d 0871 92bd
00000140: 4181 34bd 94d7 d23d 687f c1bc 7f47 82bd
00000150: dc1e 84bd 19b7 45bc 8e81 cbbd f910 09be
00000160: c454 3dbe 897a 393d 9cba dfbd 3a81 96bc
00000170: 7855 2d3e b0b2 3bbd 98a3 6b3d 85da f6bc
00000180: 38a0 193c 5703 da3b 1566 2b3d 49a5 903b
00000190: 00da d13d 1b22 98bd 78cf b0bd f931 553d
000001a0: 2e88 2bbd dd83 2ebe 1a9e b33d 8c7c 83bd
000001b0: 658b b13d af11 3bbd 295f 0dbe e923 a6bd
000001c0: 1d9c 613d d1b3 18bc 3196 8bbd 1ad7 db3d
000001d0: 890e 53bb 281c 9bbd 84d7 183d ed28 eabb
000001e0: 3bf2 31bd 3055 95bd a473 07be 5812 c23c
000001f0: 41b0 27bc 5b1f 683d cfc5 e13c 6e54 bb3d
00000200: 8c2d d4bf ca02 8b3d 27cb 91be d19d 8ebf
00000210: 1c2e 18bf 64bf ca3d b849 97bd 265c d73d
00000220: ed13 433f 7dcb bcbe 8ea2 1fbf af94 4fbf
00000230: 16d3 a9bc dae0 983d 36a7 603f f552 53bf
00000240: 3d57 5c3f bd7c a0bf 03c8 a7bf f590 24c0
00000250: 6009 543f 7042 5a3c 7fed 1a3e c742 3abf
00000260: 0e54 4e3f 62c7 323f 3b7b 61bf 2a38 323e
00000270: e61e f7be b1e8 1a3d b32e 453f 3455 82bf
00000280: 1110 1fbf 08d6 4c3f 4834 87be 2fe4 c93f
00000290: bfa5 123e 932a f6bd c336 403f 67af d1be
000002a0: 9e99 c3be b1a5 033e 7cfb dcbe 30dd 6abf
000002b0: 5c39 6dbf c8f7 173f 992c 313f b3f7 e8be
000002c0: 8852 363d 256b a03f 362e 233f d6f6 7c3d
000002d0: cd0d b13f 813a 2abf 6b43 de3e 5ba7 6bbf
000002e0: 8b90 ccbe a853 8a3d 6e10 363f f38e 36c0
000002f0: 2c49 353f b4cd 7fbf 584c edba 4044 dabb
00000300: 7d39 86bd a13f b8bb 467c b83e ca55 783d
00000310: 8356 b03d 1461 59bd 6083 603c 3bca aa3d
00000320: 616e 1cbc 4124 363d de08 2a3f bd46 6b3e
00000330: c98d 9dbf 778c edbd 526c 0abb 32a8 ad3e
00000340: 33ae 283d 8e3d 3b3f d551 4b3f 3d51 87bf
00000350: 5d39 7a3d 62dd bf3d 05cc 43be bd1e a63f
00000360: 3018 e7bd 11a7 ea3d 80b2 ab3e ea0b 2a3d
00000370: 7f7a 523f f2c7 32be 0191 26bf 0497 953f
00000380: eec8 d33e 5e8e 823b 035e e53e 1d8c 423e
00000390: c9d9 ef3c 5289 c43b 2868 d9bd a016 17be
000003a0: e6e7 cebd bb23 e2bd 5f3d de3d 0007 293f
000003b0: bbcc 24be 2384 03be 98d2 88bd de26 223f
000003c0: ee2b e8bd 46f7 8dbf fc03 383d 1197 aebd
000003d0: f1cd 0abf 467a b23c fddb c63d 7961 88be
000003e0: 0e46 c03e 00a8 abbd 892f f5bd 385b a4ba
000003f0: 44a6 cbbd 5702 7a3f fa88 30bd 18e6 0dbd
-0.14967392 -0.2285498 0.035864286 0.023047263 -0.055323996 0.12109746 0.088825494 -0.011147394
0.06345835 -0.11067757 -0.19806735 0.11265229 -0.3866215 0.009233608 -0.15262304 0.10526404
0.030828018 0.074422486 0.01941678 -0.034934938 0.038889524 -0.020895526 -0.09957899 -0.08772752
0.07682085 0.0594598 0.06635331 -0.049204685 0.023962138 -0.014320887 -0.11732395 0.07950514
0.014130767 -0.08808618 0.028515905 -0.016865415 0.07652019 0.060720794 0.096731 0.22911151
0.15807082 -0.13320865 -0.1709312 -0.058595438 0.15465814 0.114485 0.054001532 -0.13665912
0.1650528 -0.07023472 0.004261343 0.008160864 0.037132002 0.2654202 -0.5679775 -0.4623909
-0.22085355 0.03800463 -0.1235194 -0.39343628 0.053294502 0.05512277 0.059463628 -0.096811324
0.0983601 -0.0691864 -0.0077078687 0.06773841 -0.03576743 -0.0780461 -0.07189074 -0.05972994
-0.15084304 -0.06033492 -0.07784663 -0.09745302 -0.10835755 -0.10561009 0.058233563 -0.07150465
-0.04406858 0.102950245 -0.023620322 -0.06361293 -0.064511985 -0.01206758 -0.0993682 -0.13385381
-0.18489367 0.045282874 -0.10924265 -0.018372167 0.16927135 -0.045824707 0.057529062 -0.030133495
0.009376578 0.00665323 0.0418454 0.004414235 0.10246658 -0.0742838 -0.086333215 0.05204961
-0.041877918 -0.1704249 0.0877039 -0.0642024 0.086691655 -0.04567116 -0.13805832 -0.08112318
0.05508052 -0.009320215 -0.06815756 0.10734387 -0.0032204709 -0.0757373 0.037314907 -0.007145992
-0.0434439 -0.07291639 -0.13227707 0.023690388 -0.010234893 0.056670528 0.027560143 0.09146963
-1.65764 0.06787641 -0.28475305 -1.1141912 -0.5944536 0.09899786 -0.073871076 0.10515623
0.7620228 -0.36874 -0.62357414 -0.8108625 -0.020730536 0.07464762 0.87755144 -0.8254846
0.86070615 -1.2538067 -1.3107914 -2.5713475 0.82826805 0.013321504 0.1512966 -0.72758144
0.8059701 0.69835484 -0.8807866 0.17404237 -0.4826576 0.037819568 0.7702438 -1.0182252
-0.6213389 0.80014086 -0.26407075 1.5772761 0.1432104 -0.12019839 0.7508356 -0.40954134
-0.38203138 0.12856175 -0.43160617 -0.91743755 -0.9266565 0.5936246 0.69208676 -0.4550148
0.0445123 1.2532698 0.6374239 0.06175884 1.3832337 -0.6649552 0.4341081 -0.9205224
-0.39954028 0.067542374 0.7111882 -2.852475 0.70814776 -0.99923253 -0.0018104417 -0.006660968
-0.06553934 -0.0056228195 0.36032313 0.06062869 0.08610251 -0.053071097 0.013703197 0.08339354
-0.009547801 0.04446817 0.6641978 0.22976203 -1.2308894 -0.11599057 -0.0021121693 0.33917385
0.041181754 0.731408 0.7942174 -1.0571667 0.061089862 0.09368397 -0.19120796 1.297813
-0.1128391 0.11457647 0.33534622 0.04151527 0.82218164 -0.17459086 -0.6506501 1.1686711
0.41364235 0.0039842566 0.44798288 0.18998761 0.029278653 0.005997815 -0.10615569 -0.14754725
-0.10102825 -0.11041971 0.10851549 0.66026306 -0.16093723 -0.12843375 -0.066807926 0.63340557
-0.11336504 -1.1091087 0.044925675 -0.085249074 -0.5422049 0.02178682 0.09709928 -0.26636866
0.37553447 -0.08381653 -0.11971957 -0.0012539392 -0.09943822 0.9765982 -0.04309938 -0.034643263

net.2.bias f4 [32]
00000000: 289b 19bd 26f3 ed3d df71 2f3f e821 94be
00000010: 0838 efbd 553d c53e d6ae abbd 72b8 e7ba
00000020: 196a 993d 21b8 d43d bb7a 50bb 961a 74bd
00000030: 46e4 b7be 8f86 adbd 7619 b0be 1551 1e3e
00000040: f433 c23d 27e1 29bd 730d 93bd 7e73 c9bc
00000050: e55d 233c f246 be3d be7d 1dbd b97b e9bd
00000060: ecc1 5e3d 2329 3fbd e00c 263f c535 6a3e
00000070: b0ba d1bd fa71 aa3e 5f8f 8d3e 8330 3d3d
-0.037501484 0.116186425 0.6853313 -0.28932118 -0.11680609 0.38523355 -0.08382957 -0.001767887
0.0749094 0.10386682 -0.0031811434 -0.059595667 -0.35916346 -0.08472931 -0.34394425 0.15460618
0.094825655 -0.041474488 -0.071802996 -0.024591204 0.009971117 0.092908755 -0.038449995 -0.11400551
0.054384157 -0.04667009 0.64863396 0.22872074 -0.10240686 0.33290082 0.27648446 0.046188843

net.4.weight f4 [1, 32]
00000000: 304e 82be f819 f03d 0a06 13bf 019d 51be
00000010: c8f2 8fbf 8ca5 423f f930 8fbc f784 12be
00000020: 2aba c3bd 3dea d5bd 948c 47bd 307c 813b
00000030: ecb1 1ebf ad23 c0bc bf20 27bf b92a 12be
00000040: ae43 4ebe b650 16be 0de7 24be f522 8abd
00000050: 4887 643c b254 0c3d 130a 8dbd e76b 26be
00000060: f963 c539 227b 75bd c4fc 713f 4705 23be
00000070: ad00 1d3f ebd1 d83e fb34 9dbe 9dc5 80be
-0.25450277 0.11723703 -0.5743109 -0.20470048 -1.1245966 0.76033854 -0.017479407 -0.14308535
-0.09556992 -0.10445068 -0.04871805 0.003951572 -0.6199024 -0.023454512 -0.6528434 -0.1427411
-0.20143005 -0.14679226 -0.16103764 -0.06744949 0.013948269 0.03426046 -0.06886687 -0.16252099
0.00037649253 -0.05993188 0.94526315 -0.15919982 0.61329156 0.42347655 -0.30704483 -0.25150767
