Trading_Model/trading_model_GBPUSD.pth (torch, 16650 bytes, 5 tensors)

net.0.weight f4 [64, 20]
00000000: dd7c b33e af48 ec3e 8950 1e3f 0fd2 b73d
00000010: 7416 9b3e 9254 673d 7379 ad3e d671 e33d
00000020: 43df 243e e8df 353e fb0b a83e 82e0 f03e
00000030: 99d6 ef3c 52f9 063e 2a4a 3d3e f159 bf3e
00000040: 7acc 65bd b8a8 a03e 4dc1 ab3e a202 893e
00000050: add5 113e 0668 6c3d cd53 bc3e 2d0a 6fbe
00000060: d083 cb3d 4ec5 bdbc cbeb c53d b724 813c
00000070: d5fc 8fbe c5ca eb3c 0196 7ebd 156d fabc
00000080: 9d00 a13d 12c5 1a3e 32be 29be 34c9 aebe
00000090: 9cd8 0fbf cf07 b53c d01b d3be 68d2 46be
000000a0: bbf6 253f d443 633f 6997 383f e845 2f3f
000000b0: 389b 383f c405 0c3f c128 f43e 6096 163f
000000c0: b704 263f f9d0 1e3f c3da 253f 217c d23e
000000d0: 7313 163f c50b 2c3f 029c 603f f6b5 363f
000000e0: 4cbf 383f 5c92 263f 75f2 6a3f 27c9 e83e
000000f0: 931b 133f 2356 393f ba28 1a3f dec8 d33e
00000100: 7f95 393e 065e 003f bcec eb3e ad44 153e
00000110: 8bc7 8a3e 4b70 bf3e 55be 693e 189e 6c3e
00000120: 82da d33e 5b70 103f eb8c 023f d6f0 af3e
00000130: bd8c 393f 4b40 163f f386 2e3f 96e4 ba3e
00000140: a9db b53e 8421 0b3e 5163 db3e 7b65 4a3d
00000150: 8408 ab3e cbb9 2a3e 5669 ce3e f066 f13e
00000160: a38e 7e3e 226d d63e f208 663e 73b2 983e
00000170: 894f 893e 3a66 a53d b97f 703c 1411 df3d
00000180: fc7e 47be 05f1 d4bd d2c3 ecbd af50 e93e
00000190: 70ae 69bc 0268 99bd 14d4 a7bd 280b 253e
000001a0: 400b 973c 669a 5dbe 36d4 abbd 000a c5bd
000001b0: 8817 e33d e3b1 46be 50b5 203e 8cb4 423e
000001c0: df54 49be 2589 e8bd a877 aa3d c23d 9fbd
000001d0: 6477 31bd 9044 74bc ce4f 45be d4cf 43bd
000001e0: 7b81 13bd 67d0 163f 2caa 8d3e 9477 a03c
000001f0: 3e74 933e 80f7 133c b156 e43d 68ff 7e3e
00000200: 75d0 ab3d 5224 af3e c32e 713e eeff 8e3d
00000210: f960 103e eab1 d43e 208d 1c3f 4256 133f
00000220: b163 f13e 21ec 2b3f 504c d13e 70e6 013f
00000230: d063 823c 40b8 f9bb 6c96 24bd 9664 9abd
00000240: 1157 4ebe 589c e73d 9e28 14be a081 443d
00000250: a07d 653d 8669 403e fc91 57be c637 263e
00000260: a0de 3c3d f38f 0fbe daf3 48be d434 57be
00000270: 72e3 28be e14d 38be d013 483d a4ca 36be
00000280: e305 663f a2ab 533f 430b 653f d4e7 353f
00000290: ddbc 713f 2301 253f b1ff 463f cfd9 763f
000002a0: eca7 fc3e 5028 7d3f eeef 313f 31c6 5c3f
000002b0: 5608 1e3f 9770 3f3f 4b73 583f 08ee 7f3f
000002c0: 9a3a 903f b20b 7e3f c18c 863f a519 403f
000002d0: f2ca a8bd 3c1d 313e 00f3 d03d 99f5 87be
000002e0: 8a4d 7cbe fd42 1bbe 99c2 35be 2b18 33bd
000002f0: 7c16 2fbe 4ea2 7c3d 399e bd3c 60d4 f6bd
00000300: 993f d63d 501f 01be 035e 39be 3b79 a03c
00000310: f5b1 21be 07cc bb3d 62a6 e93d 473e 533c
00000320: 63bb 093f d1f3 133f 0bbc b13e 5ac1 9c3d
00000330: f50f 9a3e 0923 be3d 0f83 a73e 14d5 7f3e
00000340: fd42 5d3e 0de2 e23d f66e 913e 885d b03e
00000350: 84ba ce3e 63c5 543e 8c7f 393f 11db 133f
00000360: ee15 f13e c181 2f3f 62d7 233f e076 f83d
00000370: 2b67 7a3e 5e83 8fbd e1e4 f63b 0a93 e1bc
00000380: 849c 2bbe 0ce6 d23c aacc 0ebe acbf da3d
00000390: ae1b 053e c1f4 323e fbf5 303d 4960 94bd
000003a0: cca9 843d f3c4 783e 1b70 c83d 1588 e93c
000003b0: 50c0 20be 75aa ce3d 11b8 41bd 5f04 193e
000003c0: 2ed6 dc3d c474 e23e a7dd a53e afc5 16bd
000003d0: f00e 563e 66a1 a53e 099e 3b3e ae82 9bbd
000003e0: 4cc0 d23e 0b73 523e aa46 963e 8ded a23e
000003f0: c08b 3a3d c230 bb3e ae78 083e 7513 b93e
0.350562 0.46149203 0.61841637 0.08975612 0.30290568 0.056477137 0.3388172 0.11105697
0.16100793 0.17761195 0.3282164 0.47046286 0.029277133 0.13181046 0.18485323 0.37373307
-0.056103207 0.31378722 0.33545914 0.2675982 0.14241667 0.057716392 0.36782685 -0.23343726
0.099372506 -0.023165371 0.096641146 0.015764577 -0.28122583 0.028783211 -0.062154774 -0.030569592
0.07861445 0.15114239 -0.1657646 -0.3413788 -0.56189895 0.02209845 -0.41232157 -0.19416201
0.64829606 0.8877537 0.72106034 0.68466043 0.72111845 0.546963 0.47687343 0.58823204
0.64850944 0.62037617 0.6478693 0.41110328 0.5862343 0.6720546 0.8773805 0.713714
0.72166896 0.65067077 0.9177621 0.45465967 0.5746395 0.7239706 0.60218394 0.41364187
0.18123434 0.5014347 0.46079051 0.14576979 0.27105364 0.3739036 0.22826512 0.23107183
0.41377646 0.5642144 0.50996274 0.3436343 0.72480375 0.58691853 0.68174666 0.36502522
0.3551915 0.13587004 0.4284921 0.049413186 0.33404934 0.16672437 0.4031474 0.47148848
0.24859099 0.41880137 0.2246435 0.29823646 0.26818493 0.08076139 0.014678889 0.10891929
-0.19482034 -0.10397533 -0.11560787 0.4556937 -0.014262781 -0.07490541 -0.081947476 0.16117537
0.018437982 -0.2164093 -0.083900854 -0.09621048 0.110884726 -0.19403796 0.15694165 0.19014186
-0.19661282 -0.11354283 0.08323604 -0.07775451 -0.04332675 -0.014908925 -0.19268724 -0.047805622
-0.036012154 0.58911747 0.27668893 0.01958827 0.28799623 0.009031177 0.111493476 0.24902117
0.083893694 0.34207398 0.23552994 0.069824085 0.14099492 0.41541988 0.6115284 0.57553494
0.4714637 0.6715718 0.40878534 0.50742245 0.015916735 -0.0076208413 -0.040182516 -0.075387165
-0.201504 0.11309117 -0.14468619 0.047975183 0.05602801 0.18790254 -0.21051782 0.16232213
0.04611075 -0.14019756 -0.19624272 -0.21016246 -0.16493014 -0.17998458 0.04884702 -0.17850739
0.8985273 0.82683766 0.8947031 0.71056867 0.9442881 0.6445486 0.77733904 0.964261
0.49346864 0.98889637 0.6950673 0.86239916 0.6173147 0.74781173 0.84550923 0.9997258
1.1267884 0.99236596 1.0511705 0.7503913 -0.08241834 0.17296308 0.102025986 -0.26554564
-0.24638954 -0.15162273 -0.17750014 -0.04372422 -0.17098421 0.061678223 0.023146736 -0.12052226
0.10461349 -0.12609601 -0.18102269 0.019589057 -0.15790541 0.091697745 0.11408688 0.012893266
0.53801554 0.5779391 0.34713778 0.076540664 0.300903 0.09284026 0.32717177 0.24983627
0.21607585 0.11078272 0.2840497 0.3444636 0.40376675 0.20778422 0.72460246 0.57756144
0.47087044 0.68557364 0.64000523 0.121320486 0.24453418 -0.07007478 0.0075346087 -0.027535934
-0.16758925 0.02574446 -0.1394526 0.1068109 0.1299884 0.17476179 0.043203335 -0.072449274
0.06477699 0.2429388 0.097870074 0.028507272 -0.15698361 0.10091106 -0.04729468 0.14943074
0.10783039 0.4422971 0.3239567 -0.03680962 0.20904136 0.323497 0.18322004 -0.075932845
0.41162336 0.20551698 0.29350787 0.31821862 0.045543432 0.36560637 0.13327286 0.36147657

net.0.bias f4 [64]
00000000: 81b7 1d3f d883 873f 09d8 e23e c48f 793e
00000010: cfef fd3e 7e9a 96bd f085 053f d075 013d
00000020: fe30 c63e 3452 343e f3fb 663e 5b03 393f
00000030: 70a1 ac3e 3b7b 3ebe 9678 913e 79cf 833f
00000040: cedc d23e 5f6a b33e d002 983e 9be5 f33e
00000050: 79b1 ff3c d952 9d3e 2d93 663d 3869 b93e
00000060: b70b 853f 320c f7bd 503c 9fbc 66b1 483e
00000070: ddf5 813f e3f2 d63e 062d 31be 0f90 073f
00000080: b155 16be edc5 e23d 7a59 d23d 9eab 563f
00000090: a687 12bd c530 0c3f 4c8e 043f 495c a53e
000000a0: 5bbf 153d e65f e5bd 356e 1c3f 94e1 72be
000000b0: ada9 2cbd 047c 5dbe 9bed 2c3f 44e4 793d
000000c0: b957 f13e bbcc 413f a93d 993e 4a51 d83e
000000d0: 775b c73e 8543 c93e 7f8e fe3c b999 d23e
000000e0: 2813 1c3e 96a1 a33e 64e3 503f fb0c f03e
000000f0: 9170 363f 4aeb 5a3e 51fa ce3d 0e19 323e
0.6160813 1.058711 0.44305447 0.24371248 0.49597022 -0.07353686 0.521575 0.031606495
0.38709253 0.17609483 0.22557048 0.72270745 0.33716917 -0.18601696 0.28412312 1.0297691
0.41184086 0.35042092 0.29689646 0.47636113 0.031212555 0.3072727 0.0562927 0.36213088
1.03942 -0.12062873 -0.019437939 0.19598922 1.0153157 0.41982183 -0.17302331 0.5295419
-0.14681126 0.110729076 0.102709725 0.8385562 -0.035773896 0.54761916 0.5177963 0.3229697
0.036559444 -0.11199932 0.6110566 -0.23718864 -0.042154003 -0.2162934 0.6755006 0.061008707
0.4713724 0.7570302 0.29929855 0.4224952 0.3893697 0.39309326 0.031073807 0.41132906
0.15241683 0.31959218 0.8159697 0.46884903 0.7126551 0.21378818 0.10106338 0.1739237

net.2.weight f4 [32, 64]
00000000: ddbd 2cbd d859 dbbd ebb3 1cbd 9235 0c3d
00000010: 2ec0 833b 787d 453d 619f 9a3d e2f4 b33d
00000020: 5def 35bd ee4f a23d ac69 7a3d dc93 a5bd
00000030: 5393 c2ba 2ec2 36bd f56f 80bc 6f25 97bc
00000040: 92c8 ea3d 4286 bd3d 6dec 05bd c9cf 143d
00000050: e504 8b3d 200d 87bd 6514 453d dcbe 323c
00000060: 0727 843d a990 433d 26f1 d0bd 74ea babd
00000070: 4cc9 873d 9258 c0bd c067 3b3b dc21 b4bc
00000080: f7a8 0dbd c561 2b3d 39b1 ce3c 7316 d23d
00000090: 3136 62bd 9588 dabc 19b7 8dbd 105a b93d
000000a0: 4d79 81bc 5ab9 bcbd 37d9 04be b6e2 593d
000000b0: 79de a93c d0b2 1f3c 9b50 b83d 7b0e 15be
000000c0: 6d4b 04be a48f 003d 0e9f fb3c 2391 3abd
000000d0: d30c 4fbd 8402 833d 18fc 49bd 644a 79bd
000000e0: d071 f3bb 690c ab3d c26e 9dbd 2412 e5bc
000000f0: 0210 05be 6492 ba3d f705 c8bd fab6 75bb
00000100: 8cea 813b b028 943d 25c8 d7bc 97b5 9b3d
00000110: 02f4 6d3d ec64 343d 6a35 24b9 d0e7 c9bd
00000120: cb14 993d cb3f b63d 05fe b1bd 29f1 0cbe
00000130: 7517 b73d fe80 d3bc 7abc 0fbe aca9 cbbc
00000140: 01ac f13d 32ee 843d 407d 0b3d 259d a1bd
00000150: c4e7 b3bd 179b 8cbc 99c6 94bd 4ac6 dbbd
00000160: a67e efbd 4845 d2bd 46cd e1bd 9369 3b3d
00000170: 3ffb 723b 490e a53c 402a 5f3b 991a f8bd
00000180: 0fc7 afbd 477a 05bc fae7 2cbd 0851 2a3d
00000190: f0bf eebd ad1f 89bd 2cf2 f2bd 4d6f aa3d
000001a0: 2b0d 863d d277 abbd f50d 94bd d77f 66bd
000001b0: 65de 453d c0f2 97bb cefe 7dbd 1ca8 abbd
000001c0: 537e 87bd 6c3f 72bd 2d77 093d 30cd 503c
000001d0: 7582 5a3d 0a48 893d 100c c63c 8055 a1bd
000001e0: 4713 40bc 8585 a73d 93eb cbbd 61bf 01be
000001f0: 7fe1 51bd 1419 eebd 6210 98bd 0237 803d
00000200: 0eb2 f23c b397 bc3d c232 8bbe 09ac 46be
00000210: 9fc5 cd3d d0cc a9bc 9c2b 14bc 801c 84bb
00000220: 5056 19bd d952 d73d bcda 573c 0571 0fbd
00000230: 5f37 843d a8fd 27bd 8782 73be d38c adbc
00000240: 259c 163e 90e0 c5bd 05bb 59bd 39fc b9bd
00000250: 754b dfbc 2111 efbd faf8 1cbd 0d9d 5abd
00000260: be8e 8dbd 7c31 e1bd 1c45 bc3d 1ba9 063d
00000270: ddbb 31bd 71f5 333e c236 bf3d 4191 3ebe
00000280: 6373 1e3d cd7e b2bc 3563 4e3d 90ce a33d
00000290: 11b9 1fbe b980 48be a0e7 0c3d 9050 663e
000002a0: 6336 1bbe c883 643d 8243 383c d1a1 a23c
000002b0: a7f5 34bd d861 cf3c 5e5d 183e 5b0a 7abd
000002c0: 9668 68be 88b0 4abd b576 30be 86cf 20be
000002d0: b238 cabc 9a12 4abe 736c e3bc 1863 d53e
000002e0: 167c 8fbc 691c 4cbd d615 a43d a2df babd
000002f0: 07e7 4aba e4bf 6f3d 7794 6f3d dbb7 0ebd
00000300: d23b 683d 98d7 44bd 8ffc 23be 6f68 d8bd
00000310: 405e 99bd b888 e1bc 9e47 3b3d 4059 9ebc
00000320: e267 073e d676 583e 525f b0bd 3a3d 1abd
00000330: 33bb 58bd 0a6b 2bbc 5e62 14be a4c1 89bb
00000340: b1da 1bbc 007f f2bb 9307 cabd 1b50 2abe
00000350: b03c 9d3d e228 a2bd b219 b4bb fec4 f9bd
00000360: 3850 8b3d ef38 dabd 50bd 84bd dacd 1cbe
00000370: ef25 373c c33f 4cbd d872 08bd 6f16 fbbd
00000380: 7da2 2cbd 584e d7bd c644 2dbc 596d b2bc
00000390: 3f08 cc3c 50ee 8fbd c2a6 373d 9f10 fcbc
000003a0: c475 ff3c 2065 42bd 3bd3 96bd 4c96 9dbc
000003b0: f991 6b3c f8f4 c7bd 123b 17bd 6f42 12be
000003c0: e35b 18be 8d78 fa3d b038 293d 9e1b 03be
000003d0: fc81 b53d be11 b43d 0df3 a23d ffd5 da3d
000003e0: 2312 4cbd eb99 6bbd a4be ff3d 1c5c 853d
000003f0: ca06 20bd 85c6 963c 8004 05bd 443b d9bc
-0.042173255 -0.10710496 -0.03825752 0.034230776 0.0040207123 0.04821536 0.0754993 0.08786942
-0.044417728 0.07925402 0.061135933 -0.080848426 -0.0014844931 -0.044618778 -0.015678385 -0.018450467
0.11464037 0.09254123 -0.032696176 0.036330972 0.06788043 -0.065943 0.048115153 0.010909762
0.064527564 0.04774538 -0.102022454 -0.0912675 0.06630191 -0.093918934 0.0028595775 -0.021988802
-0.034584966 0.041841287 0.02523099 0.10258188 -0.055227462 -0.026676456 -0.06919689 0.09050381
-0.015804911 -0.092150405 -0.12973486 0.053194724 0.020735966 0.009747222 0.08999749 -0.14556305
-0.12919398 0.031386986 0.030715492 -0.04554857 -0.05054934 0.06396964 -0.04931268 -0.06086196
-0.007429339 0.083519764 -0.07687141 -0.027962752 -0.12994388 0.09109953 -0.09766763 -0.0037493096
0.0039647277 0.07234323 -0.026340554 0.07602995 0.058094032 0.04404156 -0.00015660157 -0.09858668
0.07474669 0.08898886 -0.086910285 -0.1376387 0.08940021 -0.025818344 -0.14036742 -0.02486118
0.11800385 0.06490745 0.034054995 -0.07891301 -0.0878444 -0.017163796 -0.07264442 -0.1073118
-0.11694078 -0.102671206 -0.11025481 0.04575498 0.0037076024 0.020148413 0.0034052283 -0.12114448
-0.08582889 -0.008146829 -0.042213418 0.041581184 -0.11657703 -0.06695495 -0.11862597 0.0832201
0.0654548 -0.08372463 -0.072292246 -0.05627426 0.048307795 -0.0046370924 -0.06201058 -0.08381674
-0.06615891 -0.059142515 0.03356092 0.012744233 0.05334707 0.067031935 0.024175674 -0.07877636
-0.011723346 0.08179764 -0.099570416 -0.12670662 -0.05124044 -0.11625877 -0.07425 0.06260492
0.029625919 0.09208622 -0.27187163 -0.19401564 0.10047459 -0.020727545 -0.0090436 -0.004031718
-0.03743583 0.10513849 0.013174709 -0.035019893 0.06455874 -0.04101339 -0.23780261 -0.021185314
0.14708002 -0.096619725 -0.05315687 -0.09081311 -0.02725766 -0.11673189 -0.03832338 -0.05337243
-0.069119915 -0.109957665 0.09192869 0.032876115 -0.04339205 0.17574097 0.09336616 -0.18610097
0.03868426 -0.021788979 0.05038758 0.07998383 -0.15597941 -0.19580354 0.034400582 0.2249167
-0.15157466 0.05578974 0.011246564 0.01985255 -0.044179585 0.02531521 0.14879367 -0.061045032
-0.22696146 -0.04948476 -0.17232783 -0.15704164 -0.024685238 -0.19733658 -0.027761674 0.41677165
-0.017515223 -0.04983178 0.080119774 -0.09124686 -0.0007740114 0.05853261 0.058491196 -0.034843307
0.056697674 -0.04805717 -0.16014312 -0.10566794 -0.0748868 -0.027531013 0.045722596 -0.019329667
0.13223222 0.21139082 -0.08611931 -0.037656046 -0.052912902 -0.010462532 -0.14490649 -0.004203992
-0.009512589 -0.0074003935 -0.09864726 -0.1663212 0.07677591 -0.07917954 -0.005496227 -0.121957764
0.0680241 -0.106553905 -0.06481421 -0.15312901 0.011178478 -0.049865495 -0.03331265 -0.12260138
-0.04214715 -0.1051299 -0.010575479 -0.021780657 0.024906276 -0.070278764 0.044836767 -0.030769644
0.031184085 -0.04745972 -0.07364508 -0.019236706 0.014378064 -0.09763521 -0.03692157 -0.14283155
-0.14878802 0.122300245 0.041313827 -0.12803504 0.08862683 0.087924466 0.079565145 0.10685348
-0.049821984 -0.057519834 0.12487534 0.06511709 -0.039068975 0.018405208 -0.032474995 -0.026517518

net.2.bias f4 [32]
00000000: b2ba ba3a f362 5d3d 6901 a03d 798e 083e
00000010: 46cc 823d 1ca8 bdbc 8ebc bc3e 7207 b2bd
00000020: 12bf f2bd 77e7 f03d 9cab 083d 1b67 bcbe
00000030: 8582 6a3c 8aae 47be d30e 933d d3f5 5ebd
00000040: b4ee adbe b972 a0bd 8444 593e d017 343d
00000050: 809a ccbd a4fa f1bd 5a0f edbd a509 f13d
00000060: 4985 f4bc 08f9 c3be d3de 83bc 698f 713e
00000070: 7696 013d 00d6 c23d 4d37 be3d 6815 7c3d
0.0014246313 0.054049443 0.07812769 0.13335599 0.06386618 -0.02315145 0.36862606 -0.08692826
-0.1185285 0.117628984 0.033366784 -0.36797413 0.014313345 -0.19500175 0.07180562 -0.054433655
-0.3397118 -0.078343816 0.21217543 0.043968022 -0.09990406 -0.11815384 -0.11575194 0.11769418
-0.029848712 -0.38275933 -0.016097462 0.23589863 0.03163763 0.095134735 0.092878915 0.061543852

net.4.weight f4 [1, 32]
00000000: 63c2 0dbe 296f 22be 1314 153e 14cb 3b3d
00000010: 6023 f9bd 9fdf 0f3c 9c07 643d 0ea7 063e
00000020: ec8a b0bd 9bb2 d2bd 0590 dabd 3c36 5ebb
00000030: 2c7e 9cbc e559 38bf 8596 9bbc d990 d5bb
00000040: 3939 f4be 9e7e e6bd 8798 9c3c 128a 0abe
00000050: 00ed 33bb 18cd 383d 1012 b9be af22 03be
00000060: ec26 abbd 6fa7 adbc 98f0 1dbd 70ad 27be
00000070: c471 923c 66d2 08be 8089 da3d 1e22 853d
-0.13843684 -0.15862717 0.14558439 0.045847967 -0.1216495 0.008781343 0.05567132 0.13149664
-0.08620247 -0.102879725 -0.10672001 -0.0033906838 -0.019103132 -0.7201217 -0.018992672 -0.0065175113
-0.47699907 -0.11254619 0.0191157 -0.13529232 -0.0027454495 0.045117468 -0.36146593 -0.128062
-0.08357033 -0.021198003 -0.038559526 -0.16374755 0.017876513 -0.1336151 0.10670757 0.06500648
