Trading_Model/trading_model_BTCUSD.pth (torch, 16650 bytes, 5 tensors)

net.0.weight f4 [64, 20]
000000 24 ea 29 bd ac 93 ea bd 48 2d 40 3d 4b 9a 23 be
       -0.04148306 -0.114539474 0.046918184 -0.15976827
000010 5e 88 e3 bd 8d 54 ce bd 72 91 3a be d8 e4 06 3e
       -0.11109994 -0.100747205 -0.18219545 0.13173234
000020 8e 14 50 be c8 93 8c 3c 08 59 64 3d 6c ca cb 3d
       -0.20320341 0.017160311 0.05574897 0.09950718
000030 ee ad c2 bd b0 e8 36 3d 90 77 00 3d a1 fe 2e be
       -0.09505831 0.0446555 0.031364024 -0.1708932
000040 68 16 45 3d 00 b5 9a 3b 12 60 1f be 00 96 f9 3d
       0.04811707 0.004721284 -0.15563992 0.12186813
000050 8b 03 0e be 42 b8 a5 bc 28 1e 5f be 9f be 0a be
       -0.13868539 -0.020229463 -0.21788847 -0.13549279
000060 75 52 71 3c 3e 8d 13 3e 56 40 b3 bc bc 6f f4 bd
       0.014729132 0.14409348 -0.021881264 -0.11935374
000070 04 9d 2b be a0 f8 af bd 3d 56 5b be ce 50 20 3e
       -0.16759115 -0.08592343 -0.21419616 0.15655825
000080 bd 89 da 3d 48 e9 f3 bd 04 73 2f 3d 69 5c 7a 3c
       0.10670803 -0.11909729 0.042834297 0.015280821
000090 23 59 68 be 9f 21 2d be bb dc 89 3d 37 25 25 3d
       -0.22690253 -0.16907357 0.06731554 0.040318694
0000a0 ff 21 71 3c 86 8c 6d bc 65 9b 44 be 3e df 24 be
       0.014717578 -0.014498835 -0.19199903 -0.16100785
0000b0 b1 00 99 3d 11 37 87 3d d4 83 7f be 16 03 12 bd
       0.07470835 0.066023 -0.24952632 -0.035647474
0000c0 b1 ed 05 be a1 90 19 be 86 a6 6b 3d c8 61 2f bc
       -0.13078953 -0.14996578 0.057531856 -0.010704465
0000d0 8c 5d 62 bc 2a 68 96 3d 12 b3 1c be 34 21 44 be
       -0.013816249 0.073440865 -0.15302685 -0.19153291
0000e0 8a 74 c9 3d 47 09 90 bd 12 0e 02 3c e2 9f c6 3d
       0.09836681 -0.070330195 0.007937925 0.09698464
0000f0 d2 c8 fc bd 0a 7a f3 bd 2a b9 56 be 97 d1 0a be
       -0.12342991 -0.118885115 -0.20969072 -0.13556515
000100 1d c0 1a be eb ef b0 bd 99 84 34 be 41 44 6d 3d
       -0.15112348 -0.08639511 -0.17628707 0.05792642
000110 87 b6 23 bc 80 10 29 be 61 d6 23 be 18 6b 1a 3e
       -0.009992248 -0.165102 -0.15999748 0.15079916
000120 83 70 13 be 3d 1e 90 bd 80 81 05 be 5c f7 cc bd
       -0.14398389 -0.070370175 -0.13037682 -0.100081176
000130 ac 2a 3b be a1 bc 0b bc c7 46 8a 3d 07 05 11 3c
       -0.18277997 -0.008528859 0.06751781 0.008851296
000140 31 6f 4c 3d ed 46 dc 3b 07 c5 35 bc 98 1f 38 be
       0.049910728 0.006722322 -0.011094338 -0.17980802
000150 35 41 82 bd 5a fe 0c 3e 42 4e 12 be 54 82 01 be
       -0.063600935 0.13768902 -0.14287665 -0.12647372
000160 c6 7f 51 3c b4 9a 05 3e 1d 1e 05 3e 54 18 7d 3c
       0.012786811 0.13047296 0.12999769 0.015447695
000170 be 6f 98 3d cf 15 31 3e e5 6d ef 3d c1 58 05 be
       0.07443188 0.17293476 0.116908826 -0.13022138
000180 c7 30 1d bd 66 2e 06 3d 75 28 26 3e e4 3e 1f be
       -0.038376596 0.032759093 0.1622637 -0.15551335
000190 79 0d cd be ff 98 35 3d ee d9 5b be 3b c8 33 bd
       -0.4004934 0.04433536 -0.21469852 -0.043892127
0001a0 5e dc 95 bd 05 c8 94 be 78 01 4e 3d 14 ad 0c 3d
       -0.07317422 -0.29058853 0.05029437 0.034344748
0001b0 06 a2 59 3e 3a 8f 33 bf 0f 30 1c be 37 11 06 bf
       0.21253213 -0.7014042 -0.15252708 -0.5237002
0001c0 bc 65 f7 3c 52 60 34 3e 69 b3 c6 3d e0 0e 01 3b
       0.030199878 0.17614868 0.097021885 0.0019692704
0001d0 5a 1a 28 be f0 d5 9f be 99 5c e7 bd 19 3c 8c 3e
       -0.16416302 -0.3121791 -0.112969585 0.273896
0001e0 a6 7d 09 3e 64 d3 6c be 43 21 46 be af 02 1f be
       0.13426837 -0.23127514 -0.19348626 -0.15528367
0001f0 34 17 df 3c 0f b2 ee 3d 56 72 05 be c7 c7 f3 bc
       0.027232744 0.11655056 -0.13031897 -0.029758347
000200 10 63 83 bd e9 95 3f 3d c4 8c eb bd 64 ba 5c be
       -0.06415379 0.046773825 -0.11501458 -0.21555477
000210 73 c0 16 3e 2e 49 21 3e ea 68 b5 bd 8f d8 1a be
       0.14721851 0.15750572 -0.088579014 -0.15121673
000220 a8 9e 85 be ca 50 23 be 27 6b 6a be 6c 4b fc 3d
       -0.26097608 -0.15948787 -0.22892438 0.12319073
000230 a1 1f 3a be f9 4e 32 3d 41 cf 40 3e 70 c9 ed 3c
       -0.18176128 0.043532345 0.18829061 0.029026717
000240 b8 a7 08 3e ad ae 27 be 5b 2e 27 bd e9 94 6a 3e
       0.1334523 -0.16375227 -0.040815692 0.22908367
000250 e5 27 51 3e e9 c2 96 bd 88 29 86 bd 21 e3 41 3e
       0.20425375 -0.07361395 -0.0655089 0.18934299
000260 93 5f aa 3d 9e 11 4a 3e fe cf 71 bf 26 4e 6e be
       0.083190106 0.19733283 -0.94457996 -0.23271999
000270 ae fd 80 bf c0 84 2e bf df 62 a5 be 25 0f f6 3d
       -1.0077417 -0.6817131 -0.32301995 0.12014607
000280 2b e2 92 bc ae 8e d9 bd 74 6d 10 be 39 89 74 bd
       -0.01793011 -0.10622917 -0.14104253 -0.05970118
000290 50 fc 2e 3e b2 8c 5e bd a5 21 bd bc c6 56 72 bd
       0.17088437 -0.054333396 -0.023087332 -0.059164785
0002a0 72 d1 71 be 26 2e 4a bb 25 c8 c7 bd 79 4a 9b 3d
       -0.23615053 -0.003085026 -0.097549714 0.07582564
0002b0 8e 82 1d 3e 95 e3 2e 3d f7 8f 55 be aa ea 29 be
       0.15381834 0.042697508 -0.208557 -0.16593423
0002c0 ba 6e 99 3c f5 4f 75 3d 4c 80 1f be a0 ad 21 be
       0.018729556 0.059890706 -0.15576285 -0.15788889
0002d0 01 55 4e bd d8 d5 61 be 0c 52 02 3e 6d 40 73 be
       -0.050374035 -0.22054231 0.12726611 -0.23755045
0002e0 93 31 0e 3e 8f 0b 46 3e 0b 54 1e 3e 97 d4 2b 3e
       0.13886099 0.19340347 0.15461747 0.16780315
0002f0 30 2a 95 bc 15 69 50 be 86 98 4e be 5c a9 24 bd
       -0.018208593 -0.20352586 -0.2017537 -0.040200576
000300 8e c7 3f bd 3f 55 23 3d b9 79 17 be 76 77 03 3e
       -0.04682117 0.03987622 -0.14792527 0.1283854
000310 3c af ac 3d 14 42 6a be b4 67 b1 3d 88 ed 41 be
       0.08431861 -0.2287677 0.08662358 -0.18938267
000320 96 a2 bd bd 00 42 d5 3c 00 17 c3 3a 70 18 25 3d
       -0.092595264 0.026032448 0.0014884174 0.04030651
000330 f0 30 47 be 00 9e 93 3d 8c 60 2f be 22 da 86 bd
       -0.19452262 0.072078705 -0.17126673 -0.06584574
000340 96 8d 15 be e0 53 cc bd dc bd c5 3d e6 34 02 be
       -0.14604792 -0.099769354 0.096553534 -0.12715492
000350 e0 59 ea bc fa 2c 34 3e 1d f3 cd bd 92 1b 17 be
       -0.028607309 0.17595282 -0.10056136 -0.14756611
000360 6a a3 52 be f6 7b af bd 80 1e 88 bc d8 41 4d be
       -0.2057015 -0.085685655 -0.016616106 -0.20044649
000370 f5 51 1a 3e 65 36 c7 bd 8d a6 5e be ab 7c 13 3e
       0.15070327 -0.09727172 -0.21743222 0.14403026
000380 9d fd 76 be 01 02 51 bd 08 91 96 bd e7 f0 63 be
       -0.24120183 -0.0510273 -0.07351881 -0.22259866
000390 a5 92 54 3d 72 43 1f be 69 fb 33 3e 24 63 8a bd
       0.051897664 -0.15553072 0.17576374 -0.06757191
0003a0 d8 a6 cd bd 5a 83 d2 3d 2b 24 ce be 1a 37 9a be
       -0.100415885 0.102789596 -0.4026197 -0.30120164
0003b0 c2 40 06 3e c7 04 5b be 37 7e 48 bd e8 8f 25 be
       0.1311064 -0.21388541 -0.048948493 -0.16168177
0003c0 9b f2 48 be 99 b8 b3 3d 07 6f 78 bd 7d 59 8c bd
       -0.19623797 0.087754436 -0.06065276 -0.06853006
0003d0 58 ff e5 bd 3a 21 78 bd 02 87 67 bc 28 72 4d 3d
       -0.112303436 -0.060578562 -0.014131309 0.050157696
0003e0 b5 3f e4 bd a4 f8 34 be 37 c3 1b be 94 6f ba bd
       -0.11144964 -0.17672974 -0.15211187 -0.09103313
0003f0 d2 75 5c be 1f f9 45 3e 0a 6c 9c be ea 3d 49 3e
       -0.2152932 0.19333313 -0.30551177 0.19652525

net.0.bias f4 [64]
000000 a0 b8 45 bc 62 24 15 bc 37 b1 5a 3c 69 d7 19 3e
       -0.012067944 -0.009102913 0.013347915 0.15023579
000010 0a c1 8e be c1 15 15 3e 0d 99 04 bd ff 99 08 3e
       -0.27881652 0.1455908 -0.032372523 0.13339995
000020 1d 30 f5 bc b9 a9 03 be 26 78 aa bd 30 e1 ce bc
       -0.029930169 -0.12857713 -0.08323698 -0.025253862
000030 d1 7f 89 bd 12 b5 4e be 17 ed 49 3d 6a f6 13 3d
       -0.06713832 -0.2018626 0.049298372 0.03612367
000040 3b 06 e5 bc f5 8b cf 3d 37 89 70 bd f8 13 d2 3d
       -0.027957072 0.101341166 -0.05872461 0.10257715
000050 94 45 08 3e fd 8d 7b be 3d 21 04 be 7f 98 51 be
       0.13307792 -0.24565883 -0.12903304 -0.20468329
000060 41 fc 28 be 39 f1 81 be 1e 33 8d bd de 7c 2e be
       -0.16502477 -0.2537935 -0.068945155 -0.1703982
000070 28 f1 e3 bd b0 66 0d be c6 ff f6 3e 29 8b 19 bc
       -0.11129981 -0.13808703 0.48242015 -0.009371557
000080 39 d3 2d be ae 86 f2 3d 59 c4 4b 3e 72 94 06 be
       -0.16975106 0.11842094 0.1989912 -0.13142565
000090 0b de c6 bc 4a 57 04 3d f0 97 11 be 60 68 04 bd
       -0.0242758 0.032309808 -0.14218116 -0.032326102
0000a0 e4 46 73 3e cf c5 26 3e ee 6b 0c 3e 29 f1 82 3d
       0.23757511 0.16286395 0.13713047 0.06393654
0000b0 20 4a d8 3e 52 ee 07 3d e2 71 99 bd 9a 7d e1 3d
       0.42244053 0.033186264 -0.074924245 0.11010285
0000c0 09 f0 5e be 30 a1 53 be 00 65 f8 3d 38 42 24 be
       -0.21771254 -0.20666957 0.12128639 -0.16040885
0000d0 99 ab e3 3b 84 c2 15 be 17 a0 bc 3c 0c 92 5e be
       0.0069479463 -0.14624983 0.023025556 -0.217354
0000e0 d1 d7 b9 bd 12 bb ac 3e a7 32 21 be f3 7d 12 3e
       -0.09074367 0.33736473 -0.15741979 0.14305858
0000f0 90 72 65 be 75 b4 7a bd 0a d0 1c be de a1 c6 3c
       -0.22406983 -0.061207253 -0.15313736 0.024247106

net.2.weight f4 [32, 64]
000000 cc c9 fd 3d 63 b6 de bc 96 1f d1 bc d8 14 b3 3b
       0.12392005 -0.027186578 -0.025527757 0.0054651313
000010 9f 88 22 3e 6a 77 0f be d3 5d 7b bd b6 10 83 3c
       0.1587243 -0.14010397 -0.061368775 0.01599918
000020 25 e1 c1 3b 36 3e 8e 3d 38 43 99 3d f3 ee 05 bd
       0.005916732 0.069454595 0.07483524 -0.032698583
000030 54 c8 ce 3d 80 32 3b be 8b 31 97 3d 7a 07 a6 bd
       0.10096803 -0.18280983 0.073824964 -0.08106895
000040 9a a2 8a 3c cb 56 48 bd aa 80 09 bd 74 4c 35 bd
       0.016923238 -0.048910897 -0.03356997 -0.044262365
000050 36 d0 d3 bd 5a 31 d2 bd 18 ac df 3d 4a c6 64 bd
       -0.103424475 -0.10263319 0.10921496 -0.055853166
000060 01 75 bf bd a1 4a cb 3d 66 17 8a bd 52 d9 0a be
       -0.093484886 0.09926344 -0.06742744 -0.13559464
000070 29 82 b4 bc 09 5b 32 3d b3 99 22 3d be ba 06 3d
       -0.022034721 0.04354385 0.03969736 0.032892935
000080 89 d7 a2 bd c0 7d da 3d a8 66 92 3d 57 60 0a bc
       -0.07951266 0.10668516 0.071484864 -0.008445821
000090 c5 37 7a 3d fb a5 9e bd 7e 71 b0 bd 17 bf 29 3d
       0.061088342 -0.07746502 -0.08615397 0.041442003
0000a0 5a 3f 1f be 73 ce 24 bd bf 65 44 3e 4d a4 80 bd
       -0.1555151 -0.040235948 0.19179438 -0.06281338
0000b0 30 3c 10 be af f6 d4 bd d4 50 a8 bd a8 8d a8 3c
       -0.1408546 -0.10398614 -0.08218542 0.02057536
0000c0 32 18 8a bd 48 e0 3a bd 72 88 71 bd bc 13 c0 3c
       -0.06742896 -0.045624048 -0.058968015 0.02344691
0000d0 53 06 a6 3d ae d1 f2 3c 29 59 86 bc b0 5d de 3d
       0.08106675 0.029640999 -0.016399937 0.10857713
0000e0 84 30 64 3d 95 bf 9f bc 9f 49 2e be fd 4b 60 3d
       0.05571033 -0.019500533 -0.17020272 0.054759968
0000f0 8c 17 76 3d f3 fd 87 3a 72 a7 98 3d f6 46 da 3d
       0.06008105 0.0010375365 0.07453813 0.10658066
000100 b0 61 6c 3c 0b 1c 04 bd 76 8c c0 bc e2 a2 a0 3d
       0.014427587 -0.032253306 -0.023504477 0.078435674
000110 5d bb 90 bd a2 66 02 bd 19 bc 0b bd 99 a4 f7 bd
       -0.07066987 -0.03183616 -0.03411493 -0.120919414
000120 68 a8 a9 bd ce e8 9c bd 88 12 fd bc ca 96 09 bd
       -0.08284074 -0.076615915 -0.030892625 -0.03359107
000130 41 57 fe bc 1e bf ce 3d 8d 07 1e bc ef da 5a 3d
       -0.031047465 0.100950465 -0.009645355 0.053431448
000140 c1 15 aa bc 54 ed 27 3d f1 45 d9 3d a8 01 da 39
       -0.020762326 0.040997818 0.106090434 0.00041581434
000150 d7 98 e5 3c 0e 44 e7 3d f7 84 b5 3c ba d1 97 3d
       0.028026981 0.11292277 0.02215813 0.07413049
000160 d0 6a 01 3e c6 62 b1 bd 64 12 6c 3d 15 13 12 3d
       0.12638402 -0.08661418 0.057634726 0.03566273
000170 e4 20 08 bd ac 51 ff 3d 3d f3 08 39 b4 df 9c 3d
       -0.033234492 0.124667495 0.00013060584 0.076598555
000180 ec 7a c5 bc 93 3b a9 3b 86 65 e2 bd 96 d0 04 3c
       -0.024106465 0.0051645725 -0.1105452 0.008106371
000190 39 5f 37 3d 2f a8 d2 bd 46 53 c7 bd 82 55 18 3e
       0.044768546 -0.10285985 -0.0973268 0.14876369
0001a0 c6 1a c2 bd 5f ce ac bd b5 a1 e0 3d 70 4f aa 3d
       -0.09477763 -0.084378 0.10968343 0.08315933
0001b0 db 88 43 3c cd c1 8f 3d e8 b3 9f bd c6 7b 11 3d
       0.011934484 0.070193864 -0.07797986 0.03551843
0001c0 06 63 9e 3d a6 a0 df bd c3 d4 e9 3d 8c 27 cf 3d
       0.07733731 -0.10919313 0.11417534 0.10114965
0001d0 c5 fa d2 39 87 4d 02 3e 18 17 40 bd ea 44 9b 3d
       0.0004024116 0.12724887 -0.046897024 0.07581504
0001e0 f6 96 8b bd 37 05 f4 bc 17 b3 bd 3d b6 14 0e bd
       -0.06815903 -0.029787643 0.09262674 -0.03468772
0001f0 8e 4c 41 3c a4 74 e3 3d ec 3e d3 bc ea 05 c6 bb
       0.011798037 0.11106232 -0.02578684 -0.0060431855
000200 0c e2 0d 3d d9 99 b9 bd 30 d0 20 3d eb b9 5e 3d
       0.034639403 -0.09062547 0.039261043 0.054376524
000210 65 6b 65 bb 92 2c fd be 48 0c fd bc cd 5a 77 be
       -0.003500664 -0.49448067 -0.030889645 -0.24155731
000220 9d 9f be bd 7a 2f 42 bb f0 88 20 3d e1 bf 07 3e
       -0.093077876 -0.002963035 0.039193094 0.1325679
000230 54 c2 39 3e ec 5d 83 bd 16 12 69 3d 94 8d aa 3d
       0.18140537 -0.064143986 0.056902014 0.08327785
000240 63 d6 93 be 99 50 59 bc 2a a4 83 bd e5 10 88 bd
       -0.28874502 -0.013263845 -0.06427796 -0.066438474
000250 11 ca 4b be cd ff e4 bd ee bb fb 3e 13 da 12 bd
       -0.19901301 -0.111816026 0.49166816 -0.035852503
000260 3d 22 1d 3c 80 b7 4e bd e7 50 6f 3d e2 d9 09 bd
       0.009590683 -0.050467968 0.058426764 -0.033655055
000270 2b 43 d1 3d 76 43 a3 bd d0 aa 9e bd 8b 9f cd bd
       0.102178894 -0.079718515 -0.07747424 -0.10040196
000280 46 73 d7 bd 92 b4 f5 3d bc ea a5 bc c2 16 a5 3e
       -0.105200335 0.11997332 -0.020253532 0.32243925
000290 23 a1 7a 3d f3 f8 08 bd a1 df 73 bd 1b 24 7d bd
       0.06118883 -0.03344054 -0.05953944 -0.06180201
0002a0 f3 61 65 bd a7 8a fa bb 7a 51 69 be 98 7b 72 bd
       -0.056001615 -0.007645923 -0.22784987 -0.0591999
0002b0 d5 ca 59 bd 3f 6a cb 3d a4 eb a7 3d b2 6c 9d 3d
       -0.05317195 0.09932374 0.08199242 0.076867476
0002c0 7c f9 53 3d c3 73 82 bb b4 f1 b9 bd aa 51 3f bd
       0.0517516 -0.003981085 -0.09079304 -0.04670874
0002d0 39 6f b5 b8 67 89 69 3d 14 37 c9 bc e6 c1 ae bd
       -8.6514694e-05 0.057015803 -0.024562396 -0.08533077
0002e0 5c a3 f9 3d 91 85 dd 3c 09 2b a8 3d 51 ca b5 3d
       0.121893615 0.027041228 0.08211333 0.088764794
0002f0 1f 5e 67 bd bf 4b 6d 39 92 b2 a4 bd 9a 7e 1c be
       -0.056486245 0.00022630299 -0.08041872 -0.1528267
000300 e0 94 5b bc 76 5a b4 3d 33 7c dc bd b7 b2 36 bd
       -0.013402194 0.088063166 -0.107658766 -0.04460403
000310 75 0d 0b be 7f 5f 4e 3c 3c 9c c9 bd 42 ce 80 bd
       -0.13579352 0.01259601 -0.098442525 -0.062893406
000320 e0 ed 54 bd 2c a9 79 3d 30 5c df bc 00 67 b3 bb
       -0.051984668 0.06095235 -0.027265638 -0.005474925
000330 48 d4 af 3c 1d 50 c7 3d 11 2e f9 3c bd bf 47 3b
       0.021463528 0.09732077 0.030417474 0.0030479275
000340 8c 94 88 bd c7 46 03 3d e4 a3 38 3d 83 43 92 3d
       -0.06668958 0.03204992 0.045078173 0.07141783
000350 25 f3 ae 3d df c7 28 bc a5 49 52 bd c0 9d f4 bd
       0.0854247 -0.010301559 -0.051339764 -0.11944151
000360 26 15 c0 3d 73 26 ab bd cf 56 b4 3d 0c 1c 54 3c
       0.09379034 -0.08356943 0.0880562 0.01294614
000370 9b ca b1 bc e1 f5 be 3d 07 06 42 3d a2 3a 6d 3d
       -0.021703055 0.093242414 0.04736903 0.057917245
000380 5d d4 b7 3c 4e aa 20 3d b6 42 82 3d 97 f0 2e bd
       0.02244013 0.039224915 0.0636038 -0.042709913
000390 e8 f6 aa 3d cc 03 6e bd 38 1f c6 bb 95 b1 cf 3c
       0.08347875 -0.05810909 -0.006046202 0.025353232
0003a0 06 ab bc bd 5a 55 05 be 49 9f 8c 3d 19 08 e4 3b
       -0.09212308 -0.1302084 0.06866319 0.006958973
0003b0 be ba cf bc cf 33 a3 bd 37 15 eb 3a 16 fd cd 3c
       -0.0253576 -0.07968866 0.00179354 0.025145095
0003c0 c4 fd 55 bd 40 f5 9c bd 8f f8 e5 3d d4 5a fc bd
       -0.052243963 -0.07663965 0.112290494 -0.123220116
0003d0 e2 f0 fd bc 8e ed 9e 3d 46 24 ba bc ec 7b ad 3d
       -0.030998651 0.07760154 -0.022722375 0.08470902
0003e0 7a 55 21 3d 3e 50 09 be d0 32 81 bd 01 79 e0 bd
       0.039388157 -0.13409516 -0.0630852 -0.1096058
0003f0 6a 83 a6 bd e3 a2 86 bd c5 48 55 3c ff e2 01 3d
       -0.08130534 -0.06574037 0.013017838 0.03171062

net.2.bias f4 [32]
000000 62 2b f6 bd 20 a1 6b bd d5 35 a6 bd 39 05 d4 bd
       -0.12019993 -0.057526708 -0.081157364 -0.10352559
000010 1a 87 e1 bd 78 05 47 bd eb 4d b7 bd d9 68 f1 bc
       -0.11012097 -0.0485892 -0.089504085 -0.02946894
000020 fd c6 ad bb de 3f c3 bd e4 aa c4 bc 34 95 0e bd
       -0.0053032623 -0.09533666 -0.024007268 -0.03481026
000030 b3 ad 52 bd 88 fb 18 3e c2 93 1f bd 49 d6 1a bd
       -0.051435184 0.14939702 -0.038959272 -0.037802014
000040 d6 21 bd bd 27 06 e6 bd 81 1e 5d bd 88 df 80 3e
       -0.09234969 -0.11231642 -0.05398417 0.2517054
000050 75 09 02 bd 41 5f 1c bd 71 c4 d5 bc b6 1f 25 bd
       -0.0317473 -0.03817678 -0.026094647 -0.040313445
000060 ce e7 01 bd 31 f8 38 bd e0 49 a4 bd 2f e9 54 3d
       -0.031715207 -0.04515857 -0.08021903 0.051980194
000070 e0 61 a4 bc 46 b3 47 bd 4f 31 16 3e 41 8d c9 bd
       -0.020066202 -0.048754953 0.14667247 -0.09841395

net.4.weight f4 [1, 32]
000000 a5 2f 7e 3c a2 29 d0 bc 37 cb 46 3e 11 34 ef bc
       0.015514289 -0.025410477 0.19413458 -0.029199632
000010 0d 7d b0 bc 28 f5 53 bd 3e 58 b9 bd 9d b9 9a bc
       -0.021544004 -0.05174747 -0.09050034 -0.018887335
000020 83 d2 3f 3b a6 3c 84 3c bb 93 0f 3c a1 38 4d bd
       0.0029269762 0.0161422 0.008763249 -0.050102834
000030 7b 3d 96 3d fb 11 5b bd c7 57 d3 3c 0b 91 80 3c
       0.07335945 -0.053483944 0.025798691 0.015694162
000040 9b 9e 76 3a 82 f4 3b 3c 4b f3 12 be 1d e1 27 3e
       0.00094077893 0.011471869 -0.14350621 0.16394468
000050 30 3f f2 bd ec 51 1c bc e3 1f 0e 3c fa ae 8f bc
       -0.11828458 -0.009541016 0.008674595 -0.01753949
000060 61 1e 3e 3b 5d 95 35 3c f7 90 a7 3c 5a 89 1c be
       0.0029009806 0.011082974 0.020454867 -0.1528677
000070 69 06 d0 bb 57 c7 d2 3c 09 35 95 3d 5d 2c e9 3b
       -0.0063484204 0.025729818 0.07285506 0.007115884
