Trading_Model/trading_model_BTCUSD.pth (torch, 16650 bytes, 5 tensors)

net.0.weight f4 [64, 20]
-0.22092217 0.12981012 -0.05691713 0.076563075 -0.2637359 0.060266282 0.07763453 0.014511191
-0.163172 -0.03415766 0.09053568 -0.22350362 -0.079214685 -0.21388099 0.09141576 0.07312441
-0.30356893 -0.2139309 -0.19368698 0.10431222 0.15258637 0.08771316 -0.11026729 -0.26860452
0.12995946 -0.015251303 -0.21552026 -0.06756657 0.12189778 0.05683268 -0.2650835 -0.0617217
0.007165909 0.15307692 -0.019861413 -0.23930049 -0.03829465 -0.29150012 -0.21719821 0.06625163
-0.20230724 0.09424149 -0.15990435 0.1658252 0.062086135 -0.08556523 -0.10715965 -0.16300915
0.4211003 -0.07914736 -0.06391034 -0.049299035 -0.21705297 0.11941239 0.3490782 -0.39899245
0.05225323 -0.053979054 0.07168368 0.16393021 -0.07211696 0.014639928 0.10184934 -0.29687592
0.12760387 -0.10166137 0.02253888 -0.050266724 -0.21850328 -0.18216546 0.112967364 -0.056745015
0.11997445 -0.0065465015 0.12786804 0.016173748 -0.22899371 0.10848848 -0.22823264 0.13985686
-0.079237096 0.08687932 0.03286265 -0.0055298703 -0.025112811 -0.0008973788 0.0034353072 0.10804627
-0.65685743 0.07199885 -0.20028237 0.031046418 -0.2295438 0.3784646 -0.4779272 0.14084744
-0.10724343 -0.23955439 -0.11200087 0.07304267 -0.49271417 0.28158587 -0.18337004 -0.20078641
-0.005558422 -0.061312754 -0.081984654 -0.11762236 0.051182263 -0.21807161 0.2538047 -0.18658239
-0.07261266 0.26492456 -0.9719321 0.49353403 -0.40628508 -0.309064 -0.058574002 -0.19115873
-0.21237683 -0.104162395 0.04513799 -0.08327454 -0.07090645 -0.058767654 -0.21076617 0.019565495
0.13822693 -0.12621789 -0.17330283 0.0736276 0.16863066 -0.08333568 -0.23560661 -0.025834268
0.12991472 0.018000966 0.13396858 0.08547906 0.03329254 -0.026795888 -0.025037969 -0.021542916
-0.084541455 0.11337027 -0.15375637 0.17117314 0.11470651 0.033835392 -0.045915976 0.057424363
0.029841227 -0.20447974 -0.37600374 0.3613666 -0.22155179 -0.03130615 -0.05502608 0.074810855
-0.008387743 -0.054449838 0.034186285 0.12537146 -0.24524803 -0.24180283 -0.0814114 -0.17836337
-0.14014529 0.09034304 0.11556721 0.039616782 -0.216302 -0.0687744 0.051752657 -0.18990588
-0.20161238 0.02940186 -0.11617646 -0.103969395 -0.050759528 -0.08545919 -0.06845617 -0.05076491
-0.15486932 -0.22852314 0.12816639 -0.08502952 -0.15010706 -0.17749219 -0.0720283 -0.31658092
-0.12346748 -0.003443171 -0.24964081 -0.22779238 -0.35469845 0.061778706 0.018052176 -0.09858368
-0.1391947 0.19886617 -0.17559913 0.13217938 -0.1940052 0.17178695 0.06218817 -0.021748446
-0.0484059 0.09042295 0.14024602 -0.18812257 -0.072312966 -0.0578941 0.04014847 0.031212408
-0.05341932 -0.24014561 -0.18703616 -0.050790247 -0.20502967 0.17868756 0.052111372 -0.026280396
-0.08179986 -0.0661924 -0.121422864 0.16823338 -0.10547235 -0.03941051 0.1358975 0.18905294
-0.21793686 0.08396553 -0.08516386 -0.028977273 -0.16767518 -0.12975541 -0.15667284 -0.23519886
0.062041182 -0.06510568 0.15667696 -0.24155791 0.04740393 0.029415285 -0.021439096 -0.058294803
-0.20598745 -0.19620335 0.0009085076 -0.21687895 -0.14975514 -0.0066138413 0.034843095 -0.023780156
00000000: 6c39 62be f2ec 043e f021 69bd 1acd 9c3d
00000010: 6408 87be c7d9 763d dafe 9e3d 59c0 6d3c
00000020: 9016 27be e7e8 0bbd c56a b93d 22de 64be
00000030: 4f3b a2bd 9e03 5bbe 3038 bb3d 40c2 953d
00000040: 636d 9bbe b410 5bbe e155 46be a5a1 d53d
00000050: 9a3f 1c3e f5a2 b33d d1d3 e1bd 8886 89be
00000060: 1814 053e 9ae0 79bc 58b1 5cbe 5860 8abd
00000070: 8ba5 f93d 62c9 683d 06b9 87be e5cf 7cbd
00000080: 00d0 ea3b 32c0 1c3e 67b4 a2bc 300b 75be
00000090: dada 1cbd 813f 95be 3569 5ebe efae 873d
000000a0: a129 4fbe af01 c13d f7bd 23be 15ce 293e
000000b0: 084e 7e3d d33c afbd 8576 dbbd dfeb 26be
000000c0: 759a d73e 0318 a2bd 6de3 82bd c9ed 49bd
000000d0: 2243 5ebe 7c8e f43d 61ba b23e bd48 ccbe
000000e0: 7c07 563d 2419 5dbd e5ce 923d 52dd 273e
000000f0: 0fb2 93bd 4fdc 6f3c 6396 d03d 1f00 98be
00000100: 97aa 023e d633 d0bd 75a3 b83c 7be4 4dbd
00000110: 53bf 5fbe 9589 3abe 6f5b e73d 766d 68bd
00000120: 2ab5 f53d 0984 d6bb d7ef 023e cf7e 843c
00000130: 547d 6abe 352f de3d d1b5 69be a336 0f3e
00000140: 0f47 a2bd c9ed b13d fc9a 063d ea33 b5bb
00000150: 62b9 cdbc 123e 6bba e422 613b 5d47 dd3d
00000160: cf27 28bf 2274 933d d216 4dbe 0f55 fe3c
00000170: 880d 6bbe 1dc6 c13e e0b2 f4be 503a 103e
00000180: 72a2 dbbd bf4d 75be b660 e5bd 6597 953d
00000190: 0845 fcbe 062c 903e 5bc5 3bbe f49a 4dbe
000001a0: 6c23 b6bb 1523 7bbd 92e7 a7bd fee3 f0bd
000001b0: 7ea4 513d 2a4e 5fbe b1f2 813e 740f 3fbe
000001c0: f2b5 94bd 31a4 873e 8bd0 78bf 7eb0 fc3e
000001d0: 9904 d0be a33d 9ebe 4beb 6fbd 1dbf 43be
000001e0: 5079 59be 1853 d5bd 9de2 383d d88b aabd
000001f0: 6737 91bd 5ab6 70bd 16d3 57be d147 a03c
00000200: 5c8b 0d3e 433f 01be 4c76 31be 11ca 963d
00000210: 84ad 2c3e e6ab aabd dc42 71be 63a2 d3bc
00000220: 5d08 053e c376 933c 0f2f 093e a50f af3d
00000230: c25d 083d 0d83 dbbc 6d1c cdbc c57a b0bc
00000240: 1224 adbd ac2e e83d 4f72 1dbe 0348 2f3e
00000250: 3feb ea3d fb96 0a3d 6412 3cbd cf35 6b3d
00000260: 9775 f43c 2363 51be 9083 c0be 0b05 b93e
00000270: 79de 62be e13a 00bd 0763 61bd 6f36 993d
00000280: be6c 09bc cb06 5fbd eb06 0c3d 6061 003e
00000290: 4d22 7bbe 299b 77be 05bb a6bd e3a4 36be
000002a0: 3f82 0fbe c605 b93d 80ae ec3d 3545 223d
000002b0: 467e 5dbe 98d9 8cbd 98fa 533d b076 42be
000002c0: 7a73 4ebe 2bdc f03c eded edbd e8ed d4bd
000002d0: 39e9 4fbd 3a05 afbd c032 8cbd deee 4fbd
000002e0: 1096 1ebe f801 6abe 0d3e 033e f523 aebd
000002f0: aab5 19be 83c0 35be 9383 93bd e516 a2be
00000300: 85dc fcbd d3a6 61bb d7a1 7fbe 6842 69be
00000310: 099b b5be ab0b 7d3d 28e2 933c 3ee6 c9bd
00000320: 0e89 0ebe 93a3 4b3e 42d0 33be 085a 073e
00000330: 4da9 46be ebe8 2f3e 06b9 7e3d cc29 b2bc
00000340: 4445 46bd ab2f b93d a79c 0f3e 34a3 40be
00000350: d218 94bd 5d22 6dbd b972 243d 2ab1 ff3c
00000360: 38ce 5abd bbe8 75be 6886 3fbe 6f09 50bd
00000370: 4cf3 51be dff9 363e bc72 553d fc49 d7bc
00000380: af86 a7bd e28f 87bd 8dac f8bd 5f45 2c3e
00000390: e301 d8bd ea6c 21bd b728 0b3e 1897 413e
000003a0: d72a 5fbe 1ff6 ab3d 646a aebd bf61 edbc
000003b0: 0bb3 2bbe 9ade 04be d86e 20be f8d7 70be
000003c0: e51e 7e3d 2056 85bd ed6f 203e f55a 77be
000003d0: a02a 423d 53f8 f03c 0ba1 afbc 88c6 6ebd
000003e0: 60ee 52be 88e9 48be ea28 6e3a 8415 5ebe
000003f0: 6959 19be ecb8 d8bb a2b7 0e3d 9ace c2bc

net.0.bias f4 [64]
-0.07091468 -0.22540502 -0.30243248 -0.15738127 0.36458227 -0.2127456 -0.23537032 0.35212854
0.108009644 0.1803491 -0.19041654 -0.1514976 -0.16472432 0.009585792 -0.17445448 0.024468556
-0.07652679 -0.109523 -0.16795464 0.04103362 0.012324412 -0.049646147 -0.21074903 0.16887692
-0.03903239 -0.15417778 0.3195273 0.09142023 0.074349895 -0.22924691 0.09873715 -0.16473436
0.07864159 0.124288455 0.1605626 0.15879026 -0.21567006 -0.023022197 -0.036731128 -0.021012992
-0.19394392 0.086983554 0.30084658 -0.20274492 0.07319017 -0.03784017 0.0032926148 0.09572017
0.052481655 0.044428743 0.20157962 -0.11047108 -0.06318637 -0.06237254 -0.029740142 -0.04126064
-0.13524978 0.20545328 0.14870644 0.014992809 -0.22276092 -0.23444179 -0.19462158 0.026758019
00000000: b73b 91bd 93d0 66be 6ed8 9abe 8e28 21be
00000010: 87aa ba3e fcd9 59be eb04 71be 314a b43e
00000020: 2934 dd3d 6fad 383e 8efc 42be 3022 1bbe
00000030: 7ead 28be ba0d 1d3c 32a4 32be 4872 c83c
00000040: 14ba 9cbd 984d e0bd 4dfc 2bbe de12 283d
00000050: 55ec 493c c259 4bbd 98ce 57be 12ee 2c3e
00000060: 6de0 1fbd c8e0 1dbe 1599 a33e 883a bb3d
00000070: c244 983d b4bf 6abe b436 ca3d 20b0 28be
00000080: d80e a13d f28a fe3d 866a 243e ea99 223e
00000090: 9dd8 5cbe 0c99 bcbc 6173 16bd 7023 acbc
000000a0: 3c99 46be 6f24 b23d 9008 9a3e 5d9c 4fbe
000000b0: bae4 953d 4bfe 1abd e9c8 573b f008 c43d
000000c0: 01f7 563d eafa 353d e36a 4e3e a93e e2bd
000000d0: db67 81bd 597a 7fbd 99a1 f3bc eb00 29bd
000000e0: eb7e 0abe 5862 523e 8046 183e 66a4 753c
000000f0: 701b 64be 8211 70be e14a 47be a233 db3c

net.2.weight f4 [32, 64]
-0.11133695 -0.14477609 0.09052788 -0.14861746 -0.031686105 0.595425 -0.09243016 0.10352516
0.07185597 0.124479614 -0.025048811 0.07447628 -0.06275257 0.033998594 -0.060605682 0.14932436
0.06778057 -0.059902858 0.021372968 -0.14613903 -0.017824696 0.04161099 -0.064415105 0.070696704
0.01694724 0.13372429 0.054844495 -0.079581246 0.028240757 -0.0049831574 -0.0361416 -0.0090086255
0.07519226 0.020522183 0.104019865 0.117373645 -0.079053566 -0.16361737 0.05792657 0.0051548905
-0.17535263 -0.08922923 0.13331605 0.104084745 0.17312972 -0.013362574 0.033244763 -0.11711519
-0.09941627 -0.13082434 0.04648877 0.164891 -0.03344367 -0.074134424 0.1232688 0.23002769
-0.072160155 -0.13477468 -0.06849852 -0.0129011655 -0.0067637414 -0.010337105 0.018081764 0.075388804
-0.10375816 0.05116977 0.0016768569 0.039536644 -0.051040113 0.3344268 0.00761023 -0.13287938
0.0483766 -0.11915313 0.10125348 0.051039774 0.13300927 -0.059854146 -0.009678257 0.09028031
0.06941256 0.03816212 -0.054793604 0.030184694 -0.0081730755 -0.06650306 -0.026189577 0.059681583
0.024315221 -0.0980868 -0.09549634 0.0010336669 -0.1816188 -0.060459673 -0.101979434 0.054933026
-0.06992801 -0.038521245 -0.056814667 -0.092827424 0.15677238 0.082616694 0.14164902 0.12673743
0.068769075 -0.099563986 -0.099241056 0.087542824 0.020481512 -0.014818523 -0.0480381 0.071143
0.07062785 0.08551048 0.12958747 0.13970694 -0.054154713 -0.006550137 0.07109687 0.26954716
0.018629925 -0.07832609 0.008038694 0.05108241 0.021521986 0.09620329 0.00033468675 0.065707356
-0.0016277047 0.06403324 0.016738467 -0.12450281 -0.17976083 -0.04381461 0.08344672 -0.4773335
0.017224958 -0.06696069 -0.13072978 0.11376765 0.10352596 -0.036829375 0.012100945 -0.09086381
-0.017936988 0.021441104 -0.26244757 -0.09649028 -0.08519732 0.02586762 -0.047368586 -0.059339434
0.054656494 -0.09118836 -0.026981525 0.04046722 -0.027260527 -0.11580503 0.02950835 -0.027728781
-0.12323722 -0.122686006 -0.06649452 0.013691914 -0.022608722 -0.14511062 -0.15284528 -0.08345751
0.061957844 0.051044386 0.065579176 -0.034041822 0.04574238 0.10649329 -0.0056781378 0.093443185
-0.0074108006 -0.00015193409 -0.087010264 0.22467491 0.0074007246 -0.07808307 0.06678258 0.086121604
-0.10445653 0.08856146 -0.12606353 -0.0750432 -0.11568296 0.029397795 0.09110572 0.047058716
0.05147625 0.01895563 0.06310178 -0.07609276 0.012439577 0.015195429 -0.083488256 -0.037985586
0.09011207 -0.10734209 0.095261656 -0.024189696 -0.0636295 0.15932669 -0.034242563 0.02079394
0.05690304 -0.026948681 0.07411822 0.038878616 0.11822367 -0.064894326 -0.12724532 -0.1281687
-0.004415315 0.10121279 -0.17498848 0.021859549 -0.02058947 -0.117731996 -0.1766947 0.035088643
0.08397921 -0.19761081 -0.10289658 0.049783014 -0.031031962 -0.023228794 -0.18655202 -0.07101567
0.07024368 0.04139591 0.11189045 -0.04287026 -0.015561023 -0.048987966 0.07288015 -0.063548654
0.042246535 -0.014380288 -0.046232805 0.03121749 -0.09535059 0.105003454 0.0005764209 0.17680232
-0.101279505 -0.16624485 -0.084035814 -0.028723104 -0.021557212 -0.030149827 -0.07779655 0.06674783
00000000: a004 e4bd 2f40 14be ae66 b93d 2d2f 18be
00000010: 4ac9 01bd c66d 183f 064c bdbd 0005 d43d
00000020: 3929 933d 2bef fe3d 2a33 cdbc 0587 983d
00000030: 6b84 80bd 1c42 0b3d aa3d 78bd 7ce8 183e
00000040: 8ad0 8a3d b35c 75bd 5d16 af3c 78a5 15be
00000050: 1905 92bc 4970 2a3d 11ec 83bd 6fc9 903d
00000060: f0d4 8a3c 05ef 083e 9fa4 603d 7efb a2bd
00000070: 2959 e73c c149 a3bb 3709 14bd ea98 13bc
00000080: 66fe 993d 231e a83c 5e08 d53d 9861 f03d
00000090: d6e6 a1bd 508b 27be 6944 6d3d 5bea a83b
000000a0: a48f 33be d1bd b6bd 0184 083e 622a d53d
000000b0: eb48 313e b3ee 5abc a92b 083d 17da efbd
000000c0: c29a cbbd d1f6 05be 026b 3e3d 30d9 283e
000000d0: 3bfc 08bd cad3 97bd 5a74 fc3d 618c 6b3e
000000e0: b4c8 93bd 6002 0abe f448 8cbd 695f 53bc
000000f0: 60a2 ddbb f65c 29bc 3520 943c 7265 9a3d
00000100: 287f d4bd 6597 513d fbc9 db3a 2df1 213d
00000110: 700f 51bd fd39 ab3e 3c5f f93b 8811 08be
00000120: 8b26 463d 8e06 f4bd fc5d cf3d 150f 513d
00000130: 9533 083e 9f29 75bd 8d91 1ebc e2e4 b83d
00000140: 2c28 8e3d e24f 1c3d 426f 60bd e445 f73c
00000150: 5de8 05bc c232 88bd 868b d6bc ad74 743d
00000160: b730 c73c bbe1 c8bd 9693 c3bd 1b7c 873a
00000170: 47fa 39be 90a4 77bd 98da d0bd 7401 613d
00000180: 6b36 8fbd 74c8 1dbd 7fb6 68bd 4e1c bebd
00000190: f088 203e f132 a93d 710c 113e 75c7 013e
000001a0: cdd6 8c3d 34e8 cbbd e53e cbbd a749 b33d
000001b0: d8c8 a73c 64c9 72bc 99c3 44bd 6cb3 913d
000001c0: 56a5 903d 1e20 af3d 94b2 043e 560f 0f3e
000001d0: 55d1 5dbd 88a2 d6bb 3c9b 913d 1602 8a3e
000001e0: c99d 983c 6e69 a0bd bab4 033c ca3b 513d
000001f0: e04e b03c 3b06 c53d e578 af39 9491 863d
00000200: b558 d5ba dc23 833d 1c1f 893c 54fb febd
00000210: 3913 38be f376 33bd 1de6 aa3d 0e65 f4be
00000220: 5b1b 8d3c b022 89bd 07de 05be 04ff e83d
00000230: 6b05 d43d 66da 16bd 0b43 463c ce16 babd
00000240: 97f0 92bc 41a5 af3c 875f 86be b29c c5bd
00000250: ef7b aebd 55e8 d33c 9005 42bd e80d 73bd
00000260: 7ddf 5f3d f6c0 babd 5c08 ddbc f5c0 253d
00000270: 7851 dfbc 302b edbd 7fbb f13c 7827 e3bc
00000280: cc63 fcbd cd42 fbbd 472e 88bd 0d54 603c
00000290: ed35 b9bc e197 14be 7983 1cbe c5eb aabd
000002a0: 82c7 7d3d eb13 513d 604e 863d 706f 0bbd
000002b0: 5d5c 3b3d 2719 da3d ac0f babb 245f bf3d
000002c0: 4dd6 f2bb 7f50 1fb9 7032 b2bd 2e11 663e
000002d0: c781 f23b 04ea 9fbd 4ec5 883d 8660 b03d
000002e0: 4eed d5bd b65f b53d cc16 01be 40b0 99bd
000002f0: 30eb ecbd a5d3 f03c a395 ba3d a4c0 403d
00000300: c3d8 523d d648 9b3c 823b 813d 85d6 9bbd
00000310: 5ecf 4b3c 40f6 783c e4fb aabd c696 1bbd
00000320: ad8c b83d 2bd6 dbbd 8b18 c33d 7829 c6bc
00000330: 2f50 82bd 8926 233e ee41 0cbd 0e58 aa3c
00000340: 2913 693d 7bc3 dcbc 4bcb 973d 2f3f 1f3d
00000350: 401f f23d 51e7 84bd 994c 02be a83e 03be
00000360: 59ae 90bb a748 cf3d 2e30 33be cc12 b33c
00000370: 40ab a8bc 791d f1bd 75ef 34be 1cb9 0f3d
00000380: 4bfd ab3d 7d5a 4abe 71bb d2bd 46e9 4b3d
00000390: be36 febc 504a bebc 7e07 3fbe aa70 91bd
000003a0: ebdb 8f3d c28e 293d d226 e53d ba98 2fbd
000003b0: a9f3 7ebc 9ba7 48bd 3042 953d cc25 82bd
000003c0: b40a 2d3d 4d9b 6bbc 9c5e 3dbd d2bb ff3c
000003d0: 2c47 c3bd 0d0c d73d f41a 173a ab0b 353e
000003e0: a16b cfbd 173c 2abe f81a acbd b74c ebbc
000003f0: c098 b0bc c5fc f6bc cc53 9fbd 16b3 883d

net.2.bias f4 [32]
0.16062684 -0.03978985 0.06290408 -0.0735033 -0.079964295 0.21801384 -0.11199336 -0.03371479
-0.117894664 -0.1319648 0.18672705 0.19363561 0.28391838 -0.089047424 -0.06446805 -0.013734264
-0.029549468 -0.08307868 -0.057183355 -0.115846075 0.33984938 -0.019363705 -0.025700321 -0.08124553
-0.04266979 -0.054306973 -0.14904068 -0.10714268 -0.12189256 -0.05641724 0.061873853 -0.057900235
00000000: 5d7b 243e affa 22bd dbd3 803d e688 96bd
00000010: 52c4 a3bd 053f 5f3e c65c e5bd 8518 0abd
00000020: c272 f1bd c821 07be 6035 3f3e 6a48 463e
00000030: c05d 913e 7f5e b6bd d307 84bd ae05 61bc
00000040: ba11 f2bc 2825 aabd 1839 6abd b540 edbd
00000050: bd00 ae3e a2a0 9ebc 7b89 d2bc 0e64 a6bd
00000060: 85c6 2ebd fd70 5ebd 1f9e 18be 9f6d dbbd
00000070: cea2 f9bd c415 67bd 706f 7d3d cc28 6dbd

net.4.weight f4 [1, 32]
0.076115355 -0.020813681 -0.06017395 -0.008177798 0.01939239 0.09824171 0.03776908 -0.021057177
-0.09204197 0.08053476 0.101064175 0.09612516 0.13144667 0.091642335 -0.00012489494 -0.00047540193
0.021006998 -0.07513867 -0.14103714 0.016331945 0.14829709 -0.018162273 -0.029421913 -0.09543509
-0.08647275 0.017967504 -0.0067083896 -0.011077386 0.063544735 -0.027837323 0.019386198 -0.13440374
00000000: 5ee2 9b3d 7481 aabc f678 76bd 2cfc 05bc
00000010: cadc 9e3c f332 c93d c0b3 1a3d 1a80 acbc
00000020: 8080 bcbd 69ef a43d bcfa ce3d 45dd c43d
00000030: f599 063e faae bb3d 3bf6 02b9 5e3f f9b9
00000040: de16 ac3c 4ee2 99bd 0a6c 10be 92ca 853c
00000050: 31db 173e 0cc9 94bc 3906 f1bc 7973 c3bd
00000060: a018 b1bd 9630 933c 0dd2 dbbb ed7d 35bc
00000070: be23 823d 190b e4bc cecf 9e3c 22a1 09be
