Trading_Model/trading_model_AUDUSD.pth (torch, 16650 bytes, 5 tensors)

net.0.weight f4 [64, 20]
00000000: cbb9 8cbd 0bef 143d 3c5a 94ba c857 63be
00000010: fee9 b43c 89e6 ccbc 8f27 573b e0b6 003e
00000020: d99c 613d 6dd0 16bd 3981 3c3d 9071 1bbe
00000030: 60ed 24be d867 e9bc cd83 57be 6db3 6a3d
00000040: c916 03bc 2bce 17be 7705 733d 3f07 4e3d
00000050: 79e5 97bd aaa9 90bd a886 babd 2be5 46bd
00000060: b19c 24be 4ffa 37bc 12aa 523c b3ad c9bd
00000070: 38b2 f93d 1a12 31be dfe0 58be 7403 45be
00000080: 27c4 1b3e ac1c 24be ccca 97be 7c5e 60bb
00000090: 129d 0cbe 4a53 8bbe c457 a63c 5cf1 12bc
000000a0: 2ace 20be cbb0 1b3d df31 1f3c c0a4 9bbe
000000b0: b41b e53d a2be 91be 60ee 3dbd 6282 a1be
000000c0: 08c1 8fbb f8b7 403c cf2f b5bd 4c79 efbb
000000d0: 3246 39be 4a3e 543e 763f ca3c d26e 36be
000000e0: ec1a 553c 3498 48be f87c 3fbd faca 72be
000000f0: af5a 05be 6c65 babd e400 11be 4adc 8f3d
00000100: 58c2 4cbe bbb0 0abe 3c67 343d 2dd1 c53d
00000110: eb4c 6bbd abfd b039 57bf b1bc c75b 30be
00000120: 1fc1 94bd f43a f73d 11ec 07be 61a5 7bbe
00000130: add8 293e e30e 75bb d498 64be 399f f83d
00000140: d393 983c bdf0 263d 4c84 123d 4399 4bbe
00000150: 1611 8cbe e5e7 883d 4bc6 a3bc 667b 333d
00000160: bfaa 4a3c 2cc7 383e 74aa 363d 0f61 07bd
00000170: b716 6f3e 8f18 b6bd 0778 d6be fa66 cd3e
00000180: c3dd 4bbe c213 903d 07b5 b7bd e556 193e
00000190: c7f3 67be 28df 093e 37e8 a33d cee7 0b3d
000001a0: 9e81 06bd 1be2 22bd 2edd b7bc a0a6 f93d
000001b0: ae6b 50be 39d9 843d d4ee 06be 200d 7fbe
000001c0: 3c71 113d c99b dabb d349 a73d 5b74 f3bc
000001d0: b245 b8bd 7098 11be 6cdf 843c b8bf 453d
000001e0: aa84 58be 7a30 adbd 4e89 593d 4076 d5bd
000001f0: b16b c3ba 7214 c9bd c290 8cbe 7883 3dbd
00000200: 30cf 76bd bbe8 81be 11ce 6cbe 9a40 44be
00000210: 446f b13d 8e3a 93bc 8277 56be ce04 823d
00000220: 522c 89be 20ae eb3c 35d0 6cbe 0a92 91bd
00000230: 1e0a a339 219a 223d b388 36be 3540 f63d
00000240: c4c1 e53d 148f 88be 2558 ddbd 0d76 48be
00000250: 16ce 92bd 924d e6bd 2a8a 9f3d 1290 46be
00000260: bc7a bfba f849 bbbd c983 783d 28d6 55be
00000270: eb77 2ebc 9e34 84be ea9a e33d 4c6e 18bd
00000280: 17ac 173e fb97 32be c5d6 91bc b5dc 59be
00000290: 20f5 e33d e343 e4bd 6a3d 37bd 9906 4e3d
000002a0: a424 1cbd 67f9 083e 4004 62be 9109 f3bd
000002b0: bc59 f03c 52ea 55bd 1828 5abd 28e0 55be
000002c0: 5287 f63d 60dd 0c3e bff3 37be 10ca ef3b
000002d0: 5ed9 563e 1f34 a53c 6b4c 3a3e 66c3 d7bc
000002e0: 2420 8dbe bc89 df3c d89a 3ebe 7656 67be
000002f0: b004 92bc 6ab7 7bbe 0203 80be cbf4 193d
00000300: bf1b 88be 77c2 a13e 36c1 8ebe c822 dd3d
00000310: ec76 7cbf ec6c 28bf f710 d43e 0f86 dfbd
00000320: fde2 52be f61b 4fbe b8d4 65be c6d5 1cbe
00000330: c503 3bbd decf 15be 9c41 72be 7c1d 683d
00000340: 95c4 32bd 30fa 183e 2578 45be f616 31be
00000350: bd28 2f3d f6ed 58bd c62c b33d 1d05 253e
00000360: 4167 69bd c1cc a8bd f8c1 0c3e 727e 29be
00000370: c897 513d 6bcb 973b 0b1d 88bd 47d0 b03d
00000380: ca32 f4ba 56d0 cdbd 4884 183d cacd 34bc
00000390: c879 a93d 459f 36bd d114 6dbe c93c f03d
000003a0: c0d7 4fbc 4d8a 01be 1598 cb3d 2a6a 713c
000003b0: 063e 5dbe 476b 863d 46b3 82be 6645 a5bd
000003c0: ca5c 34bd 750d a93b 6a45 16be 17d3 ea3c
000003d0: a05f d83d 7d05 fbbd 6b64 2fbe c312 cc3d
000003e0: 222c f2bd d6ea 1bbc 2adb a93d aa64 75be
000003f0: da4a 2ebc 5002 4dbe 2036 353d a156 59be
-0.06871375 0.03636078 -0.0011318396 -0.22201455 0.022084232 -0.025012271 0.0032829975 0.12569761
0.055081222 -0.036819864 0.046021674 -0.1518004 -0.16106176 -0.0284919 -0.21046372 0.05730002
-0.008001038 -0.1482474 0.059331384 0.05029988 -0.07416815 -0.07063611 -0.09107715 -0.048558395
-0.16075398 -0.011229112 0.012857931 -0.098475836 0.12192196 -0.17292061 -0.21179532 -0.19239599
0.15211545 -0.16026562 -0.2964691 -0.0034236005 -0.13731793 -0.27211982 0.020305522 -0.008968677
-0.15703645 0.0380104 0.00971648 -0.30399132 0.111869246 -0.28465754 -0.04636991 -0.31544787
-0.004387025 0.011762612 -0.088470094 -0.007308161 -0.18093184 0.20726886 0.024688464 -0.17815712
0.013006907 -0.19589311 -0.04675004 -0.23710242 -0.13022874 -0.09101376 -0.14160496 0.07024439
-0.19996011 -0.1354398 0.044043764 0.09659038 -0.0574464 0.00033758333 -0.021697683 -0.1722251
-0.072633974 0.12071791 -0.13273646 -0.24574806 0.16586562 -0.0037392906 -0.22323924 0.12139744
0.018625176 0.04075693 0.0357707 -0.19882683 -0.27356786 0.06684855 -0.019992014 0.043818854
0.012369811 0.18044728 0.04459615 -0.033051547 0.23348509 -0.08891403 -0.4188845 0.40117627
-0.19908814 0.070350185 -0.08970075 0.14974554 -0.22651587 0.13464034 0.08003276 0.034156613
-0.032838456 -0.039766412 -0.022444334 0.12189984 -0.20353577 0.064867444 -0.13177043 -0.2490735
0.03550838 -0.006671403 0.08168378 -0.029718569 -0.08997668 -0.14218307 0.016219817 0.04827854
-0.21144357 -0.08456512 0.05310946 -0.10422945 -0.0014909414 -0.09818353 -0.2745419 -0.046267956
-0.060256183 -0.25372872 -0.23125483 -0.19165269 0.086638 -0.017972257 -0.20944026 0.06348573
-0.26791626 0.028769553 -0.231263 -0.07107933 0.0003109732 0.03969777 -0.17825584 0.12023965
0.112185985 -0.2667166 -0.10807828 -0.19576283 -0.07168214 -0.11245264 0.077900246 -0.19390896
-0.0014608721 -0.09144968 0.060672555 -0.20882475 -0.010648708 -0.25821394 0.11113532 -0.037214562
0.14811741 -0.17440788 -0.017802605 -0.212756 0.11130738 -0.11145761 -0.044736303 0.05029926
-0.03812088 0.1337639 -0.22071934 -0.11867059 0.029339664 -0.05222542 -0.053260893 -0.2088629
0.12037529 0.13756323 -0.17964076 0.007317789 0.20981357 0.020166455 0.18193214 -0.02633829
-0.27563584 0.027287357 -0.18613756 -0.22591576 -0.0178245 -0.24581686 -0.25002295 0.03758697
-0.2658367 0.31593677 -0.27881783 0.107976496 -0.9861896 -0.657912 0.41419193 -0.109142415
-0.20594402 -0.2022551 -0.22444427 -0.15315923 -0.04565789 -0.14630076 -0.2365784 0.056668743
-0.043644506 0.14939189 -0.19284113 -0.17293915 0.04276346 -0.052961312 0.08748774 0.16115232
-0.056983236 -0.08242179 0.13745868 -0.16552141 0.05117014 0.0046324036 -0.066461645 0.08633476
-0.0018630859 -0.100495026 0.03723553 -0.011035392 0.08275181 -0.044585485 -0.23152472 0.11730344
-0.012685716 -0.12650414 0.09941117 0.014734784 -0.21605691 0.0656343 -0.255274 -0.08069877
-0.044033803 0.005159075 -0.14674917 0.028665109 0.10565114 -0.12256906 -0.1712815 0.09964516
-0.11824824 -0.0095164385 0.08293755 -0.23964182 -0.010637963 -0.20020413 0.04424107 -0.21224453

net.0.bias f4 [64]
00000000: b375 b5bc 6a56 0f3e d195 98bd b395 753c
00000010: 308d 863e 0588 17be 300d ed3d 4751 363d
00000020: 69f1 97bd 9116 acbd a52c 37bb 9258 a63b
00000030: 09bd f93d 0063 53ba 8a46 1bbe a980 8e3e
00000040: a13b 453e fde6 a73e f99a 5a3e 86c2 033e
00000050: bd05 38be 9174 3abe dac9 b23b 7b92 50be
00000060: ff46 5abe a214 d03d c9d0 a63d 6b85 54bd
00000070: 7403 73bc 55a6 acbe 11d2 cb3d bd88 3f3c
00000080: a2d9 adbd 6588 0b3d 8b25 ab3d fe68 57be
00000090: aabb 9a3b 7803 50bd 7879 61bd cc9f 9b3e
000000a0: 8214 05be 034e 2cbe b4c5 5ebe 13f0 fdbd
000000b0: 6b5c 02be 6395 79be 0de8 e7bc 5fe5 68be
000000c0: 7b97 b03e 0ad0 0c3d e434 033d c1ef 743e
000000d0: 37e3 5e3d 178d a13d d50f 203e a727 f93e
000000e0: f299 c6bd a95a 0dbe 31ac 13be b3f9 36bc
000000f0: d0df c0bd 54df 073e 7e77 4fbe 75ee 803e
-0.02215085 0.13997808 -0.0745045 0.014989304 0.26279593 -0.14797981 0.11574781 0.044511106
-0.07419092 -0.08402742 -0.0027950194 0.0050764764 0.12194259 -0.00080637634 -0.15163627 0.27832535
0.19261028 0.32793418 0.2134818 0.12867174 -0.17970939 -0.18208529 0.0054561915 -0.20368378
-0.21316145 0.101601854 0.08145291 -0.05188505 -0.014832366 -0.3372065 0.09952176 0.011690316
-0.08488776 0.034065623 0.0835677 -0.21036145 0.0047220783 -0.050784558 -0.055047482 0.30395353
-0.12996104 -0.16826634 -0.21755105 -0.12399306 -0.12730567 -0.24373393 -0.028308893 -0.22743748
0.3449057 0.03437809 0.032032862 0.23919584 0.054415908 0.07888239 0.1563104 0.48663065
-0.096973315 -0.13804115 -0.14421155 -0.011167931 -0.09417689 0.13268787 -0.20260426 0.25181928

net.2.weight f4 [32, 64]
00000000: dbbf 4abd 1049 14be 7c79 2c3c 26cd c6bd
00000010: 7976 0cbe 77d3 d53d 1802 cabc 4022 ce3c
00000020: 5955 aabd 63aa 70bd 2337 d2bd a074 93b8
00000030: 62a7 503d e012 efbd 0eb4 a53c 02fa 003e
00000040: b00d 6c3d afaf 663d 0f5f 44be af6c 53be
00000050: b80e 83bd 1de4 bc3c d049 5d3d 4071 73bb
00000060: 16f1 993d e9d2 32be 5f89 363d ba6a ca3d
00000070: 6af7 9abc bde2 46be a3b3 793d 22ea 9aba
00000080: 9870 ac3c 13ba 2e3d a635 86bb 4ef1 efb9
00000090: 69af f6bd 228c 303d 6f80 b53d 7177 26be
000000a0: 37ae 20be 3c84 3dbe 45b7 a03d 013c 96bd
000000b0: 943b 6ebd b63a 213e 63d2 4bbd 7a18 8f3d
000000c0: 65f4 e2bd ab49 ecbc f5b7 56bd dbba 5f3d
000000d0: f409 cebd f0fe d83b 800f d1bd 7c37 fcbc
000000e0: 8169 23bd 59e3 04be b5c5 0f3d 24aa 15be
000000f0: 9864 fd3c 53af d33d 260c 1ebd 9c86 00be
00000100: db23 82bd c289 353e 75aa 10be 39f1 383e
00000110: 60d3 d13d 22cf 1fbe 7f7f ba3d 2eaa 293d
00000120: 2ffa 0c3e 7578 98be 24d7 833d 3a27 dbbd
00000130: 1ab9 28bd 3075 7e3d 0d08 1bbe 8343 933e
00000140: 06e9 c7ba b028 b2be 5f7b 0cbc 50b2 873c
00000150: b007 45bd 2a05 b9bd 790e 0ebe fc8f 81bd
00000160: d7ca 9dbc 3d04 773b aa70 32be b608 59bd
00000170: 28f3 59be 0c90 0abe fba7 5b3e e3c5 efbc
00000180: d00d f93d c5f4 683b 72eb 833d 0013 1abd
00000190: 5599 19be 91d8 383d 07ec 54bd feb7 e13d
000001a0: e960 97be 90a9 293e 1f6e eabd a27f 813d
000001b0: 2e79 48bd 010a 6f3c 8f2f e5bb 11cf 14bd
000001c0: 35f6 3e3d 8cb8 803c ff3d e83d 927e d7be
000001d0: cf5e 71bd 3300 4a3f d664 533d d0c5 2f3e
000001e0: 1d63 debd 0961 0fbd 4c50 97bc 4789 e83c
000001f0: f923 edbd f325 743d d6b7 fdbe 0462 4dbd
00000200: 44c3 57bc 6464 2fbd 0801 083d 496c cdbd
00000210: 637b 5abd f81f 023d dbf1 a43a 2d41 f03d
00000220: a383 ae3d 95fc b9bd 40c6 27bd bff6 acbc
00000230: 949e 0d3c 26e7 b23d e5be 13be 61ab 11bc
00000240: 0327 41be 9e67 64bc 0ad2 203d 631c 1cbd
00000250: 3cd7 993d cfdf 2abd 8359 5b3d aa94 9dbd
00000260: ec62 ba3c 0069 f6bd 1416 bb3d 5e3e e63d
00000270: 81d2 afbd 7fa6 64bd 682a d43c 87a8 9abd
00000280: 58cc 62bd 37de 9ebc aa51 c3bd 228e 17bd
00000290: 4b87 edbb feae ecbd 8087 d2bc 9b9f b3bc
000002a0: 4ef3 8fbc 7828 27be 3f0e 963d 028b 01bd
000002b0: a786 c23d 3eee d53d 0a60 1dbe f8a1 d6bd
000002c0: 3535 4ebc 9dc1 a13d 7218 f5bc 836a 91bd
000002d0: 81c7 063d 62d0 f23d 7ca6 443d 26c9 903d
000002e0: 1c1f 9d3d 0140 0b3d ca6a 42bd 6dbb 733d
000002f0: 5f38 40bd a867 9abd 6643 23bb 37b6 98bd
00000300: 2f6c 5d3d 6df3 abbc 2413 94bc dbee df3b
00000310: 2591 ca3d 02d9 0a3e d950 fe3d 8a57 063e
00000320: bcf7 31bd 709f 2fbe f4a4 65bd fbbc a83d
00000330: ef46 94bb a0d1 ffbb f2fd b8bd 6a12 403e
00000340: 6974 bb3d de95 afbe ea74 6abd d5dd a73d
00000350: c882 88bc bfa7 6c3c c053 483d 7020 e73d
00000360: e7fd 023d f10a eb3c cbac ebbd 9f12 07bd
00000370: 41ea adbd ba69 90bd 2d3e 4f3e 9890 b5bd
00000380: 58e2 ee3c 9a66 00be abbc a2bd 7c20 863d
00000390: 200c 80b9 a29a cabc 5ca0 273d 1b68 d4bc
000003a0: 84bb f33d 897e debd b6f0 6d3d d4f1 893d
000003b0: a4f0 a9bd af69 a73d 13b8 263d e28f babd
000003c0: faae 373e 2968 8fbd d9d3 943d 79fc babe
000003d0: ec8e ca3d a8d7 113f e5d0 1dba 7dbc 61bd
000003e0: 7069 dc3c 49d5 503e 9d39 6bbd de65 6c3b
000003f0: e52e 32bd dc06 5dbd 726f 36be 8a7a a63c
-0.049499374 -0.14480996 0.010527011 -0.09707098 -0.13717069 0.10440724 -0.024659202 0.025162816
-0.0831706 -0.058756243 -0.10264423 -7.031229e-05 0.05094088 -0.11673522 0.020227458 0.1259537
0.05763024 0.05631989 -0.19176887 -0.20646928 -0.06399292 0.023057992 0.05402547 -0.003714636
0.075166866 -0.17463268 0.0445646 0.09883638 -0.018916804 -0.19422431 0.06096233 -0.0011819045
0.021049783 0.042657923 -0.004095751 -0.00045765418 -0.120451756 0.04310239 0.088623874 -0.16256501
-0.15691458 -0.18507475 0.07847456 -0.073356636 -0.058162287 0.15745053 -0.049761187 0.069870904
-0.11081771 -0.028843721 -0.05242153 0.05462156 -0.10060492 0.006622188 -0.102080345 -0.030788176
-0.03989554 -0.12977351 0.035100657 -0.14615685 0.030931756 0.10336175 -0.038585804 -0.1255135
-0.06354495 0.17728332 -0.14127524 0.18060769 0.10245395 -0.15606359 0.09106349 0.04142206
0.13767312 -0.297794 0.06437519 -0.10700841 -0.04119215 0.062123477 -0.1513979 0.28762445
-0.0015251942 -0.34796667 -0.008574336 0.016564518 -0.048103034 -0.09034188 -0.13872708 -0.06326291
-0.01926176 0.0037691735 -0.1742579 -0.052986823 -0.21284163 -0.13531512 0.21450798 -0.029269164
0.12160838 0.0035546285 0.06441392 -0.037615776 -0.14999898 0.04512841 -0.051982906 0.11021422
-0.29566124 0.16568589 -0.11446785 0.06323172 -0.04894369 0.014589787 -0.006994195 -0.036330286
0.04662152 0.015712999 0.1133995 -0.42088753 -0.058928307 0.78906554 0.051609837 0.17165303
-0.10858748 -0.03500465 -0.018470906 0.028385771 -0.11579127 0.059606504 -0.49554318 -0.050142303
-0.013169114 -0.04282035 0.03320411 -0.100304194 -0.053340327 0.03176877 0.0012584286 0.11731181
0.085212015 -0.09081379 -0.04096055 -0.021113751 0.008643765 0.08735494 -0.14428289 -0.008890958
-0.18862538 -0.01394072 0.03926281 -0.03811301 0.07511756 -0.041717347 0.053552162 -0.07694371
0.022752248 -0.12031746 0.091350704 0.11242364 -0.08585072 -0.055822846 0.025899127 -0.07551675
-0.05537066 -0.01939307 -0.095370606 -0.037000783 -0.007248794 -0.115568146 -0.025699377 -0.021926692
-0.017572071 -0.16324031 0.07326936 -0.03162671 0.09498339 0.10445832 -0.15368667 -0.10480112
-0.012585928 0.07898257 -0.029918883 -0.071003936 0.032905106 0.11856152 0.048010334 0.07069616
0.07671949 0.033996586 -0.047465123 0.059504915 -0.04692876 -0.07539302 -0.0024911999 -0.0745663
0.05405825 -0.020990098 -0.018075533 0.0068338937 0.09890965 0.13559344 0.12417764 0.13119331
-0.04344915 -0.17150664 -0.056065515 0.0823917 -0.0045250575 -0.0078069717 -0.09032811 0.18757024
0.09153063 -0.34294027 -0.057240404 0.08196608 -0.016663924 0.014444291 0.048907995 0.11285484
0.03198042 0.02869174 -0.11507567 -0.032976743 -0.08491946 -0.07051416 0.20238562 -0.0886547
0.029160663 -0.1253914 -0.07946142 0.06549165 -0.00024423096 -0.024731938 0.040924415 -0.025928548
0.11901 -0.108639784 0.058090888 0.06735578 -0.08297852 0.081744544 0.04070289 -0.09109475
0.17937842 -0.07002289 0.07266969 -0.36520746 0.098905414 0.5696969 -0.00060202024 -0.055111397
0.026905745 0.20393862 -0.05742799 0.003607146 -0.043501753 -0.05396162 -0.1781595 0.020322103

net.2.bias f4 [32]
00000000: abd8 b0bb 1ed5 e83e 50a3 ffbd 3b3d ad3e
00000010: 6a51 35bd bba3 1fbd fa58 0ebd 4d30 523e
00000020: 5dee 05be d7fd 5fbc 2415 25bd a310 da3d
00000030: 1cf6 12bc 4395 7f3d bfd6 d8bd 87ed dbbc
00000040: ca78 813d 054a dcbd 962e 623e b7f6 f8bd
00000050: ed99 073d 6dd6 b6bc 234a 8dbc 6026 50bd
00000060: e6ed 03be 045d 31bd f90e 57bd c5b3 d9bd
00000070: f63a fbbd ec6e 80bd dab5 e8bc 6957 01bd
-0.0053969226 0.45475096 -0.12482321 0.33835778 -0.044267096 -0.038974505 -0.034752823 0.20526238
-0.1307921 -0.01367136 -0.040303364 0.106477045 -0.00896981 0.062398206 -0.105878346 -0.02684666
0.06321867 -0.107563056 0.22088084 -0.12156432 0.03310578 -0.022319043 -0.017247265 -0.050817847
-0.1288372 -0.043301597 -0.052504513 -0.106299914 -0.12267105 -0.06271157 -0.028407026 -0.0315775

net.4.weight f4 [1, 32]
00000000: a09c f53b 1f0f 7d3e 3050 7c3b 30d0 5f3e
00000010: c6cf 66bc e259 18be e7f4 aebc abe2 b23d
00000020: c1ad f53d 099a 92bc 831b cfbd 67a8 363d
00000030: fd24 833c bc43 4abe 1d0b 90bc 30c2 89bc
00000040: 080c 763b 736b 7e3d 7d58 9f3d cddb ffbd
00000050: faf9 d0bd bba1 db3b 99d1 e2bc b834 633d
00000060: 3a76 10bd eb9f f5bc 3803 47bd 2eea f43d
00000070: e065 abbb 578c 86bb 9443 f9bd 39c9 9fbb
0.007495478 0.247128 0.0038499944 0.21856761 -0.014087623 -0.14878038 -0.021357013 0.0873464
0.119960316 -0.017895715 -0.10112669 0.044594195 0.016008848 -0.19752401 -0.017583424 -0.016816229
0.0037543792 0.06211419 0.0778055 -0.124930955 -0.10203929 0.0067026294 -0.027687835 0.0554702
-0.035269 -0.029983481 -0.048587054 0.11958729 -0.0052306503 -0.0041060853 -0.12171093 -0.0048762825
