Trading_Model/trading_model_AUDUSD.pth (torch, 16650 bytes, 5 tensors)

net.0.weight f4 [64, 20]
00000000: c7f1 c93e 0de5 093f 6f74 2e3f 8d00 973e
00000010: 13f6 133f 8e13 883e c059 523e 5707 0a3f
00000020: 70a1 8a3e eb36 863e 4e2b d43e b9ce de3e
00000030: eee0 b53e 1cbe 8a3e 8cd5 0e3f 3889 4a3e
00000040: dc0c 783e cbdb f93e 31fc 773e db37 be3e
00000050: e311 85be fb03 983e 9034 bb3e e2cb 0f3e
00000060: ad3c 86bd 7a35 463e 93be 12bc c178 943d
00000070: 6efa 41bd 33ce b73d 1066 df3d bf8e 52bc
00000080: 7dd8 633e df45 553d 7ea4 7f3e bb9d ce3d
00000090: e76a a63e 01e1 803c 1e6d e03c 3b4d f43e
000000a0: 42c9 0bbe 7302 dc3e 3787 f13e ce0a fe3d
000000b0: e7ee ef3e b96e 683e e44e c43d b988 593e
000000c0: da9c 82be 970b ce3e c5dd aa3d 27b0 f13e
000000d0: 8443 863d 172c 05be afbf f83a 84cf 4c3e
000000e0: 1dc1 d73d 49f4 0d3d 6f03 d63e caa3 0e3f
000000f0: d928 efbd 214f 8e3d 26e2 323d 4142 95be
00000100: 647f 4cbd afe8 adbc 5a94 58be 6cb1 6d3d
00000110: 1e30 003e 10c8 ce3c 6390 473d b023 aabd
00000120: 6026 8ebe 5454 973d aa39 c73d 2208 d6bb
00000130: a387 66be ba2b babc c558 51be 21d7 21be
00000140: bf9c ca3e 5ff4 023f f0c0 e03e 168a 0d3f
00000150: d94b d43e 4e1d 0c3f f947 383e 1b9e c83e
00000160: 2181 f23e 7878 b03e 54eb f93e 38d9 ed3e
00000170: 9baa 793e 7d8b fc3e 42ad b93e 1118 fa3e
00000180: e367 3c3e 3d86 023f 06cd 9a3e 0469 833e
00000190: a7d6 1e3f 34ac d83e b2a0 0abe 5690 64bd
000001a0: 2585 8dbd 803e 773e 5e3e 81bd 9df6 14be
000001b0: d4a1 7f3c 651f 773e 2268 c8bc b798 2cbe
000001c0: b34a 383c a2c3 b83e 99ee 4e3e 0d61 d53e
000001d0: c2ab 223e b1e5 a13e a135 343e 519e 063e
000001e0: e845 42bd ecfd b03d c986 2f3e 6063 db3d
000001f0: e5a5 4abe a858 15bd 5bfd cfbd e26f 88bd
00000200: 4695 f8bd 357f a13c a721 bc3d 7ef8 fcbd
00000210: 8896 cabd 508f 05be 9c98 613d de5c 3fbd
00000220: d501 943b 0370 58be dae1 95bd 45dd 213e
00000230: c5ac 71be 0aee a93e 985e 153e 4699 d7bd
00000240: b80a 893e 784b 73bd 634e 183d 49fc a53d
00000250: 23a4 42be 2ab3 413e 5b73 fd3c 4e48 663e
00000260: b8a5 25ba d139 bfbe 94c1 1e3e 2ac0 40be
00000270: 6c98 063e 2e97 10bd 2550 d6bc e21b d03e
00000280: a08b 313f ab9d db3e 0eba 853e 8780 de3e
00000290: 01e9 133f df64 ff3e 6339 113f adff 783e
000002a0: 6680 423f edbe 963e 0936 aa3e 1ff7 dd3e
000002b0: c169 e43e 0c6a 313f 4ce7 303f 553a a83e
000002c0: 39ad 023f ebfb 3e3f 57c1 f53e 7143 b73e
000002d0: 6c19 323d 3d87 943d 0348 0c3f 5087 883e
000002e0: 9ab9 79bd 8eaf 743d 42e7 833e 45b9 073e
000002f0: be44 19bd e33d aebd be16 863e 4552 e13d
00000300: 2065 00bd 97ad 5abe d8f4 383e 8a14 91bd
00000310: a864 ae3e 0c94 14be 6fa4 de3e 80db 673e
00000320: fbf0 abbd 749c 283e a28b 313e 3514 e73d
00000330: 176a 0c3d 85b3 fcbc 38be c6bc 6fba 723d
00000340: b074 ccbe 7de5 2d3e a4b5 d1bd 076f e5bc
00000350: b5f6 30bd 7db9 d9be 415a 67be 0f0d a2bd
00000360: cc2e d13c ba7a db3c 654c 07bc 5c17 403e
00000370: 85ac a0bd 8542 cdbb 8ba6 163e aec4 2b3e
00000380: bf20 b03d ce05 bcbc 72d3 053e 743b 44bd
00000390: c5f0 b1be faf0 7fbd f6b1 5b3e 2913 d43d
000003a0: f2c1 4a3d 66d5 eabe 07af 96be c021 a1be
000003b0: 0783 6ebe 810f efbd edd5 37be 6a9a d73e
000003c0: de29 ca3e 7f9b bc3e 4b1a ae3e ea25 7c3e
000003d0: ecdd c73e 7289 ed3e b193 973e 457b 353e
000003e0: 4314 4d3e a702 953e 9034 103e e8d3 ca3d
000003f0: 6af0 f83e 0c70 7f3e b6d2 ab3e 74e1 de3e
0.39442274 0.5386513 0.68146414 0.29492608 0.57797354 0.2657742 0.2054205 0.5391745
0.27076292 0.26213774 0.4143929 0.43517092 0.3552317 0.27098167 0.55794597 0.19778907
0.24223655 0.488005 0.24217297 0.3715199 -0.2599021 0.29690537 0.3656354 0.14042619
-0.06554542 0.19356337 -0.008956569 0.072495945 -0.04735797 0.08974876 0.10908139 -0.012851416
0.22250552 0.052068587 0.24965093 0.100886784 0.32503435 0.01573229 0.027395781 0.47715172
-0.13650993 0.4297062 0.47173473 0.124044046 0.46861956 0.22698487 0.0958536 0.21243562
-0.25510293 0.40243217 0.083430804 0.47204706 0.06555846 -0.130051 0.0018978025 0.20001036
0.1053488 0.034656797 0.41799495 0.5571867 -0.11677713 0.069486864 0.043672703 -0.2915211
-0.049926177 -0.021229116 -0.21150342 0.05803053 0.12518355 0.025241882 0.048721682 -0.08307588
-0.27763653 0.07389131 0.097277954 -0.006531731 -0.22512679 -0.022725929 -0.20444019 -0.15804721
0.39572713 0.5115413 0.438972 0.5528883 0.41464117 0.54732215 0.17996205 0.39183125
0.47364143 0.3446691 0.48812354 0.46454787 0.24381487 0.4932517 0.36264998 0.48846486
0.18399005 0.5098608 0.30234545 0.25666058 0.62046283 0.4231888 -0.13537863 -0.055801712
-0.06910161 0.24144936 -0.06310724 -0.145472 0.015602548 0.2413307 -0.024463717 -0.16855131
0.011248278 0.36086756 0.20208205 0.41675606 0.15885833 0.31620553 0.17598583 0.1314633
-0.04742995 0.08642182 0.1714126 0.10712314 -0.19789846 -0.036461502 -0.101557456 -0.06661965
-0.12137847 0.019713977 0.09186106 -0.123520836 -0.09891993 -0.1304295 0.05507718 -0.046719424
0.00451682 -0.21136479 -0.073184684 0.15807064 -0.23601063 0.33189422 0.14586866 -0.105272815
0.2676599 -0.059398144 0.03718413 0.0810476 -0.19007926 0.18916002 0.030938795 0.2248852
-0.00063189445 -0.37348798 0.15503532 -0.18823305 0.13144082 -0.035300426 -0.026161263 0.40646273
0.69353676 0.4289373 0.2611851 0.43457434 0.5777741 0.49881646 0.5672819 0.24316283
0.7597717 0.2944254 0.3324435 0.433526 0.44611934 0.6930244 0.6910293 0.32857004
0.51045567 0.74603146 0.4799907 0.3579364 0.043481275 0.07252357 0.5479738 0.26665735
-0.06096802 0.059737734 0.25762373 0.13254268 -0.037419073 -0.08507898 0.26189226 0.1100202
-0.03134644 -0.21355282 0.1806215 -0.07083996 0.3406117 -0.145096 0.43484828 0.22642326
-0.08395573 0.16465932 0.17338422 0.11283151 0.034280863 -0.03084732 -0.024260625 0.05925983
-0.39932775 0.16982074 -0.10239723 -0.028007044 -0.04320403 -0.4252433 -0.22593023 -0.07912647
0.02553501 0.026791919 -0.00825796 0.18758911 -0.078454055 -0.0062640333 0.14711969 0.16774246
0.08599996 -0.022951987 0.13068941 -0.04790826 -0.34754005 -0.062485673 0.21454605 0.10355217
0.049501367 -0.45865935 -0.2943041 -0.31471062 -0.2329217 -0.11672879 -0.179527 0.42109996
0.39485067 0.36837384 0.34004435 0.24623838 0.390365 0.46393925 0.29604867 0.17722805
0.2002726 0.29103586 0.14082551 0.09903699 0.4862092 0.24945086 0.33559197 0.43531382

net.0.bias f4 [64]
00000000: 5b00 ae3e f8f2 5c3d e36f c63e b21a 283d
00000010: f6a9 103f 1925 813f bcd2 04be 2f74 113f
00000020: 2ce3 c53e f634 d93d e255 2e3f 1487 fe3e
00000030: a845 013f 4029 2ebd 7fd2 c53e 10c6 a63e
00000040: bde4 1a3e 3375 5ebe 8c21 233f f669 d73e
00000050: 7b72 b83e 1b57 01bd 76c0 383e 9b8c 113f
00000060: 7c39 743f 19f9 cd3e 1cc3 803f 1589 6f3f
00000070: a912 0fbe 7e55 bb3c 87ed b33e 641a efbd
00000080: 0e0b eb3e 9aca 013e 6db7 1f3e d09b 3fbe
00000090: 0388 66bd abf5 2dbe 7531 f13e aff9 8abd
000000a0: 4a7d afbd 4bff 5d3e 6c01 8a3d 8316 313f
000000b0: 410a 853e 63fb 963e e8aa 7c3e 4d6e 1c3d
000000c0: 4f22 27bd 1bdb 293f 1f00 0d3f 42fc 7bbc
000000d0: 4b1b cabd 1caa 9d3e 377a be3e 23dd 813e
000000e0: 3187 643e 9daa c33e df3c ac3d 3b27 023f
000000f0: c0c9 373c b09b 053f 6e85 7b3e 12c5 b23e
0.33984646 0.05394265 0.38757238 0.041041084 0.5650934 1.0089446 -0.12971014 0.5681791
0.3864988 0.106058046 0.68099797 0.4971243 0.5049691 -0.042519808 0.38637158 0.32572985
0.15126319 -0.21724395 0.63723063 0.4207303 0.36024842 -0.03157721 0.18042168 0.5685517
0.95400214 0.4022911 1.0059543 0.93568546 -0.13971962 0.022867914 0.35142156 -0.116749555
0.45906872 0.12674943 0.15597315 -0.18711782 -0.056282055 -0.16988246 0.47108045 -0.067859046
-0.08568819 0.21679418 0.067385525 0.69174975 0.25984386 0.29488668 0.2467457 0.03819113
-0.040804204 0.66349953 0.5507831 -0.015379967 -0.09868487 0.30793846 0.37202618 0.25364026
0.22317196 0.38216105 0.08410048 0.5084111 0.011217535 0.52190685 0.24562618 0.34915978

net.2.weight f4 [32, 64]
00000000: f03c 00bd af14 0fbd d98a 453e e612 e53c
00000010: 1fb4 f6bd a6f4 0bbd aeb1 a8bd 00ca ae3d
00000020: 6e64 693d 1324 b3bd b88e 4dbd f146 bfbd
00000030: df9c 84bb 7506 92bd 95a8 47bd 3541 b7bd
00000040: 26a0 54bd a00e b8bd 81dc d2bd 8742 a43d
00000050: 9c96 f4bd 38c1 77bb ec3b 0abe 45bf 99bd
00000060: 1ec0 31bd 0a98 683d a039 a73c 2015 f0bd
00000070: 2417 f6bd 29e8 18bd da16 4e3d 181f f6bc
00000080: 4a21 8c3d 1d6c dabd 2899 c13d 8602 853d
00000090: 0371 04bd b3d8 c03d 0815 23be 8c14 d1bc
000000a0: 5047 463c c531 39be 2f2a 273d 21cb fcbd
000000b0: baba 93bc 3037 2a3d e5a5 f5bd 8c43 813d
000000c0: 0ec1 963d cc37 e4bc d494 06bd 83dc 723d
000000d0: f433 e8bd 360c c0bd 9260 f0bc 50af 1cbe
000000e0: 47a2 43bd e9f8 e63d 18a0 adbc fc76 a9bd
000000f0: bc68 81bd 8178 583c e7a1 fabd 8ef0 cb3c
00000100: c28b ffbd d599 1bbd 4fd9 c6bd 6c16 e1bd
00000110: bee9 8b3d 6dc2 e8bd 3094 cebd 682d 353d
00000120: 8562 22bd e34c 02be 726a a5bd 626f 18bd
00000130: 480b 65bc 17bd cd3d 00e5 c2bd ad4e c2bd
00000140: cc1d 563d 7ea1 e3bd 782e 543d 28ed 52bd
00000150: 606a 4bbd 4b2c 58bc b21d cc3c 9fa0 2c39
00000160: 80e3 d6bd 1362 bd3c 667e b53c db87 8abd
00000170: 9e48 a3bd 7fe5 8e3d 07b4 1a3c dec8 85bd
00000180: 8e23 723b e2af 46bd 9f0f bf3b b0fc 8f3c
00000190: 3abf b3bd b4f2 3ebd 7d94 993d 4946 373b
000001a0: 1210 9c3d 9c95 31bd 2a12 473c 0f65 393d
000001b0: 2b69 29bd 6ffd febc 1a6d 253d 78e0 b5bd
000001c0: b063 2dbc 5230 8b3d ffd2 ebbc 04eb ae3d
000001d0: 81c6 333d c7f2 7fbd 1098 873d dbae 4e3d
000001e0: 3c22 d23d 8da0 8cbd 3579 1e3c 55bc f0bd
000001f0: 60d6 163c 7eb4 38bd a0a4 09bd 2aa6 fbbd
00000200: 118e 99bd db7d 6cbe 0871 323e 6c8c acbd
00000210: 7b59 a4bd acb9 85be 4ecf babc 7473 8e3d
00000220: 2c90 e43d c5c1 6fbe 257d d43c d76a c33c
00000230: b21f 45bd f109 4cbd 8068 153e 96e7 9e3c
00000240: c621 623d 82d5 9d3d 5f80 b63d bec4 debc
00000250: 4872 bebd a0af 1c3d d151 083d 58df e83a
00000260: 82ea b7bd 3bba c4bd 96b1 203d 3bdf ddbd
00000270: 876a 873d cc67 ec3d 992c 19be ac27 16bd
00000280: 4232 40bc e648 4c3d b71d aabe 1099 933c
00000290: f6ee 5c3c f048 c23d 4737 0ebd fa67 db3c
000002a0: 00fa 9bbc 8a16 c4bb 36c3 bcbd 9888 9ebe
000002b0: b62c 48be 3aae 423d 3328 2a3e b862 ffbd
000002c0: d8bf c2bd 1302 f73c 3d97 e63d 6ff0 3fbd
000002d0: 251d 7e3d 6621 983e b38e 85be 281f 0e3e
000002e0: 3ee0 ae3d 03bc 04be 0f17 9bbd 5b79 98bd
000002f0: dc3e 86bd 450e 18be 879f b3be fbd5 fd39
00000300: 7c5b 09be ae05 01bf a107 84be c0f9 0c3e
00000310: 69b3 b93d 819e 8abe b601 ab3c 3fb8 3ebd
00000320: 6957 193e 2fa4 0dbf 5632 72bd 77a4 4fbd
00000330: 5102 0bbe 4863 933b 5fd3 473e c6d5 9dbb
00000340: 00f1 8dbd 582c cf3c 7755 12bd 58db 0abe
00000350: f37b e43c ec8f 7b3d c6d1 313d 0eca 1abe
00000360: 8451 14bd 2cc0 14be bd4c 493e 7ec2 06bd
00000370: 55e8 9b3d 341d 9cbd 8497 aebb 9073 7f3c
00000380: 251a 873d 5e77 533c a10d cfbe 1a60 8d3d
00000390: 4f16 00be 9969 d83d a033 fc3d 3d3f 273c
000003a0: e651 ae3d bfbf 013e 28b7 09bd a864 23be
000003b0: 6717 debe 11cd f23c 2bac a33c eaec 67bb
000003c0: 7cab 6dbd eb4b 45be 12ad b13d ea84 54bc
000003d0: b6f5 91bc 0dfc 923d 813e 6ebc 27ad f83d
000003e0: 4aab 8d3d 1ea2 9fbd a9b7 233e adc9 483d
000003f0: fe67 e1bd 24f8 a1be 00f7 66bd ab2b 6dbd
-0.031308115 -0.034931835 0.19291247 0.027963113 -0.12046074 -0.03416886 -0.08237015 0.08534622
0.056980543 -0.08747115 -0.050184935 -0.09339703 -0.004047021 -0.07130138 -0.048744757 -0.08947984
-0.051910542 -0.089871645 -0.10295964 0.080205016 -0.11942789 -0.0037804376 -0.13499421 -0.07507185
-0.043396108 0.05678562 0.02041322 -0.11722779 -0.120161325 -0.03733078 0.05031476 -0.030044124
0.06842287 -0.10665152 0.0945304 0.06494622 -0.03233434 0.09416332 -0.15925992 -0.025522493
0.012101963 -0.18085392 0.040811714 -0.12343431 -0.018033374 0.041556537 -0.119945325 0.06311712
0.07361041 -0.027858637 -0.032856777 0.059292328 -0.11338034 -0.09377329 -0.029342923 -0.15301251
-0.04776218 0.112779446 -0.021194503 -0.082746476 -0.063188046 0.013212324 -0.12237912 0.024894979
-0.124778286 -0.037988503 -0.09709417 -0.10990605 0.06831692 -0.11365209 -0.10086858 0.044232756
-0.039644737 -0.12724642 -0.080769435 -0.037215598 -0.01397974 0.10045832 -0.095163345 -0.094876625
0.05227451 -0.111147866 0.05180213 -0.0514957 -0.049661994 -0.013194154 0.024916504 0.00016463034
-0.10492611 0.023118054 0.022154998 -0.067641936 -0.07972835 0.06977367 0.009442336 -0.06532453
0.0036947462 -0.04850758 0.0058307196 0.017576545 -0.08776708 -0.04661818 0.07499025 0.0027965477
0.07620253 -0.04335557 0.012150327 0.045262393 -0.04136006 -0.031126706 0.04038725 -0.08880705
-0.010582849 0.06796326 -0.028787134 0.085409194 0.04389048 -0.06248739 0.066208005 0.050459724
0.10260436 -0.0686656 0.009672453 -0.117546715 0.009206384 -0.045094006 -0.033604264 -0.12287553
-0.074978 -0.23094885 0.1742593 -0.08425221 -0.080248795 -0.2611822 -0.022803929 0.06955615
0.11160311 -0.23413761 0.02593858 0.023854656 -0.04812593 -0.04981417 0.14590645 0.019397538
0.05520799 0.07706739 0.089112036 -0.027193423 -0.09299141 0.038253427 0.03328115 0.0017766757
-0.08980276 -0.09605833 0.03923186 -0.108335935 0.06612115 0.11543235 -0.14958419 -0.036658928
-0.011730732 0.04987421 -0.33225796 0.018017322 0.013484707 0.09486568 -0.034720685 0.026782978
-0.019040108 -0.005984132 -0.09216921 -0.30963588 -0.19548306 0.047529437 0.16616897 -0.12470001
-0.095092475 0.030152356 0.11259315 -0.046860155 0.062039513 0.2971298 -0.26085433 0.13879073
0.085388646 -0.12962346 -0.075727575 -0.07445022 -0.06554958 -0.14849193 -0.35082647 0.00048415348
-0.13413805 -0.5039929 -0.2578707 0.13767147 0.09067423 -0.27074054 0.02087484 -0.04656243
0.1497475 -0.5532865 -0.059130035 -0.050693955 -0.13575102 0.004497919 0.19514225 -0.0048167435
-0.06930733 0.0252897 -0.035726037 -0.13560236 0.027891135 0.06141655 0.043412946 -0.1511614
-0.03621055 -0.14526433 0.1965818 -0.032900326 0.07612673 -0.076227576 -0.0053281207 0.015591517
0.065967835 0.012906877 -0.40440086 0.069030955 -0.1250851 0.10567016 0.12314534 0.010207948
0.08511715 0.12670802 -0.033621937 -0.15956366 -0.4337723 0.029638799 0.019979557 -0.0035389015
-0.05802487 -0.19267242 0.08675589 -0.012971142 -0.01781736 0.07176981 -0.014541269 0.12142401
0.069174364 -0.07794593 0.1598803 0.049020458 -0.11006163 -0.3163463 -0.0563879 -0.057902973

net.2.bias f4 [32]
00000000: b0be ab3d 9816 3dbd 3254 9bbe dff6 65be
00000010: fa34 64ba d06e cebd b055 b23d 33ba d5bd
00000020: de22 18be 6c25 54bd a5cf 463d b05f 0dbd
00000030: face 13bd 22f3 513c bb0f 01bf 4b3b 5dbd
00000040: 6e4b eebd 09d1 be3e ed3d 86bd a1c4 4ebe
00000050: 0672 a93d 54b9 9b3c 6d7d 9b3d 836b d2bd
00000060: 84bf 6fbd b950 073d c473 14be a9da 35bf
00000070: 0b75 86bc 8cc6 39bc ac29 0cbe 0006 2f3c
0.0838598 -0.046164125 -0.30337673 -0.22457455 -0.0008705404 -0.100797296 0.0870775 -0.10435905
-0.14857051 -0.0517935 0.04853787 -0.034515083 -0.03608606 0.012814315 -0.5041463 -0.054011624
-0.11635481 0.37268856 -0.0655478 -0.20192195 0.08273701 0.01900927 0.075922824 -0.102744125
-0.058532253 0.033035967 -0.14497286 -0.71036774 -0.016413232 -0.011338841 -0.13687772 0.010682583

net.4.weight f4 [1, 32]
00000000: 5372 8a3d 9241 05be f3bd fcbe 3ae5 fbbe
00000010: 5850 dbbd 67b0 103d ceec ddbd c554 50bd
00000020: a406 753c 50b8 bcbc 05ee 58bc 7d9a 56bb
00000030: 065d 25be c787 9abd cf4f 26bf b7b6 08bd
00000040: 3afa e73d 437f 063e 3500 c9bb a635 233d
00000050: 46a8 3fbc b6d9 9ebd bd35 8bbc 9075 c03c
00000060: 8ff2 c0bd 28b2 383d cd82 a23b ef13 29bf
00000070: 64e7 14bd d97d 0c3e 475f 303d 348d 85bc
0.06760087 -0.13013294 -0.4936367 -0.49198323 -0.10708684 0.03532448 -0.108361825 -0.050862093
0.0149551965 -0.023037106 -0.013240342 -0.003274589 -0.16148767 -0.07545429 -0.6496553 -0.033377375
0.11327024 0.13134484 -0.006134058 0.039846085 -0.011697834 -0.07756369 -0.016993398 0.023493558
-0.094212644 0.045091778 0.0049594403 -0.6604604 -0.036353484 0.13719882 0.043059614 -0.016302682
