Trading_Model/trading_model_GBPAUD.pth (torch, 16650 bytes, 5 tensors)

net.0.weight f4 [64, 20]
0	0xbe24fc3c	-0.16111845
1	0x3e08903a	0.13336268
2	0x3daccba2	0.084372774
3	0xbdbffe16	-0.09374635
4	0x3c845172	0.016152117
5	0xbdcbee8c	-0.099576086
6	0xbb928117	-0.004470955
7	0xbe464582	-0.19362453
8	0x3e3626cb	0.17788236
9	0xbe2d8d80	-0.16948509
10	0x3d968e79	0.07351393
11	0xbe622bac	-0.22086972
12	0xbe365ce5	-0.17808874
13	0xbe2cae45	-0.16863354
14	0x3c11f648	0.008908816
15	0xbb6bb88a	-0.0035968148
16	0xbe8402d0	-0.25783396
17	0xbaebe5d9	-0.0017997577
18	0x3db39c96	0.08770101
19	0xbe5804ac	-0.21095532
20	0xbe908e83	-0.28233728
21	0x3ddce69b	0.10786172
22	0xbe51f2b8	-0.20502746
23	0xbe71c795	-0.23611291
24	0x3dfc9c33	0.1233448
25	0xbd4decb4	-0.050274566
26	0xbc3bd071	-0.0114632705
27	0xbcdd942d	-0.027048195
28	0xbe3f9de9	-0.18712582
29	0xbcc6acda	-0.024252344
30	0xbe84fcf3	-0.25974235
31	0xbe237307	-0.15961848
32	0xbe8871f0	-0.26649427
33	0xbe8df5bf	-0.27726552
34	0xbe744248	-0.2385341
35	0xbce3ad70	-0.027792662
36	0x3d31ff31	0.04345626
37	0xbe1b1854	-0.15145999
38	0xbe4e7f67	-0.20165788
39	0x3c53fd93	0.012938875
40	0xbd8bdcac	-0.06829199
41	0xbe41b25f	-0.189157
42	0xbe0ec071	-0.13940598
43	0x3e453c46	0.19261274
44	0xbc928e6c	-0.017890178
45	0x3c769aeb	0.015051584
46	0xbe5d5896	-0.21615824
47	0x3e39261f	0.18080948
48	0x3d06edf6	0.03294178
49	0xbe442080	-0.19153023
50	0x3db3fca7	0.08788424
51	0x3e2c0934	0.16800386
52	0xbe5dd195	-0.2166198
53	0xbe5779fa	-0.21042624
54	0xbdba7d8c	-0.091059774
55	0xbd36e8f4	-0.044655755
56	0xb8949225	-7.0844115e-05
57	0x3e0a371e	0.13497588
58	0xbe2807ef	-0.16409276
59	0x3e17a83b	0.14810269
60	0xbdacdbe5	-0.08440379
61	0xbdec7452	-0.11545624
62	0xbe55bd63	-0.20873027
63	0x3de14c1e	0.11000846
64	0x3db3283e	0.0874791
65	0xbe10f004	-0.14154059
66	0x3e1b6a95	0.15177377
67	0xbcd2eae0	-0.025746763
68	0xbd2ed529	-0.042683754
69	0xbe1d3216	-0.15351138
70	0x3dcf6c4d	0.101280786
71	0xbe5f581c	-0.21810955
72	0xbe173da6	-0.14769611
73	0xbe5ef102	-0.21771625
74	0x3d8773e9	0.06613905
75	0xbdc2b3d3	-0.09506955
76	0xbe3a2e1f	-0.18181656
77	0xbe52152b	-0.20515887
78	0x3e142eb8	0.14470947
79	0xbdbab2a4	-0.09116104
80	0x3dbd5f9f	0.09246754
81	0x3df4efe2	0.119598165
82	0xbb949565	-0.004534411
83	0x3d8cf452	0.06882538
84	0xbd27ed95	-0.04099806
85	0x3cc97f45	0.02459682
86	0xbe6a3687	-0.22872363
87	0xbe0db393	-0.13838033
88	0xbe4f99bb	-0.20273487
89	0x3d010c48	0.031505853
90	0x3e182b10	0.14860177
91	0x3deab785	0.11460785
92	0xbe015054	-0.12628299
93	0xbcd16e26	-0.025565218
94	0xbe390a0f	-0.18070243
95	0xbdb3a171	-0.08771027
96	0xbe8aa3f3	-0.27078208
97	0xbb9aaa04	-0.0047199745
98	0xbe7797d3	-0.2417901
99	0x3d19b370	0.03752464
100	0x3d8b804c	0.0681158
101	0x3cfc71c8	0.030815974
102	0x3b30efeb	0.002699847
103	0x3e2694db	0.16267721
104	0xbd4c9c35	-0.049953658
105	0x3dcf0f7f	0.101103775
106	0xbcf38e43	-0.029730922
107	0x3e1d5a46	0.15366468
108	0xbd877b84	-0.066153556
109	0xbc8059c5	-0.015667805
110	0xbde42829	-0.111404724
111	0x3ba60601	0.0050666337
112	0xbe6dcb19	-0.23222007
113	0xbd33ef5e	-0.04392945
114	0x3e1c26dc	0.15249199
115	0xbde5f297	-0.11227911
116	0xbe3b25e4	-0.18276173
117	0x3e33557b	0.17513077
118	0xbe5e75a4	-0.21724564
119	0xbe5116b5	-0.20418818
120	0x3c757a3c	0.014982756
121	0xbb1a8416	-0.0023577265
122	0xbb916921	-0.004437581
123	0xbda961b2	-0.08270587
124	0xbe45ab3b	-0.193036
125	0xbe5b8a9d	-0.21439596
126	0x3e273bd7	0.16331421
127	0xbce68acd	-0.028142357
128	0xbd3ec2ec	-0.04657261
129	0x3e4595f2	0.19295481
130	0xbd5c4da9	-0.053785
131	0xbd7acd78	-0.061231107
132	0x3e403e2e	0.1877372
133	0xbba382eb	-0.004989972
134	0xbea80eb6	-0.32823724
135	0x3ea3e78d	0.32012597
136	0xbe5ca6ab	-0.21547954
137	0xbccfe9d0	-0.025380045
138	0xbde08f7a	-0.10964866
139	0x3dece4c7	0.11567073
140	0xbe1402b0	-0.1445415
141	0x3db76c6b	0.08956226
142	0xbe5a9407	-0.2134553
143	0xbd02010d	-0.031739283
144	0x3dd57fb0	0.10424745
145	0xbd210749	-0.03931359
146	0x3cf8b5d5	0.030360142
147	0xbd6700d3	-0.05639727
148	0x3d885312	0.066564694
149	0xbe18271a	-0.14858666
150	0x3da808a4	0.08204773
151	0xbdf9c9c2	-0.121966854
152	0x3cf61729	0.03004034
153	0xbdefbc97	-0.117058925
154	0xbb9c6ed7	-0.0047739553
155	0xbd4b72f1	-0.049670164
156	0x3d1bc8bf	0.038033243
157	0x3bbb9529	0.0057245684
158	0xbe66d221	-0.22541095
159	0x3e30e7a3	0.17275862
160	0xbe213861	-0.15744163
161	0x3d20aa7f	0.039225098
162	0xbb66afb4	-0.0035199942
163	0xbdf61306	-0.12015347
164	0xba24748e	-0.00062734715
165	0x3e1c770d	0.1527979
166	0x3e01a4b3	0.12660484
167	0xbe95a043	-0.29223832
168	0xbe80aec7	-0.25133345
169	0x3d96e307	0.07367521
170	0xbe18e3da	-0.14930668
171	0xbe2f6bae	-0.1713092
172	0x3d93b36c	0.072119564
173	0xbdb8c6ae	-0.0902227
174	0x3d336baf	0.043803867
175	0xbe260853	-0.16214113
176	0x3e0c42fd	0.13697429
177	0x3e421b90	0.18955827
178	0xbe23b41a	-0.15986672
179	0x3d589ac9	0.05288199
180	0xbd595e00	-0.05306816
181	0xbd94a135	-0.0725731
182	0xbdff1ce8	-0.12456685
183	0x3d69ff8d	0.057128478
184	0xbdaf30a0	-0.08554196
185	0x3e06c159	0.13159694
186	0x3ded6d8a	0.115931585
187	0xbdbba2a4	-0.091618806
188	0x3dc1444f	0.09436857
189	0x3d384871	0.04499096
190	0xbe4c97f5	-0.19979842
191	0x3df7b01a	0.120941356
192	0xbd632cb6	-0.05546256
193	0xbe49891e	-0.19681212
194	0xbe19fd72	-0.15038088
195	0x3ddaeeaf	0.106900565
196	0xbe5a8725	-0.21340616
197	0x3df1288a	0.1177531
198	0xbde69851	-0.11259521
199	0xbe5294fe	-0.20564649
200	0xbce44ea4	-0.02786953
201	0x3e15ad92	0.14616993
202	0xbe9407f5	-0.2891232
203	0xbd85a44e	-0.06525479
204	0x3dd50ec1	0.10403205
205	0xbe283255	-0.1642545
206	0x3d7a6236	0.061128817
207	0x3c6c0aad	0.014406842
208	0xbe0193ab	-0.12653987
209	0x3e130847	0.14358626
210	0xbe610e76	-0.21978173
211	0x3d5a8393	0.053348135
212	0x3e338d5a	0.1753439
213	0xbdd614c1	-0.10453177
214	0x3df72545	0.120676555
215	0xbe55c198	-0.20874631
216	0xbcb85dcf	-0.022505669
217	0xbe5e0e90	-0.21685243
218	0xbe83118b	-0.25599322
219	0xbd16a44c	-0.03677778
220	0xbe4c40a1	-0.19946529
221	0x3c99156c	0.018686973
222	0xbd5d6fc8	-0.05406168
223	0x3d662de7	0.05619612
224	0xbdfe9142	-0.124300495
225	0x3e1214f5	0.14265807
226	0xbe0a9040	-0.1353159
227	0xbd1d2784	-0.038367763
228	0xbe8ed81a	-0.27899247
229	0x3d02482f	0.03180712
230	0xbdaef075	-0.08541957
231	0xbcbf42c8	-0.023347273
232	0xbe413c64	-0.18870693
233	0x3d6fa341	0.0585053
234	0xbdc172c0	-0.09445715
235	0xbe52a467	-0.20570527
236	0xbe8c9305	-0.27455917
237	0xbda19cc3	-0.07891228
238	0x3c446cf9	0.011988872
239	0x3dca60b9	0.0988173
240	0xba89ae82	-0.0010504278
241	0x3dbe7e8d	0.093014814
242	0x3da8a1b0	0.082339644
243	0x3e07ff75	0.13281043
244	0xbe34a460	-0.17640829
245	0xbe83529b	-0.2564896
246	0xbe5dee5e	-0.21672961
247	0x3d3d761e	0.046255223
248	0xbee05301	-0.43813327
249	0xbe2fa92f	-0.17154382
250	0x3d803d86	0.06261735
251	0x3e3de3ad	0.18543883
252	0x3e7b6a23	0.24552207
253	0x3c5ba416	0.01340582
254	0xbd7c0cba	-0.061535574
255	0x3edc1cae	0.4299063

net.0.bias f4 [64]
0	0xbe318919	-0.17337455
1	0x3d3458a4	0.044029847
2	0xbe21dd2c	-0.15807027
3	0x3d457cea	0.04821483
4	0xbdc167bd	-0.09443615
5	0xbe811442	-0.25210768
6	0x3eba7b81	0.3642235
7	0xbe418890	-0.1889975
8	0xbe739d61	-0.23790504
9	0xbdcc203d	-0.099670865
10	0xbe5cf203	-0.21576695
11	0xbc451da5	-0.012030994
12	0xbd5e00d6	-0.054200016
13	0xbe273d99	-0.16332091
14	0xbe736d6d	-0.23772211
15	0x3dc70704	0.09718135
16	0xbe020ced	-0.12700243
17	0xbc805712	-0.015666518
18	0xbdffc6d3	-0.124890946
19	0x3eb2924f	0.3487725
20	0xbef46d1a	-0.47739488
21	0xbdcc6243	-0.099796794
22	0xbe6c6ee0	-0.2308917
23	0xbc7c7e4e	-0.015410973
24	0xbbe168e1	-0.0068789576
25	0xbdcedae4	-0.10100344
26	0x3bbb4312	0.0057147825
27	0x3cac6aed	0.02104708
28	0x3d9ee07b	0.0775766
29	0xbd72526d	-0.05916064
30	0xbe1dabd1	-0.15397574
31	0x3d5c2253	0.05374367
32	0xbe433be8	-0.19065821
33	0x3dd240ba	0.10266252
34	0xbdfa7119	-0.12228603
35	0x3d4a6f20	0.049422383
36	0xbd8f7552	-0.07004799
37	0xbe2b670e	-0.16738531
38	0xbdf03b00	-0.11730003
39	0x3e181600	0.14852142
40	0xbd7fb40f	-0.062427577
41	0xbe1369a1	-0.14395763
42	0x3d9a94e4	0.0754793
43	0x3e20a1b9	0.15686692
44	0xbdf96ffd	-0.12179563
45	0x3d6ea441	0.058262113
46	0xbe802b7d	-0.2503318
47	0xbe61fe06	-0.22069559
48	0xbe321a24	-0.17392784
49	0xbdbfdc4e	-0.09368192
50	0xbe810481	-0.2519875
51	0xbdbe410e	-0.09289752
52	0x3da404b4	0.080087095
53	0xbd9e89ac	-0.077411026
54	0x3d93f77e	0.0722494
55	0xbe339fd4	-0.17541438
56	0x3d98e13d	0.07464836
57	0xbe690b68	-0.22758257
58	0xbe719e13	-0.23595457
59	0x3dde7fd3	0.10864224
60	0xbe77c5b3	-0.2419651
61	0xbe1843d7	-0.14869629
62	0x3dd8d568	0.10587579
63	0x3d281fff	0.04104614

net.2.weight f4 [32, 64]
0	0xbcb107ef	-0.021610228
1	0x3dd1421f	0.1021769
2	0xbdd5137e	-0.104041085
3	0xbd65314d	-0.05595522
4	0x3c3b38e4	0.011427138
5	0x3dd59f9a	0.10430832
6	0xbc7c34bf	-0.015393435
7	0xbd318746	-0.043341897
8	0xbcb9ecd6	-0.02269594
9	0x3be0e882	0.0068636546
10	0x3d3348be	0.043770544
11	0xbce3f87d	-0.02782845
12	0x3c2448a0	0.010027081
13	0x3d1198f7	0.03554627
14	0x3d8a6547	0.06757598
15	0xbbd557db	-0.0065107173
16	0xbcab0933	-0.02087841
17	0xbd9c223c	-0.07623717
18	0xba2bfe39	-0.00065610145
19	0xbd29070b	-0.041266482
20	0x3ddfcd45	0.10927824
21	0x3da8c7b6	0.08241217
22	0x3da11ae2	0.078664556
23	0x3d8fd815	0.07023636
24	0x3d01a29a	0.03164921
25	0xbe190e53	-0.1494687
26	0x3dd28830	0.10279882
27	0x3d6b695c	0.057473525
28	0xbd11b8b0	-0.035576522
29	0xbd244e3d	-0.040113676
30	0x3e0a41ba	0.13501635
31	0x3d927ca8	0.071526825
32	0x3b4d9e00	0.0031374693
33	0x3d0f39aa	0.034967102
34	0x3d945818	0.07243365
35	0xbde49585	-0.11161331
36	0x3d9e9a28	0.07744247
37	0x3d8778c8	0.06614834
38	0xbd53b1cf	-0.051683243
39	0x3db5b47d	0.08872316
40	0xbde164e5	-0.11005572
41	0xbe3bf64e	-0.18355677
42	0xbbbd5c6c	-0.00577884
43	0xbe0c321c	-0.1369099
44	0x3d91d24c	0.07120189
45	0xbdaad584	-0.08341506
46	0x3d8d872e	0.06910549
47	0x3b46c88f	0.0030331945
48	0x3cb79c1c	0.022413306
49	0xbde2ce58	-0.11074513
50	0xbd93cb36	-0.07216494
51	0x3d914e7b	0.07095047
52	0x3ddc3d5c	0.10753891
53	0x3dc5a2f4	0.096502215
54	0xbca94c3a	-0.02066623
55	0xbd22cbaf	-0.03974503
56	0xbd57925f	-0.052629825
57	0x3d20066e	0.03906863
58	0x3c9ebcb9	0.0193771
59	0x3d2c8cfc	0.04212664
60	0x3d18d2d5	0.03731044
61	0x3dc18f9f	0.09451222
62	0xbde31128	-0.11087257
63	0x3da104d8	0.07862252
64	0xbe0a2345	-0.13490017
65	0x3bd71f48	0.0065650083
66	0xbdeda1c4	-0.1160312
67	0xbbbab6ed	-0.005698076
68	0xbda1e773	-0.079054736
69	0xbdbeed64	-0.093226224
70	0x3d0a90cd	0.0338295
71	0x3d90ff3f	0.07079934
72	0xbe090f1e	-0.13384673
73	0xbcbb1960	-0.022839248
74	0xbdb24071	-0.087036975
75	0x3db013f0	0.08597553
76	0xbe2818c1	-0.16415693
77	0x3da2da5a	0.079518035
78	0x3d44e174	0.04806657
79	0xbdcb95a1	-0.09940649
80	0xbdc0fe03	-0.09423449
81	0x3d8e1839	0.06938214
82	0xbd5abcae	-0.053402595
83	0x3d766a55	0.06016
84	0x3da75890	0.08171189
85	0x3ca543f8	0.020174012
86	0xbddf4630	-0.10902059
87	0xbdde3a04	-0.10850909
88	0xbd9f859c	-0.07789156
89	0x3c90abbc	0.017660014
90	0xbd836ab0	-0.064168334
91	0x3c09e123	0.008415493
92	0x3ce4546e	0.02787229
93	0xbdf1e011	-0.118103154
94	0x3db4f456	0.08835666
95	0xbdc3b267	-0.09555512
96	0xb9c8aa00	-0.00038273633
97	0x3cc6e0a4	0.024277039
98	0x3da11474	0.07865229
99	0xbd8f02cf	-0.069829576
100	0xbdd50aba	-0.104024366
101	0x3d666b00	0.056254387
102	0xbd289fa3	-0.041167866
103	0xbdf2d43f	-0.11856889
104	0xbe09f794	-0.1347335
105	0xbd5b4735	-0.053534705
106	0xbb698e57	-0.003563782
107	0xbdb02288	-0.08600336
108	0x3deeb3be	0.11655377
109	0x3d9bea0a	0.07612999
110	0xbdd039c4	-0.10167268
111	0x3c74d141	0.014942468
112	0xbbf77291	-0.007551499
113	0x3d134c91	0.03596169
114	0x3d1e62b3	0.038668346
115	0x3d765984	0.060143963
116	0x3cd2edd6	0.025748175
117	0x3dd8d010	0.1058656
118	0xbd9d4498	-0.07679099
119	0x3c383590	0.011243239
120	0xbe1eb183	-0.15497403
121	0x3ce3f109	0.027824895
122	0xbb5f0ce9	-0.0034034795
123	0x3dc89d76	0.09795658
124	0xbd3a3f38	-0.045470446
125	0x3d858cce	0.06520997
126	0xbdc8d7d6	-0.098067924
127	0xbdc9995a	-0.098437026
128	0xbdb2969b	-0.08720132
129	0x3d4d4a14	0.050119475
130	0x3d9ed16c	0.07754788
131	0x3dfc1655	0.12308947
132	0xbbcbac44	-0.006215604
133	0xbdbf9f4f	-0.093565576
134	0xbf144fd3	-0.579343
135	0xbda495e7	-0.08036404
136	0xbd545602	-0.051839836
137	0x3d1fd987	0.03902581
138	0x3ddb2de7	0.107021146
139	0x3d5cf895	0.053948004
140	0xbf025112	-0.50904953
141	0xbd51c18f	-0.051209982
142	0xbca01313	-0.019540345
143	0xbd59cf7e	-0.053176396
144	0x3df20a61	0.11818386
145	0x3c4b26a6	0.012399351
146	0x3d721c9e	0.059109323
147	0x3c9c9b24	0.019116946
148	0x3eb5a577	0.35477802
149	0xbd6eae5c	-0.05827175
150	0x3db9b36e	0.090674266
151	0xbc38a8fe	-0.01127076
152	0xbd56f7a9	-0.05248228
153	0xbc753d1a	-0.014968181
154	0xbdf992d1	-0.12186206
155	0xbc7dfa76	-0.015501609
156	0x3d080c68	0.033214957
157	0xbd5aeb75	-0.053447206
158	0x3cd1b280	0.02559781
159	0x3ccaf8f5	0.024776915
160	0x3d3fc070	0.046814382
161	0x3da48510	0.08033192
162	0xbdb619fa	-0.088916734
163	0x3d3a4d93	0.045484137
164	0xbcc9a3a2	-0.024614159
165	0xbdfda3a0	-0.123847246
166	0x3dccc696	0.09998815
167	0x3d089c49	0.03335217
168	0x3dead879	0.1146707
169	0x3dc1053d	0.09424827
170	0xbcfb5d19	-0.03068404
171	0x3c84d527	0.01621492
172	0x3cdb9fdf	0.02680963
173	0xbd810103	-0.06299021
174	0x3dab596c	0.08366665
175	0xbd8787cd	-0.06617699
176	0xbc57a79b	-0.013162519
177	0xbd4acc5d	-0.049511302
178	0x3de10dda	0.1098897
179	0xbdc0bc67	-0.09410935
180	0xbcb5d140	-0.022194505
181	0xbdc69cc6	-0.09697871
182	0x3c327a3b	0.0108934
183	0xbb9dc654	-0.0048149023
184	0xbf0cd2a2	-0.550089
185	0x3c48f215	0.012264748
186	0xbbf6b241	-0.0075285737
187	0x3e1fcf9b	0.15606539
188	0xbd0d06ac	-0.03443019
189	0x3dee4cab	0.11635717
190	0xbe073cb3	-0.13206749
191	0x3d5b4c0a	0.053539313
192	0xbd9491d9	-0.07254381
193	0x3d9f0844	0.077652484
194	0x3d33ab9b	0.043864828
195	0x3e023b32	0.12717894
196	0x3d8cbb30	0.06871641
197	0x3d183a8a	0.037165202
198	0xbea33ea9	-0.31883743
199	0x3dede597	0.116160564
200	0x3b9a0013	0.004699716
201	0xbdb3533b	-0.08756109
202	0x3d906a63	0.07051542
203	0xbc7db0fd	-0.015484092
204	0xbe5de048	-0.21667588
205	0xbde1cae1	-0.11025024
206	0xbd165f04	-0.036711708
207	0xbd39aad0	-0.045328915
208	0x3d9562e6	0.07294254
209	0x3d78beb9	0.060728762
210	0xbdbcb961	-0.09215046
211	0x3debc4d5	0.11512152
212	0x3ec64959	0.38727835
213	0x3c560f94	0.013065238
214	0x3dcb2faf	0.09921204
215	0x3d5faac3	0.05460621
216	0xbd670581	-0.056401733
217	0x3ccfa11f	0.025345383
218	0x3d6cb8ed	0.057793546
219	0x3ddd4b23	0.10805347
220	0x3db70ba9	0.08937771
221	0x3cb12252	0.02162281
222	0x3d6d36a1	0.057913426
223	0xbd8f44ec	-0.06995568
224	0xbca37ff8	-0.019958481
225	0xbdee7b41	-0.116446026
226	0xbd9ccb28	-0.076559365
227	0xbd9913ac	-0.07474455
228	0x3dde1419	0.10843677
229	0xbd6b6140	-0.05746579
230	0x3e02c877	0.12771784
231	0xbe551064	-0.20807034
232	0x3d8e0cef	0.06936061
233	0xbd18085d	-0.03711735
234	0x3db1f8e6	0.08690052
235	0xbe15a840	-0.14614964
236	0xbd55febc	-0.052244887
237	0x3d99f22a	0.07516892
238	0x3dfbeb16	0.123006985
239	0x3de349b1	0.1109804
240	0xbdae6325	-0.08515004
241	0x3cec811f	0.028870163
242	0x3d38ad93	0.04508741
243	0x3ce58287	0.028016342
244	0xbd9e93ef	-0.0774306
245	0x3d863bc1	0.06554366
246	0xbc41e2a2	-0.011833819
247	0xbb51cc7a	-0.0032012747
248	0xbe4a011e	-0.19726989
249	0x3e05f798	0.13082731
250	0xbdcd292d	-0.10017619
251	0x3e41ca7c	0.18924898
252	0x3dbd04c3	0.09229424
253	0x3c9d899c	0.019230656
254	0xbdb09620	-0.08622384
255	0xbdfbc8e8	-0.12294179

net.2.bias f4 [32]
0	0xbd39f56c	-0.04540007
1	0xbd19c27a	-0.037538983
2	0x3d7d1915	0.0617915
3	0x3c96cb69	0.01840754
4	0xbd28b7dd	-0.04119097
5	0x3e53132c	0.20612782
6	0xbd049e3d	-0.03237747
7	0xbd0f7369	-0.035022173
8	0xbdbf4d90	-0.09340966
9	0xbd1eb604	-0.038747802
10	0xbd724502	-0.059147842
11	0xbca26fc7	-0.01982869
12	0xbb963fab	-0.0045852265
13	0xbd706e25	-0.058698792
14	0x3e3a077f	0.18166922
15	0xbcf67f0c	-0.030089878
16	0xbd82208a	-0.063538626
17	0x3e4ce7a9	0.20010246
18	0xbd037ec2	-0.032103308
19	0x3e72509e	0.23663566
20	0xbc6a4440	-0.014298499
21	0xbdd269b3	-0.10274067
22	0xbdda9668	-0.10673219
23	0x3e2d4710	0.1692164
24	0xbdc6e474	-0.09711543
25	0x3de2f9b1	0.11082781
26	0xbcf37064	-0.029716678
27	0xbd296d95	-0.04136427
28	0xbd1f7415	-0.038929064
29	0xbda1d10b	-0.079012
30	0xbde3dbe9	-0.11125929
31	0xbcdda3c3	-0.027055627

net.4.weight f4 [1, 32]
0	0x3bfc5c80	0.0077014565
1	0xbd71b54e	-0.059010796
2	0xbe0facce	-0.14030764
3	0xbb060574	-0.0020450028
4	0x3c68d2d5	0.0142104225
5	0x3de60e47	0.11233192
6	0xbcf61f74	-0.030044295
7	0xbcfd26a8	-0.030902222
8	0xbccc5fb8	-0.024947986
9	0xbd5be0b5	-0.053681094
10	0xbc82330e	-0.015893485
11	0x3c633adb	0.013869013
12	0xbd9f57a2	-0.077803865
13	0xbe1dfbd6	-0.15428099
14	0x3dda1d08	0.106500685
15	0x3c0c641c	0.00856879
16	0xbd9f5083	-0.07779028
17	0x3e175b36	0.14780888
18	0xbe130fb2	-0.14361456
19	0x3e46bf0f	0.1940882
20	0x3b397c10	0.0028302707
21	0xbdb49913	-0.08818259
22	0xbe00cc1e	-0.12577865
23	0x3e061ab5	0.13096125
24	0xbdfbf71c	-0.12302992
25	0x3dc35a0a	0.09538658
26	0x3bb5610f	0.005535252
27	0xbc242b4a	-0.010020087
28	0x3dcf6bf7	0.101280145
29	0x3b7328cb	0.0037103172
30	0xbc66d851	-0.01408966
31	0xbb73dd14	-0.003721063
