Trading_Model/trading_model_NAS100.pth (torch, 22282 bytes, 5 tensors)

net.0.weight f4 [64, 42]
00000000: ece2 b0bc fd09 52bd 4bdf 7f3d 29b5 c3bc
00000010: 59ae 0bbd 5a5c f6bd f22b 92bd b2da af3d
00000020: 32f1 fe3d f78d 15bd d1c0 02be f7be 6bbd
00000030: 7509 a43d 9e73 513d 6279 d6bd cb51 503d
00000040: 6926 153e 8977 89bd 3cb8 34bd 9d7e af3c
00000050: bd86 643d 4a60 b83c 7fd6 b23d 53c4 a53c
00000060: 1bfc dabd f9f8 fe3c 4137 0abd ed06 25be
00000070: 22f2 00be 78c6 cc3c 23a7 01be 11e0 56be
00000080: e974 123c 7e9f bbbd 7447 273d 2044 fdbd
00000090: 8019 003c d7a9 7d3d 82ac a43d f6d7 773d
000000a0: 90a5 ffbd 8fdc 013d 0b3d 863d dfb2 13bd
000000b0: e728 3dbd 0cc2 06bd 6ce6 8dbd 7afd ffbd
000000c0: 2e75 d1bd 522d 51bd f716 033e 3f65 20bd
000000d0: c02b 6ebd 5901 a1bc d13e 85bd 9977 f1bd
000000e0: 6853 44bd 5937 2bbe 80dd eebd 9290 f93d
000000f0: a311 dbbc 2b54 46b9 7d01 723d a264 f33d
00000100: ba31 f63d d256 913a 55f7 5bbd c02c a1bd
00000110: 35d7 21be 2ee4 7e3c 3b25 7d3d f8d3 84bd
00000120: 83f5 98bd 858d 963d d858 0a3d 414c d53d
00000130: 985c c7bc ccda 60bd 925e 2abe 797f 9c3d
00000140: 5389 a73d ce54 8e3d 5598 2c3d a75d 48bd
00000150: 1dfc 3d3d e0bc 8c3d 760a 563d 6c62 543c
00000160: c3f0 8d3d fab4 8cbd b64b 893b bf98 433d
00000170: a15e 94bc b2ca 0b3d e87b 9e3d 58c1 913d
00000180: 45e1 12be e8e1 52bd 4b28 6ebd 456e 16be
00000190: 3062 eabd 6cf2 473d 17d3 d5bd 6a57 153e
000001a0: d177 05be 66f0 9b3d 5211 95bd d9bf 9cbd
000001b0: a9fd d1bd fcb4 6cbd ce35 303d 917b 6fbc
000001c0: 6f6a c3bd d147 e03c ed7a 8dbd de6b 303b
000001d0: 8beb 05be 900f ebbd 4b68 89bd 564a f03d
000001e0: 78be 0d3c d7f4 683d 26be af3d 65ad 9dbd
000001f0: 7162 ef3d 7267 eebd 0dff 1abe b76f 0bbe
00000200: 0d72 403d 7e71 0fbe de2b 4fbe ad2b a4bd
00000210: e97a 9cbd f157 8ebb dfa0 5f3b 4fc3 1bbe
00000220: 0e3e 1abe 3839 6c3d 0fc6 7ebd 04cd 46bd
00000230: f22c 883d 4794 cd3c 71b4 9e3d 4131 d2bb
00000240: 481d ecbd b979 593a 538c 0e3d 56f3 f7bc
00000250: 7766 b0bd ecd0 33bd b312 bb3c 3092 04be
00000260: 8aef 7e3b cc3d 2bbe c7ba 02be 4fff 33be
00000270: 35d7 55bd 1a70 66be 3a8f e33c b256 11bc
00000280: 7ef1 cfbd f871 52be f969 c1bd fa09 2bbe
00000290: fc56 82bd 7b17 953d 11bd 11be 6355 9dbc
000002a0: f702 21be 135e a23b d01a 003d c1cb ebbd
000002b0: 0507 6dbc 393b 0bbe 258c 3abe c3ad 0abe
000002c0: 8203 b63c 6d12 18be ba88 45be e1cd 93bd
000002d0: 10ae c3bd 85fa f2bd a6f0 4fbd 4af5 7ebd
000002e0: 3a49 9ebd e426 18be 5b86 c2bd c296 f23c
000002f0: 9159 edbd 4e09 2f3d a958 a43d 9f92 bc3d
00000300: 5936 0fbe f07b a7bd 028d 65be 9ecc a63c
00000310: 4c73 d73d 3ea6 723d 23f6 ca3d f8a1 4fbe
00000320: 1d47 9bbd 8c6f 8f3d f84a aa3d 6fa0 913d
00000330: 46e0 55be b5d7 68be e45e 25bd 0a01 883d
00000340: 94fd c93d 0f64 8ebc 1449 8abd 7d57 05be
00000350: 2577 4c3d 859d ce3d 004b 1abe d019 31be
00000360: 5026 25be 6f9f af3d b698 05be e2ee 9dbc
00000370: 1854 a4bd 65aa 3a3d a99b eb3d e310 3cbd
00000380: 9132 f2bd 6495 323c dc9a 6fbd 50fa 823d
00000390: bee3 0dbe 00b5 dc3c d011 c7bd e643 af3d
000003a0: 854f 523d 892d f8bb a19b e33c 270c 25bd
000003b0: 372b c2bd b758 d5bd 8f67 393d a3b5 b5bd
000003c0: ab1b a0bb 8719 c0bd b3ae a3bd ccc9 27be
000003d0: 1a03 f63c ce95 033e e4ec 0dbe 3869 1abe
000003e0: a7e2 a3bd df85 ab3d 8ff2 a8bd 10d4 cabd
000003f0: 54bf 85bd 10f0 e73c 9bb3 f0bd 90fb 44be
-0.02159258 -0.051279057 0.06246881 -0.023890095 -0.034101818 -0.120293334 -0.07137288 0.08586635
0.12448348 -0.03651234 -0.12768866 -0.057555165 0.08009616 0.05113565 -0.10472371 0.050859254
0.14565434 -0.06712253 -0.044121012 0.021422679 0.05579256 0.022506852 0.08732318 0.020235216
-0.106926166 0.031124579 -0.0337441 -0.16115923 -0.12592366 0.024996981 -0.12661414 -0.20983912
0.008939006 -0.0916128 0.040839627 -0.123665094 0.00781858 0.06192955 0.08040716 0.06050869
-0.124827504 0.03170448 0.06554612 -0.036059257 -0.046181586 -0.0328999 -0.06928715 -0.12499519
-0.102274284 -0.05106861 0.12801729 -0.039159056 -0.058147192 -0.019653963 -0.06506122 -0.117903896
-0.047931105 -0.16720332 -0.116633415 0.12185778 -0.026741808 -0.00018914106 0.05908345 0.118844286
0.12021203 0.0011088497 -0.05370267 -0.078698635 -0.15804751 0.015557332 0.061803084 -0.06485742
-0.07468703 0.073512115 0.033776134 0.10414935 -0.024336144 -0.05489616 -0.16637638 0.07641501
0.081804894 0.06949769 0.042137463 -0.04891744 0.046383012 0.068719625 0.05225607 0.012962919
0.06930687 -0.06870456 0.0041899337 0.047753092 -0.018111529 0.034128852 0.07738477 0.071169555
-0.14343746 -0.051484972 -0.058143895 -0.14690502 -0.11444509 0.048815176 -0.10440653 0.14584127
-0.13033988 0.07614212 -0.07278694 -0.076537795 -0.1025346 -0.057789788 0.043020062 -0.014616863
-0.09541785 0.027377995 -0.06908212 0.0026919763 -0.13078134 -0.11477578 -0.067093454 0.117329285
0.008651368 0.056874122 0.0858119 -0.07699088 0.11688698 -0.116408244 -0.15136357 -0.13616835
0.046983767 -0.14008138 -0.20231578 -0.08016143 -0.07640631 -0.0043439795 0.0034122986 -0.15211223
-0.15062734 0.057671756 -0.062200602 -0.048535362 0.06649198 0.025095118 0.0774926 -0.006414563
-0.115290225 0.0008296031 0.034801792 -0.030267399 -0.086132936 -0.043900415 0.022836065 -0.12946391
0.00389001 -0.16722792 -0.12766562 -0.17577861 -0.05220719 -0.22503701 0.027778257 -0.008870767
-0.10153483 -0.20551288 -0.09444041 -0.16703025 -0.06364247 0.07279869 -0.1423228 -0.019205755
-0.15723787 0.004955062 0.03127557 -0.11513472 -0.014467006 -0.1359681 -0.18217523 -0.13542847
0.02221847 -0.14850779 -0.19290438 -0.07217003 -0.09554684 -0.11864189 -0.05076661 -0.062245645
-0.077288106 -0.14858586 -0.094982825 0.029612903 -0.11589349 0.042733483 0.08024723 0.09207653
-0.13985576 -0.08177936 -0.22417071 0.020361241 0.10520038 0.059240572 0.09910228 -0.2027663
-0.07581923 0.07003698 0.083150804 0.071106784 -0.20886335 -0.22738536 -0.040373698 0.06640823
0.09862819 -0.017381696 -0.0675222 -0.13021655 0.049918313 0.10088638 -0.15067673 -0.17295003
-0.16127896 0.085753314 -0.13046536 -0.019278947 -0.08023852 0.045572657 0.11504299 -0.045914542
-0.11826051 0.010899875 -0.058497295 0.063953996 -0.13856408 0.026941776 -0.09720194 0.085578725
0.051345367 -0.0075737876 0.02778417 -0.040294793 -0.09480899 -0.10417312 0.045264777 -0.08872535
-0.004886111 -0.09379869 -0.079923056 -0.16385573 0.030030776 0.12850115 -0.13859898 -0.150792
-0.08002215 0.08375143 -0.082493894 -0.09903729 -0.065306336 0.028312713 -0.11753007 -0.19236588

net.0.bias f4 [64]
00000000: a21c 5bbe 0efd 40bd 678d d9bd 3562 e2bc
00000010: a941 34bc 0510 d13d a14e 2b3e 09b4 6dbd
00000020: f9df febd 4a41 b53d a615 cf3d bb8f 68bd
00000030: 12d1 e83d 58d6 08be 113e 3bbe 76a0 633e
00000040: 09b1 43be cea8 cf3d cd1e 323d 508e 243e
00000050: 4cad a9bd d88b 27be fe44 3bbd e454 b13c
00000060: 027f 55be 3d71 acbd 861d 033e 6f70 0b3e
00000070: 39ce 073c b54b a13d 96ce b0bd 4a21 01be
00000080: d63d cdbd d3b5 97bd 3414 1fbd f796 e8bd
00000090: 5c2e f9bd 9cf6 4abd 2c4a eb3d 366b f9bd
000000a0: a2ce e9bc 15d4 17be 7453 553d 6824 ff3d
000000b0: b2af aebd be24 b5bd 5b26 3abe 456d 363e
000000c0: 7f91 e0bd 506f f5bd d5ec cb3a bf83 1f3e
000000d0: ee2a d8bd b04c 07be bf6a b93d 655e cfbc
000000e0: 18f7 22bd 4319 1cbd d80a 85bd 10dd 13be
000000f0: 6f1c 20be 7ebd 4cbd e81e e03d d9af 8dbd
-0.21397641 -0.04711633 -0.106226735 -0.02763472 -0.011001983 0.102081336 0.16729213 -0.058033023
-0.12445063 0.088503435 0.10111551 -0.056777697 0.11368002 -0.13363016 -0.18285395 0.2222918
-0.19110502 0.10139619 0.043486405 0.16069913 -0.08285007 -0.1636194 -0.045720093 0.021646924
-0.20849231 -0.08420036 0.12804231 0.13617109 0.008288913 0.07875768 -0.08633153 -0.12610355
-0.1002156 -0.07407727 -0.038837627 -0.11356919 -0.121670455 -0.04955159 0.114887565 -0.12178652
-0.028540913 -0.14826997 0.05208154 0.12458116 -0.08529605 -0.08844899 -0.18178694 0.1781512
-0.10965251 -0.11984122 0.0015558252 0.15577601 -0.10555063 -0.13212848 0.09053563 -0.025313566
-0.03978643 -0.03811003 -0.06496209 -0.14439797 -0.15635847 -0.0499854 0.10943395 -0.06918306

net.2.weight f4 [32, 64]
00000000: c9d0 2bbd d1d0 f8bd c3ce 39bd efe3 bcbd
00000010: c850 b53d 93a1 133d cb88 753d b904 c33d
00000020: d3ab 70bd b896 0f3d dd89 7c3d 9d5b 003d
00000030: 6438 153d c04f 993d 955e 6bbd 751d 6cbc
00000040: 8b5d 19be 5d46 793b 1ba0 8bbc 6c52 03be
00000050: 2cd5 c8bd e17d ee3d be66 97bd 7b0e d6bd
00000060: 5f1a ae3a 42e1 83bd ee23 e43a 1272 58be
00000070: c293 663d 4ce7 bb3d b0f7 243d cc89 28bd
00000080: c39d c33d 5c05 efbd 840b 22bd 4b6c 62bd
00000090: 9455 2e3d 79c8 ebbd def5 29bd 0266 c9bd
000000a0: 4c32 283d 0035 153b cb95 04be a2fb eabd
000000b0: 01d9 683d 9b5b a6bd d6bd 97bd b206 16be
000000c0: 48aa 153d f8fb 12bd e3c3 63bd 9cc3 05bd
000000d0: e812 8d3c 08eb c0bb 50e0 2b3c f4d0 f1bc
000000e0: d82d f4bd 5305 babc d5ab 1bbd 484b ae3c
000000f0: 5053 583b a411 2e3d e87a 7dbd 6371 aebd
00000100: d3a0 043e 4e7c 03be 1fc7 f53d 83a1 90bd
00000110: 7696 02bd b544 b53d 990a 043e ea07 c43d
00000120: 5a60 9e3d eda7 953d dc42 a03d 3c8f 853d
00000130: cc11 093e ef0a e3ba 76c4 d13d 96ff 58bd
00000140: b095 f1bc 6f50 d53d fbb8 163e 6aeb a1bc
00000150: 63a6 a73d 2139 4e3d be57 fcbd ba6c 193a
00000160: bdeb b5bd 9ed3 9d3d 1d4d 833d 0046 17be
00000170: e369 7c3d 8952 bb3d b45e a23d 25c3 29bc
00000180: a569 303d 535d 71bd 0c73 713d 3e67 fd3d
00000190: 10a0 95bd 67d9 9ebd 9a0b e8bd e555 a13d
000001a0: 6740 ec3d 42f0 edbd c842 903d 4965 9e3d
000001b0: 4fd8 873c 4e7c 7cbd dc3e dc3b 89c6 62bc
000001c0: bc42 813d 8872 3cbd 09ef 09bd 845f e33d
000001d0: 28b7 6b3d 62df 40bd 42fc a2bd e8de ab3c
000001e0: ab93 82bd fb99 1c3e 2275 913d afa1 723d
000001f0: fdb9 0e3e c0ef 63bb 4b59 b23b 8efd dd3d
00000200: e560 48bd 2647 a839 2724 043d 09fd 06be
00000210: 4c81 e53d a781 eb3d b930 07be a648 583d
00000220: 4064 98bc 00d8 41bd 423f 543c fbb3 0abe
00000230: e5e1 2fbc 805a 6f3b 5355 fabd 82b5 fdbd
00000240: 99a1 21bd ec74 3bbc 31e5 b8bd f55d 3abe
00000250: 8adc a63d c99f a8bd 543b f63d c9a5 e33c
00000260: 2cbe 2dbe 76dd eebc 7eec a6bd 6edd 4dbd
00000270: a66d 3f3d 81f7 05bd 20d7 8cbc 39d3 ec3c
00000280: 8a15 843c 92b0 77bd bc4e d9bd 0d04 223d
00000290: 400a 2b3d 2abd afbc 6132 c0bd d1d1 acbd
000002a0: 9891 3abd 2005 b13b a828 ad3d bf4c d0bd
000002b0: 7f6a d13d 2fbe 923c ac61 6abc ed66 21be
000002c0: d02b 3e3d da13 9dbd b58d 27be 48f5 e1bd
000002d0: 70d9 68bc debf 8cbc f845 a2bd 7c0f 06be
000002e0: fab3 d23d 9e43 8c3d e98d 98bd 8e54 903d
000002f0: 123c aebd ba9b bbbd 4eda 113d 0425 94bd
00000300: 1647 8abd 3417 c1bd 3008 b43c 56bb d33d
00000310: c08a f5bb d4f0 c23d 4051 dfbd d837 f7bc
00000320: 6082 eabb 5535 6b3d bb77 d9bd 549d 92bd
00000330: a1ff 25be 00a7 d93d d4d9 a33d b6ec b23d
00000340: 52da c73c 1a89 bc3b 4825 b7bc 7543 23be
00000350: b2e8 f23d e881 263d ac5b c1bd 86ee 15be
00000360: d6ca 25bd 0862 2fbd 8eb4 25bd 7fef ccbd
00000370: 44af 453d a272 873d 601a 9a3d a18e 303d
00000380: a0e6 f8bb 3859 593c 3837 e8bd f88f ec3d
00000390: 6233 d83d 68bc c4bd 4a1d 19be 0280 f1bd
000003a0: 20e9 2a3c cad1 a03d b849 1c3d b64b a6bd
000003b0: bc39 703d c501 b3bd 1078 2cbd 21b0 1abe
000003c0: 0a8e c43d e076 d9bc 3b10 f1bd a51a 883d
000003d0: 7ef1 b0bd c021 e33b fb12 01be b664 3c3d
000003e0: 4862 2fbd 8b82 2a3d 338d 89bd fa9e bebd
000003f0: eab8 e3bd 18ce 1a3d aa92 79bd a05b debc
-0.04194716 -0.121492036 -0.0453632 -0.092231624 0.088532984 0.03604276 0.05994491 0.09522385
-0.058757614 0.035055846 0.061654914 0.03133737 0.03643073 0.07485914 -0.057463247 -0.01441132
-0.1497709 0.0038036325 -0.017044118 -0.1282441 -0.09806284 0.11645103 -0.073926434 -0.10451981
0.0013283006 -0.06439449 0.0017405727 -0.21137264 0.056293257 0.09174976 0.040275276 -0.04114704
0.09551575 -0.11670944 -0.039561763 -0.055279057 0.042562082 -0.115128465 -0.041494243 -0.098339096
0.04106359 0.0022767186 -0.12947766 -0.114737764 0.056847576 -0.08122941 -0.07409255 -0.14650992
0.036539346 -0.035884827 -0.055606734 -0.03265725 0.01722093 -0.005887393 0.010490492 -0.029518582
-0.119228065 -0.022707617 -0.03800567 0.021276131 0.0033008642 0.042497292 -0.06188479 -0.085177206
0.12951975 -0.12840387 0.1200087 -0.07062056 -0.031881772 0.088509955 0.12894668 0.09571822
0.07733221 0.0730742 0.078252524 0.065214604 0.13385695 -0.0017321984 0.1024255 -0.05297812
-0.029490322 0.10415732 0.14719002 -0.019765574 0.081860326 0.05034745 -0.12321423 0.00058526883
-0.08882854 0.077063784 0.064111926 -0.14772797 0.06162442 0.09146602 0.079282194 -0.0103614675
0.0430695 -0.05892689 0.058947608 0.123732075 -0.0730592 -0.0775631 -0.11330338 0.07877711
0.11535721 -0.11618091 0.070439875 0.07734162 0.016582636 -0.061641984 0.0067213606 -0.01384128
0.06311557 -0.046007663 -0.033675227 0.111022025 0.05754772 -0.047088034 -0.079582706 0.020980313
-0.06375822 0.15293114 0.071024194 0.059236225 0.13938136 -0.0034780353 0.0054427735 0.10839377
-0.04892053 0.00032096467 0.03226104 -0.13182463 0.11206302 0.114993386 -0.1320218 0.052803658
-0.01860249 -0.047325134 0.012954535 -0.1354522 -0.01073501 0.0036522448 -0.122233056 -0.123881355
-0.039460752 -0.011441451 -0.0902809 -0.18199904 0.08147533 -0.082336016 0.12023035 0.027789013
-0.16967076 -0.029158335 -0.08150576 -0.05026 0.04673543 -0.03270674 -0.017192423 0.028909313
0.016123552 -0.060471125 -0.106107205 0.039554644 0.041757822 -0.021452505 -0.09384609 -0.08438457
-0.045549005 0.0054022223 0.0845502 -0.10170888 0.10225391 0.017912952 -0.014305513 -0.1576192
0.0464285 -0.07669802 -0.1636265 -0.11033112 -0.014211997 -0.017181333 -0.07923502 -0.13091844
0.10288234 0.068488345 -0.07448942 0.070473775 -0.08507551 -0.09160562 0.035608582 -0.07233623
-0.0675184 -0.09428254 0.02197656 0.10338466 -0.007493347 0.095185906 -0.10904169 -0.030177996
-0.007156655 0.05742391 -0.1061854 -0.07158914 -0.16210796 0.10627556 0.08000532 0.08736555
0.024396095 0.0057536485 -0.022356644 -0.15943702 0.11860789 0.040651232 -0.09441313 -0.1464177
-0.040476643 -0.0428181 -0.040455393 -0.10006618 0.04826285 0.06613661 0.07524562 0.04310477
-0.007595852 0.0132659 -0.11338657 0.11550897 0.105566755 -0.09606248 -0.14952579 -0.11791994
0.010431558 0.07852514 0.03815624 -0.081199095 0.05864881 -0.08740572 -0.042106688 -0.1510625
0.09597404 -0.026545942 -0.11770674 0.06645707 -0.08639811 0.0069315135 -0.12604897 0.045994483
-0.042818338 0.0416284 -0.06716385 -0.09307666 -0.11119254 0.037794203 -0.060930885 -0.0271433

net.2.bias f4 [32]
00000000: ab25 33bd c690 7bbd 853d 89bd 1fd5 50bd
00000010: f36e 3ebd fdba 95bb 57c1 bcbd 1599 d33d
00000020: d4f7 84bc 6684 2b3e 1d0c 92b9 1d54 93bd
00000030: 344b e0bd 966a 89bd f029 edbc 7523 57bd
00000040: 86cb 84bd c85f c3bc 6608 193e 212a 9cbd
00000050: f155 b5bd 2eaf d2bd 709a 21be 4ef2 57bb
00000060: 7915 3abd d806 c7bd 0d6e 023d 48b1 64bc
00000070: eb2f 163e 3c0f 113e 9b52 a2bd fe85 08be
-0.043737095 -0.061417364 -0.06701187 -0.050984498 -0.04649253 -0.00456941 -0.09216564 0.103319325
-0.016231455 0.16749725 -0.00027856315 -0.07193778 -0.10951844 -0.06709783 -0.028950661 -0.05252405
-0.064841315 -0.023849383 0.1494461 -0.07625223 -0.08854283 -0.10287319 -0.1578157 -0.0032950821
-0.045430634 -0.09718102 0.031843234 -0.013958283 0.14666717 0.14165968 -0.07925912 -0.13332364

net.4.weight f4 [1, 32]
00000000: 0612 eb38 0dd0 273b 3fa6 193b 7086 263d
00000010: e6cc 443c a095 10bd c70d 0e3e 66d3 f93d
00000020: fc80 14bd b30a da3d ab0e 0dbc 2fa5 9bbb
00000030: 8303 1abe 4219 ebbd fe74 86bc 2bf3 a7bc
00000040: 73c4 94bd 1501 c5bc 5ee4 193e 7d9f a0bb
00000050: 0cc7 193d e6ce 07be da56 2dbe 1c4d 33bd
00000060: 1976 7abc 74ee 293b ed9c 1d3d dda6 d2bd
00000070: b56e 0e3e 7237 ef3d 4059 223c 1ad4 8fbd
0.0001120903 0.0025606186 0.0023445038 0.040655553 0.012011742 -0.035298944 0.13872443 0.12198524
-0.03625582 0.10646572 -0.008609454 -0.004749916 -0.15040402 -0.11479427 -0.016413208 -0.020501694
-0.07264032 -0.024048368 0.15028521 -0.004901825 0.03754334 -0.13262519 -0.16927662 -0.04377471
-0.015286946 0.0025929483 0.038479734 -0.10285733 0.13909419 0.11680497 0.009908974 -0.07022877
