Trading_Model/trading_model_EURCHF.pth (torch, 16650 bytes, 5 tensors)

net.0.weight f4 [64, 20]
000000 5b cf 3a be db e9 d5 3c 7a 8d ba bd 98 3d c9 be
       -0.18243162 0.026112488 -0.09109016 -0.39304805
000010 b2 e0 70 3c c8 d3 ae be 76 27 9d bc 8d 91 6f be
       0.014702009 -0.3414595 -0.019183856 -0.23395367
000020 b8 2e 23 3d 85 9e 6a be 49 50 ce 3d 9d f3 f3 bc
       0.039839476 -0.22912033 0.10073907 -0.02977925
000030 af 8f 10 3d 7c ca 9b 3d 02 0c c2 3d 3b d4 23 3e
       0.035293277 0.0760698 0.094749466 0.15998928
000040 bf c7 b6 be f8 e4 2c 3d ee d3 44 bd d8 2c c5 bc
       -0.3569927 0.04221055 -0.048053674 -0.024069235
000050 d8 b4 b6 3d 93 9d 3b 3d 06 23 9d bd bd 97 1a be
       0.08921212 0.04580457 -0.07672696 -0.15096946
000060 2f 91 49 bd 00 07 7e 3c 82 3e 81 be ca 63 41 be
       -0.049210723 0.015504599 -0.25243002 -0.18885723
000070 42 6a 0b bb d7 5a 6b 3d 54 86 a3 3e 57 f3 52 bd
       -0.0021273051 0.05745968 0.31938422 -0.0515016
000080 6c e6 b9 3e 7d 19 32 bd a8 88 1b bd d8 73 ae bd
       0.3630861 -0.04348134 -0.037972122 -0.08518189
000090 1c b6 94 3c b0 e4 ed 3d 47 cf a4 3c 14 28 1a 3e
       0.018153243 0.11615884 0.020118369 0.15054351
0000a0 35 4b ef 3d ab 32 6a 3d f7 51 5f 3b dc 78 ec bc
       0.116842665 0.057177227 0.0034075954 -0.028866224
0000b0 c0 65 58 3d 01 3a 4f be 6d c4 28 be a8 e4 57 be
       0.05283141 -0.2023697 -0.1648118 -0.21083319
0000c0 1b 7b ce bd 3b 62 80 3d b3 7d dd 3d 1a c6 0a be
       -0.10082074 0.06268736 0.10814991 -0.13552132
0000d0 28 ec 37 be f1 f2 5c be 5f 7e 50 3d a3 45 2a be
       -0.1796118 -0.2157705 0.050901767 -0.16628127
0000e0 c2 13 1b 3e 92 8a 0e 3e 4a f6 a0 bd c8 2d 3f 3e
       0.15144256 0.13920048 -0.07859476 0.18669808
0000f0 06 e1 33 bd 4d 86 48 be 3d 23 7c 3d 49 f4 99 be
       -0.04391577 -0.19582482 0.061557043 -0.30069187
000100 94 ef 77 3d 14 21 2b be 6d 00 cc 3d 4c 98 98 be
       0.060531214 -0.16711837 0.09961019 -0.29803693
000110 9b 16 18 3e e9 86 8e bd 45 a6 59 bd 30 11 4f be
       0.14852373 -0.06959326 -0.053137083 -0.202214
000120 b3 5c b6 bd 5f 87 8a 3d 97 d1 a4 be f6 f0 9d bd
       -0.089044 0.06764101 -0.32191154 -0.07711975
000130 4a f7 d9 bd 58 7b 93 3d 56 8c 4b be 54 dc 96 bd
       -0.1064287 0.0720126 -0.19877753 -0.07366243
000140 ea 30 fb bc e3 e4 14 bf ad f0 aa bf 2b a5 06 be
       -0.030662972 -0.58161753 -1.3354698 -0.13148944
000150 18 80 18 3e 23 10 76 be 3c 62 b7 3d 9a 11 34 be
       0.14892614 -0.24029593 0.089542836 -0.1758484
000160 20 49 38 bf 5f ad 10 be 94 f9 b7 be 5e 2e 2b be
       -0.7198658 -0.14128636 -0.359326 -0.16716906
000170 37 c3 7e bc d0 9e 75 3d fd 9c c6 3e d8 93 d8 be
       -0.0155494725 0.05996591 0.38791648 -0.42300296
000180 5e 33 33 3e 00 55 dd bc 46 07 d3 be 79 ef ff bd
       0.17500064 -0.02701807 -0.41216487 -0.12496848
000190 66 b0 90 bd b2 2f d4 bd 84 11 ee b8 14 c2 0d 3e
       -0.07064895 -0.1036066 -0.00011351987 0.13843566
0001a0 1b 05 03 be 98 b1 47 bd 4c 4b 3f 3e ed 12 15 3e
       -0.12794916 -0.04875335 0.18681067 0.14558001
0001b0 b1 ad 00 be aa 89 c3 3d f1 21 ed bd f6 70 38 be
       -0.12566258 0.09547742 -0.115787394 -0.18011841
0001c0 fc 5b 0e 3e 7a 42 88 3d 15 38 47 be 99 07 52 be
       0.13902277 0.066533044 -0.19454987 -0.20510711
0001d0 b0 0c 3d be 4c 9c 39 be 03 95 95 bd 58 9f 57 be
       -0.18461871 -0.18126029 -0.07303812 -0.21056879
0001e0 4d 79 2f be fa 17 70 be e9 cb 85 bc e5 a4 f0 3d
       -0.17136116 -0.23446646 -0.016332584 0.11750201
0001f0 0b ae 89 be c8 47 7b be a1 59 27 be a4 45 8f 3d
       -0.26890597 -0.24539101 -0.16342784 0.06995705
000200 b6 b8 ab 3d 60 eb 70 be bd 8a a0 3d 76 f3 cc 3d
       0.0838484 -0.23527288 0.07838962 0.10007374
000210 32 9f c7 bb 8c 0b a8 bd 80 f0 0f bd b5 aa 58 be
       -0.0060919756 -0.082053274 -0.035141468 -0.2115887
000220 42 f6 ca 3d 1e 50 57 3e b7 5d 5e 3d da 0e 8d bd
       0.09910251 0.21026656 0.054288592 -0.06887598
000230 a1 9d 69 bd 36 3c 9b 3c dc 0a 45 bd 9d dc 91 bc
       -0.057035092 0.01894961 -0.04810606 -0.017805392
000240 2f f4 cc 3d 2a ed f0 bd 81 3b 42 be a5 09 a8 bd
       0.10007512 -0.117639855 -0.18968011 -0.082049645
000250 ee 2f 3f 3f 48 d9 57 3e bc e3 90 3d cc fb f5 bd
       0.7468251 0.2107898 0.07074687 -0.12010917
000260 82 68 34 3e d5 9f 8f 3e 5a 91 82 be 23 99 3a 3f
       0.17617992 0.2805163 -0.2550152 0.7288992
000270 fa 3e 1b bf b8 0e 0c 3e b7 a4 3f be 2e 46 ae bd
       -0.6064297 0.1367749 -0.18715177 -0.085094795
000280 4f 4f 3a bd fa 45 b0 3e 49 fc 4f bc 1b f8 92 bc
       -0.04548579 0.34428388 -0.012694427 -0.017940572
000290 aa 3a 1b 3e ba 98 66 3e c5 56 21 bd 6e 02 46 bd
       0.15159097 0.22519198 -0.03938939 -0.04834216
0002a0 92 b4 9d bf 03 cc 93 3d ba 85 9f be b3 9b 7b bd
       -1.2320731 0.072166465 -0.31156713 -0.061427783
0002b0 53 c7 7f bd 35 a2 07 bf 60 99 a5 be 20 10 50 be
       -0.06244595 -0.52981883 -0.32343578 -0.20318651
0002c0 1c e2 b4 be e4 44 02 be a3 d8 0b 3e 14 0f 1e 3e
       -0.35328758 -0.12721592 0.13656859 0.1543544
0002d0 9e b4 e4 3d 94 ca 09 bc ff 8f 53 bc 61 0d 0e be
       0.111672625 -0.008410115 -0.012912749 -0.13872291
0002e0 70 13 06 bc f2 34 bc 3d 70 b2 c0 3d 6a 35 0d bd
       -0.008183345 0.09189786 0.09409034 -0.034474768
0002f0 74 65 48 3e 33 3e 34 bd ff 15 83 be 7e 8c 74 be
       0.19569951 -0.04400463 -0.2560272 -0.23881719
000300 17 3e 08 be 11 ea 18 3e 8b 9c b0 3d 99 c1 93 bd
       -0.13304935 0.14933039 0.08623608 -0.0721466
000310 ac 13 ec 3d a0 cd 9c 3d b4 9b 2a be 61 71 36 be
       0.115271896 0.07656407 -0.16660959 -0.17816688
000320 78 23 3d 3e c0 9a c7 bd ee 0e b3 bd 18 72 0c bd
       0.18470562 -0.09746313 -0.08743082 -0.034288496
000330 3b bf 23 be ae 1b 1c be d0 67 59 bc 70 f4 2f bd
       -0.15990917 -0.15244934 -0.01326938 -0.042957723
000340 78 f9 b4 3d a4 91 26 be a8 dc 0d be 16 78 63 be
       0.08836645 -0.16266495 -0.13853705 -0.22213778
000350 8c 8d 9e 3d d0 46 27 3d c0 01 0d 3d 4a 35 5b be
       0.07741842 0.040839016 0.034425497 -0.21407047
000360 2c be f4 3d 8c ac 48 bd e5 66 29 be 58 ce e9 3d
       0.11950335 -0.04899268 -0.16543157 0.1141631
000370 64 ef 51 be c2 ab 24 be bc 37 12 3d eb d1 4b 3d
       -0.20501477 -0.16081145 0.035697684 0.04976074
000380 5f 08 88 be 14 dd 20 bd 79 ab 33 be ac e0 f3 bd
       -0.26568887 -0.039273337 -0.1754588 -0.11908087
000390 4a f3 a7 3c 14 0e 8a 3c f1 98 4c be 46 5e 3e bd
       0.020501751 0.016852416 -0.19980218 -0.046476625
0003a0 7d df 83 3c 65 4c d2 3c b7 69 96 3d 3c f4 b8 3d
       0.016097778 0.025671193 0.07344382 0.09030959
0003b0 c2 2e ce bd 38 16 8c bc d6 42 45 be 3c c5 80 bd
       -0.10067512 -0.017100438 -0.19263777 -0.062876195
0003c0 15 fd 10 bd 13 3f 2b be a8 5f d2 3d 8b 2b d6 bd
       -0.035397608 -0.1672328 0.10272151 -0.10457524
0003d0 9d e2 8f ba ad 85 f1 bc 45 6f 49 be 2e 63 f0 3d
       -0.001097757 -0.029482687 -0.19671352 0.11737667
0003e0 c4 26 06 be 88 9e 69 3d eb 35 23 3e f9 18 12 3e
       -0.13100725 0.057035953 0.15938537 0.14267339
0003f0 fb 25 38 be 66 f0 3f bd 28 ae 0b 3e 83 0f fe bd
       -0.17983238 -0.04686012 0.13640654 -0.124053024

net.0.bias f4 [64]
000000 4b 07 52 bd 6c 05 08 3f d1 ae 25 be 22 f0 45 3e
       -0.051276486 0.53133273 -0.16179968 0.19329885
000010 14 bf d4 3d 60 f2 60 be fa d9 35 3d 4a 55 10 be
       0.10388008 -0.21967459 0.04439733 -0.14095035
000020 0a c9 c8 3d 5d ae 9f be 1d ec fb bd 2d e1 58 3d
       0.0980397 -0.31187716 -0.123008944 0.05294912
000030 ec 7b 01 be 51 da e3 3d c2 0d 95 3d 57 f4 61 be
       -0.12644929 0.11125625 0.07278015 -0.22065865
000040 bd b7 82 3d b8 cb 54 3e 64 80 44 3c b7 bb 1d bb
       0.063827015 0.20780838 0.011993501 -0.0024068186
000050 d9 d4 f0 bc 85 6d 8d 3c c4 11 0d 3e 22 2b 7e 3e
       -0.029398369 0.017264137 0.13776308 0.24821141
000060 bf 94 a7 3e c0 5c 02 be a0 99 2e 3e 08 b2 2a be
       0.32730672 -0.12730694 0.17050791 -0.16669476
000070 1a e5 be 3e ac 52 81 bd bb 49 5c 3e d2 32 ee 3d
       0.37284166 -0.063145965 0.21512501 0.11630787
000080 c5 c1 09 be cd d8 06 be 31 40 d7 3d 6e 0e 06 3c
       -0.13452823 -0.1316864 0.105102904 0.008182151
000090 b3 b0 1c 3e 05 a8 d6 3e 6b 7c 85 3d 62 89 8a bd
       0.1530178 0.41925064 0.065178715 -0.06764485
0000a0 61 52 84 be 6b 50 10 3e 81 98 04 3e 4c 70 84 bd
       -0.258441 0.14093177 0.129488 -0.064667314
0000b0 c2 47 cb bd cc 84 4b be be 27 1c 3e 2b ff 07 be
       -0.09925796 -0.19874877 0.15249535 -0.13280933
0000c0 10 17 22 be 6f 5a 51 be 2d 3c 4b be f2 ea 39 be
       -0.1582911 -0.20444654 -0.19847174 -0.18156031
0000d0 3b ad 40 3d 03 1d 8a bc 44 bf 9b 3e 37 54 93 be
       0.047040205 -0.016859537 0.30419362 -0.28775188
0000e0 89 42 fd bd d2 a3 5f 3d 47 37 9c 3d 2e 99 7f 3e
       -0.12366206 0.05459959 0.07627731 0.24960777
0000f0 8f 61 6b be c9 c9 13 be bc c8 13 be b4 43 e5 3e
       -0.22986434 -0.14432444 -0.14432043 0.44778216

net.2.weight f4 [32, 64]
000000 92 c9 ec bd 08 3b 16 bd cc 73 63 3d 99 3d 88 bd
       -0.11561884 -0.03667739 0.055530354 -0.06652374
000010 a6 a1 ff bd 10 b1 9c bd 67 db 95 3d 00 59 32 3d
       -0.12482004 -0.076509595 0.07317238 0.04354191
000020 80 de a0 bd de 1a 80 3d 2c a1 ca 3d 90 4d a5 bd
       -0.078549385 0.062551245 0.09894022 -0.080714345
000030 a0 06 f6 bc d4 45 b1 3d 00 a2 01 3a b0 4b c5 bd
       -0.030032456 0.08655897 0.00049450994 -0.09633577
000040 c0 56 43 bd a3 44 c6 bd 1c 9f f5 3a 90 da a1 bc
       -0.047690153 -0.0968106 0.0018739435 -0.019757539
000050 ea cb 2b bd 08 1d a3 bd 5c fd e4 bd b0 d6 54 bd
       -0.041942514 -0.07964522 -0.11181137 -0.051962554
000060 ba 4a e1 bc ec cd 53 bd 82 89 a9 bd f9 9e c7 bd
       -0.027501453 -0.051710054 -0.08278181 -0.097471185
000070 c0 9b 8b bd 92 b0 90 bd d1 4e 76 bd b4 a3 85 3d
       -0.06816816 -0.07064928 -0.06013376 0.065253645
000080 50 cf 0c 3c b6 0f fc 3d 58 a7 ea 3d be bc d0 bd
       0.008594349 0.12307684 0.114576995 -0.1019225
000090 ac 1b 78 bd 7f 93 0a be 4c bf f9 bd 9c 2a 0a bd
       -0.060573265 -0.13532828 -0.1219469 -0.03373204
0000a0 30 da a9 3c 44 c6 56 3d 78 2b 15 be 2a 5e cf bd
       0.020733923 0.052435175 -0.14567363 -0.10125382
0000b0 4a 41 a4 bd b2 21 f8 bd a2 4d 85 bd bf 1b 98 bd
       -0.080202654 -0.12115802 -0.06508948 -0.07427167
0000c0 62 0f 3b bd 50 51 ab bc 14 11 b0 bd 08 dd c2 bd
       -0.045668967 -0.020912796 -0.085970074 -0.095148146
0000d0 95 00 b3 3d 22 c8 2d 3d 88 a1 f3 bd 12 71 ee bd
       0.087403454 0.04242719 -0.11896044 -0.1164266
0000e0 90 0b 84 bd d0 ec ac 3d 14 24 05 be c8 8e d1 bd
       -0.06447518 0.08443606 -0.13002044 -0.102323115
0000f0 d8 90 c5 bc ec d0 9a 3d 34 4c 0e bd ac fd c1 3d
       -0.024116918 0.0755938 -0.03474064 0.09472212
000100 7d bc a2 3c 71 de 62 bd 52 64 a9 3c 0d ef 55 3b
       0.019865269 -0.055387918 0.02067772 0.0032643706
000110 88 13 30 be 09 37 d1 3d 00 33 d4 bd 45 89 88 bd
       -0.1719495 0.10215575 -0.1036129 -0.06666807
000120 1b d6 27 be 7b ae b6 bd 50 5a 43 3d 32 df c0 3c
       -0.16390269 -0.08919998 0.04769355 0.023543928
000130 ea 6d d6 bd 11 55 af bd a4 b9 e7 3d 00 0a 88 ba
       -0.10470183 -0.08561147 0.11314705 -0.0010378957
000140 d3 8c 2d 3d b5 1f 1c ba 3c 20 ff bd 4e f0 d5 bd
       0.04237063 -0.00059556525 -0.1245732 -0.10446225
000150 8c 87 ff 3c eb a6 65 3d 22 98 b7 3b e2 c2 8c 3e
       0.031192563 0.05606739 0.0056028524 0.27492434
000160 50 08 9c 3d b4 bb cf bd 37 50 c3 3d 97 bd d3 bd
       0.07618773 -0.101432234 0.09536784 -0.10338896
000170 27 dd 90 bd 5f 93 c9 bd 65 71 be bd 6f 1d 6f 3d
       -0.070734315 -0.09842562 -0.09298972 0.05837768
000180 6d 9b b0 3d 17 75 9d be c5 ff 36 3e d9 75 f8 3d
       0.08623395 -0.30753395 0.17871006 0.12131853
000190 1b 30 9e 3d 7d 85 55 be d5 e1 f2 3e f0 71 10 3d
       0.07724019 -0.20851703 0.4743792 0.03526491
0001a0 e6 8f 58 b9 6f 33 b5 3d 9a 1d 34 3d 36 17 22 be
       -0.00020652972 0.08847701 0.043973543 -0.15829167
0001b0 9c 26 4f bd ce 2b d7 3d ad 90 bb 3e 0b 3a c4 3d
       -0.05057393 0.10506402 0.36633816 0.09581383
0001c0 a3 29 1c 3d 62 08 92 3d 9a ce 8b 3c 30 4b 58 bc
       0.038125645 0.07130505 0.017066289 -0.01320152
0001d0 cf 1a b1 bc 0c 5c 32 bd 39 f3 d7 3d b4 89 c9 bd
       -0.021619229 -0.043544814 0.10544438 -0.09840718
0001e0 2c e5 be bd 8b 1f d2 bc 0d 68 8c bd 55 7a 4e be
       -0.09321055 -0.025649806 -0.068557836 -0.20163853
0001f0 49 84 80 3d 52 77 65 3d 9b 75 fb bc ce 53 fb 3c
       0.062752314 0.056021996 -0.030695727 0.03067961
000200 f6 e6 82 bb 7d 41 dd 3d 30 85 5b 3c 04 d8 16 be
       -0.003994818 0.108035065 0.013398454 -0.14730841
000210 12 a0 89 be b4 24 bd bd 20 c5 05 3d 99 f2 00 3e
       -0.26879936 -0.09235516 0.032658696 0.12592544
000220 d8 c1 e3 3c f2 53 f3 3c 80 1b 33 3d 8d b2 d1 bd
       0.027802393 0.029703114 0.043727398 -0.10239134
000230 a7 c8 ac 3d 87 47 91 bd b2 c8 0f 3d 9c b4 14 3d
       0.08436709 -0.07093721 0.035103507 0.036305055
000240 9e 83 a7 3d c8 30 11 be a4 c3 ed bd e5 d4 a8 3d
       0.08179401 -0.14178765 -0.11609581 0.082437314
000250 4a a5 24 bc cf 77 0b 3d 97 e0 30 be ab 13 b6 3d
       -0.010049174 0.034049805 -0.17273174 0.0889047
000260 3c a8 cd bd 08 e1 87 bd b3 98 69 bc b0 d0 22 3d
       -0.10041854 -0.06634718 -0.014257598 0.0397498
000270 03 25 a5 bc d8 5a b5 3c de 84 64 be 34 e7 32 bd
       -0.02015925 0.022138044 -0.2231631 -0.043677524
000280 69 02 b1 3d f8 9d 7e be 37 ac aa 3e 8b 07 1e 3d
       0.08643038 -0.24864948 0.33334514 0.038581412
000290 7c 9f 8d bd 70 92 48 be 79 f4 32 3f 28 27 0d bd
       -0.06915185 -0.19587111 0.69904286 -0.03446117
0002a0 2c 44 85 bd 51 0a 67 bd 9f 4f 3f 3d ca 57 0a bd
       -0.065071434 -0.056406323 0.046706792 -0.03377513
0002b0 4c 01 22 3d b8 0b 8b 3c b3 1b 25 3f 4e 37 8f bd
       0.039552018 0.016973361 0.6449539 -0.069929704
0002c0 c9 2b 5e bd 10 88 81 bc 95 04 49 bd 0a a3 dd bd
       -0.054240976 -0.01581195 -0.049076635 -0.10822113
0002d0 a7 1e ea bd 25 b9 08 be 10 1d 68 3c b8 93 17 be
       -0.11431628 -0.13351877 0.014167085 -0.14802444
0002e0 aa eb bc bc 38 2e a9 bd db ae 2e bd 6e cf 22 be
       -0.023061592 -0.08260769 -0.042647224 -0.1589944
0002f0 49 d4 c3 bd ad 43 75 bd 0a e2 da bd d8 26 83 bd
       -0.095619746 -0.059878994 -0.10687645 -0.06403893
000300 52 ae 51 bd de 83 aa 3b 20 0c fb bb 50 ee 5f bd
       -0.051191635 0.005203708 -0.0076613575 -0.054670632
000310 65 6d 81 3d 70 2d e5 3c 1a 68 d8 bd d0 1f be 3d
       0.063196935 0.027975768 -0.10566731 0.092834115
000320 00 d1 37 3c de 48 a6 3d f8 c4 e8 bc a2 c8 a5 3d
       0.011219263 0.08119367 -0.028414235 0.08094908
000330 93 9c f4 bd 32 f1 df bd bb 84 39 3d f8 bc 63 3d
       -0.11943927 -0.10934676 0.045292597 0.055600137
000340 e4 25 81 3d 3c 28 de bd 01 aa e8 bd 9f 92 19 bd
       0.06306055 -0.10847518 -0.11360551 -0.037493344
000350 57 a7 17 3d 36 75 0e be e1 75 e3 bd e4 15 a3 bd
       0.037024822 -0.139119 -0.11106468 -0.0796316
000360 84 a9 ed bd 7b 63 bf bd df f5 d3 3d 5a 2b dc bc
       -0.11604598 -0.09345146 0.103496306 -0.02687614
000370 40 76 4a bd be 4a dc bd 78 23 87 bc e5 94 8b bd
       -0.04942918 -0.107564434 -0.016496405 -0.06815509
000380 52 99 c1 3d b2 f4 b1 bc 90 ea 98 3d 44 d6 92 3c
       0.09453072 -0.021723125 0.07466614 0.017924435
000390 7a f6 d4 3d ac 63 04 be be 63 f5 3d d8 54 c8 3c
       0.10398574 -0.12928647 0.11981915 0.02445452
0003a0 90 62 d1 bc 76 d4 ba bd 18 91 9b bd 0e 2b b9 3d
       -0.025559694 -0.09122555 -0.07596034 0.09041415
0003b0 8c 46 13 bd c2 e9 bb 3d 24 17 29 bd 63 a6 be ba
       -0.03595595 0.09175445 -0.041281834 -0.0014545437
0003c0 73 c4 3c bd a6 b1 c0 bd 0e c2 c0 bd 46 a3 85 bd
       -0.046085786 -0.09408884 -0.09412013 -0.065252826
0003d0 7f e5 19 3c 34 c9 a1 bb 66 52 e6 bd d3 53 b0 3d
       0.009393095 -0.0049373154 -0.11246185 0.08609738
0003e0 e6 2d d8 bd 49 ef 13 3d 81 b1 03 bd 30 10 a6 bd
       -0.105556294 0.036116872 -0.032151703 -0.08108556
0003f0 14 ca 79 3d 50 11 e9 3c 96 b9 05 3d 61 5f 4f bd
       0.060983732 0.028450638 0.03264769 -0.05062807

net.2.bias f4 [32]
000000 3b c7 dd bd f1 64 f0 bd ed 79 3f 3e a2 e2 e0 bd
       -0.10829016 -0.11738003 0.18698855 -0.10980727
000010 49 9b f6 bb 94 12 0d 3d 78 32 96 bd 8a 11 9f 3e
       -0.0075258357 0.034441546 -0.07333845 0.3106807
000020 94 3f 34 3d a7 ce 9d 3e c6 3c 21 3e 33 02 a3 3e
       0.044005945 0.30821726 0.1574584 0.31837615
000030 0b 9c 1d 3d 4d 5d 64 bd ec 6c 9f bd f1 e1 34 3d
       0.038478892 -0.05575304 -0.07784447 0.044160787
000040 67 f1 27 3d ad ae 04 3c be 16 9b bd 82 cf ef bd
       0.041001704 0.008098287 -0.07572697 -0.11709501
000050 92 50 76 bd 40 0c bc 3c 22 bc af 3d 20 77 29 3c
       -0.06013543 0.02295506 0.08580805 0.010343343
000060 12 21 40 bd 44 dd 87 3c da 58 de bd 53 a3 92 3e
       -0.04690654 0.016585 -0.10856791 0.28640231
000070 e6 09 36 bd ed 1d 6e 3b 55 c4 dd bd 60 c6 b6 bd
       -0.044443034 0.0036333755 -0.10828463 -0.08924556

net.4.weight f4 [1, 32]
000000 bd 35 a0 3c 37 e7 34 bc 7d cc 80 3d 1e b2 b2 3c
       0.019556874 -0.011041454 0.06289003 0.021813449
000010 3d b9 98 3a 6e 30 50 bd ae 84 98 bd 39 48 13 3e
       0.0011651885 -0.050827436 -0.07447182 0.1438302
000020 f2 0b b2 bd e0 38 1f 3e 20 c8 e2 3d f1 3a 55 3e
       -0.08693685 0.1554904 0.11073327 0.20823266
000030 9d fd 17 bd 91 c0 79 bc 54 f0 18 3e 3b d4 76 bd
       -0.0371071 -0.015243665 0.14935428 -0.060260992
000040 a4 ae 25 bd 6c af d2 bd 45 4a 17 bd 8c 74 0a 3d
       -0.040449753 -0.10287365 -0.036936063 0.033802554
000050 86 ac a2 bb 39 31 ad bd e7 ff 23 3d 9e 80 0f be
       -0.004964414 -0.08456654 0.04003897 -0.14013907
000060 2b db d7 bd fe 9e de bd f2 cc 97 3b 55 bd 04 3e
       -0.1053985 -0.10870169 0.0046325857 0.1296285
000070 38 0c e2 bd 54 cb 6d bc 34 88 89 bd 9a 3b 23 be
       -0.11037487 -0.014513809 -0.06715432 -0.15940705
