Trading_Model/trading_model_EURCHF.pth (torch, 16650 bytes, 5 tensors)

net.0.weight f4 [64, 20]
0.23580348 0.5823456 0.54401857 0.28896204 0.5018767 0.314963 0.53043914 0.32329217
0.5895304 0.3252937 0.3650606 0.42835388 0.21047825 0.2210324 0.3929273 0.3974222
0.32610852 -0.08719182 0.4417438 -0.0014530718 0.12711821 -0.53606796 0.01545846 -0.1578682
0.18722832 0.20401442 -0.017964432 0.04978145 -1.2564925 0.05955445 0.033881426 0.18677852
0.030805033 -0.62758696 -0.18028924 0.15869786 0.00404223 0.2124446 -0.16397166 -0.03425713
0.44536436 -0.5915164 0.012357168 0.3707354 0.23475875 0.24022833 0.22910865 0.030222477
-1.2741536 0.27924353 0.21147586 0.38759392 0.16775051 -0.36288846 0.06767911 0.1924392
0.22796276 -0.036794215 0.2180575 -0.0014075488 0.21710545 -0.3365542 0.2691952 0.24118955
0.27053398 0.42180073 0.35935616 0.42516524 -1.1333694 0.3756718 0.17499673 0.17187773
0.5933608 -0.4657194 0.2634574 0.34740862 0.5116911 -0.20442052 0.37404993 -0.07990676
-0.17130944 -0.07632209 -0.028469011 -0.07336493 -0.110028505 -0.078608245 -0.03219089 -0.15984544
-0.089840576 0.18614677 0.18647039 -0.19187056 0.17329732 -0.146861 -0.00037804246 -0.060709238
-0.19719903 -0.21475807 -0.028375372 -0.007891223 0.16650432 -0.43185318 -0.23512153 0.08705262
0.1891041 0.20478679 0.2814392 0.214911 -1.4910164 0.1954023 0.17728083 0.0019250208
0.21074498 -0.4943851 0.09953134 0.1654845 0.06589985 -0.11633971 0.29232618 0.21558198
0.23203859 -0.3606192 -0.024447428 0.18307684 0.14959916 0.43044546 0.42947662 0.5404577
-1.6439154 0.5290604 0.27367607 0.12977324 0.41587952 -0.60168356 0.14939389 0.08873251
0.54052997 -0.1331905 0.43762872 0.20236984 0.71774 0.07151903 0.39883676 0.5921953
0.8180196 0.61157525 0.6161097 0.76345813 -0.083953135 0.80438787 0.69585735 0.719382
0.63438505 -0.09429923 0.60877436 0.69493026 0.6853364 -0.21704932 0.6818871 -0.21969366
0.5931948 0.121893205 0.3804235 0.44192412 0.45534045 0.7473268 0.5330608 0.46295184
-0.60139143 0.5632099 0.57125336 0.7300842 0.7478163 0.12127533 0.4805069 0.8211188
0.56483924 -0.10297887 0.5762099 0.17119199 0.28949016 0.13716893 0.5160902 0.44326994
0.26271364 0.6581956 0.4503506 0.6448885 -0.5985193 0.6067215 0.27441305 0.44024292
0.33994475 0.12416294 0.48611054 0.34397352 0.31038028 -0.021657363 0.62447506 0.19159544
0.11882702 0.034116942 -0.12608097 -0.16729292 -0.0012471725 0.016886035 -0.25198516 0.09273736
0.056149967 0.054765567 0.058656115 0.003714116 0.06702936 0.014734592 -0.11648937 -0.1861851
-0.107736774 0.20515016 -0.13392387 0.031452686 0.08624189 -0.12170838 0.023845237 0.15163064
0.08315358 0.10481381 0.31359804 0.1540778 -1.6936171 0.25138268 0.043938663 0.13148385
0.3866019 -0.6131414 0.13708863 0.12374252 0.22935005 -0.16926108 -0.0020032292 -0.18923837
0.6479039 0.01069607 0.3350698 0.6240145 0.6592807 0.35976633 0.39451596 0.38408586
-0.782173 0.57656527 0.61505145 0.5179451 0.3407764 0.19196667 0.6126948 0.42736188
00000000: 7876 713e 9a14 153f cd44 0b3f d5f2 933e
00000010: fe7a 003f d542 a13e dcca 073f 8d86 a53e
00000020: 77eb 163f e58c a63e 39e9 ba3e 3351 db3e
00000030: 9c87 573e 5156 623e c42d c93e ec7a cb3e
00000040: b2f7 a63e a091 b2bd 3e2c e23e 0075 beba
00000050: 472b 023e c03b 09bf 7b45 7d3c 34a8 21be
00000060: c8b8 3f3e 28e9 503e 252a 93bc a2e7 4b3d
00000070: bfd4 a0bf 5eef 733d 40c7 0a3d de42 3f3e
00000080: d65a fc3c 8aa9 20bf be9d 38be b181 223e
00000090: af74 843b 148b 593e 30e8 27be 3451 0cbd
000000a0: cc06 e43e 9e6d 17bf b875 4a3c 08d1 bd3e
000000b0: 9964 703e 6afe 753e 759b 6a3e 2195 f73c
000000c0: 7717 a3bf 02f9 8e3e 218d 583e b672 c63e
000000d0: cac6 2b3e 84cc b9be 589b 8a3d c80e 453e
000000e0: 126f 693e 88b5 16bd 774a 5f3e 807d b8ba
000000f0: e450 5e3e d550 acbe f4d3 893e 65fa 763e
00000100: 6e83 8a3e 44f6 d73e 88fd b73e 42af d93e
00000110: 4012 91bf 0e58 c03e 5832 333e b700 303e
00000120: 7ee6 173f c672 eebe e3e3 863e 8bdf b13e
00000130: 30fe 023f 9d53 51be 7983 bf3e 28a6 a3bd
00000140: be6b 2fbe c24e 9cbd d837 e9bc 5a40 96bd
00000150: a056 e1bd 5cfd a0bd 98da 03bd 86ae 23be
00000160: 56fe b7bd 429d 3e3e 18f2 3e3e b779 44be
00000170: da74 313e bb62 16be 0034 c6b9 40aa 78bd
00000180: 8bee 49be 8ae9 5bbe 7873 e8bc 304a 01bc
00000190: 1c80 2a3e dc1b ddbe b3c3 70be a548 b23d
000001a0: 81a4 413e a1b3 513e cc18 903e a111 5c3e
000001b0: a0d9 bebf 8a17 483e 1b89 353e fb50 fc3a
000001c0: 88cd 573e 0b20 fdbe 16d7 cb3d c574 293e
000001d0: 80f6 863d 8443 eebd c7ab 953e 86c1 5c3e
000001e0: 869b 6d3e 14a3 b8be f945 c8bc 7f78 3b3e
000001f0: 8630 193e 5963 dc3e 5ce4 db3e 705b 0a3f
00000200: d26b d2bf 8170 073f 451f 8c3e 47e3 043e
00000210: 29ee d43e ef07 1abf b6fa 183e 64b9 b53d
00000220: 2c60 0a3f 1763 08be df10 e03e 0a3a 4f3e
00000230: cfbd 373f 9278 923d 5534 cc3e 1c9a 173f
00000240: bc69 513f 3290 1c3f 5eb9 1d3f fe71 433f
00000250: 9fef abbd 5dec 4d3f b523 323f 6b29 383f
00000260: 0f67 223f f41f c1bd a3d8 1b3f f3e6 313f
00000270: 3572 2f3f 2d42 5ebe 2790 2e3f 60f7 60be
00000280: 9ddb 173f 25a3 f93d dec6 c23e e143 e23e
00000290: 6222 e93e cf50 3f3f ac76 083f 0608 ed3e
000002a0: caf4 19bf 862e 103f a93d 123f cce6 3a3f
000002b0: e470 3f3f 335f f83d 0005 f63e d734 523f
000002c0: 4e99 103f 96e6 d2bd 7e82 133f f44c 2f3e
000002d0: 0e38 943e 0376 0c3e 7d1e 043f 47f4 e23e
000002e0: 6782 863e 827f 283f 5b94 e63e 6a17 253f
000002f0: 9038 19bf 1a52 1b3f de7f 8c3e 8567 e13e
00000300: 3d0d ae3e 2449 fe3d 7be3 f83e 4c1d b03e
00000310: 2aea 9e3e c86a b1bc 99dd 1f3f 9831 443e
00000320: 955b f33d 35be 0b3d 5f1b 01be d64e 2bbe
00000330: 2a78 a3ba 9554 8a3c 3304 81be 16ed bd3d
00000340: 82fd 653d dc51 603d 6541 703d 8768 733b
00000350: b046 893d 5c69 713c fb91 eebd 4fa7 3ebe
00000360: 19a5 dcbd e212 523e 5723 09be 88d4 003d
00000370: 979f b03d 3e42 f9bd 1657 c33c 1045 1b3e
00000380: 6d4c aa3d 9fa8 d63d ec8f a03e 92c6 1d3e
00000390: 72c8 d8bf 3bb5 803e 07f9 333d b4a3 063e
000003a0: aff0 c53e d6f6 1cbf f660 0c3e b86c fd3d
000003b0: bdda 6a3e c752 2dbe 9c48 03bb b4c7 41be
000003c0: 08dd 253f 923e 2f3c 458e ab3e 6abf 1f3f
000003d0: 9fc6 283f 4b33 b83e fffd c93e e7a6 c43e
000003e0: 7d3c 48bf c899 133f 0374 1d3f 0d98 043f
000003f0: 3f7a ae3e e992 443e 91d9 1c3f 2dcf da3e

net.0.bias f4 [64]
1.0357345 0.24184297 -0.0035725178 0.4008383 -0.11929843 -0.0489833 0.03799504 0.65007794
0.57426286 0.50398415 -0.032763977 0.044757567 0.34599265 0.8290326 0.55181277 -0.2654417
0.52116066 0.22134216 -0.1683288 0.33271185 -0.038341627 -0.2822248 0.5423312 0.25998792
-0.15224601 -0.116010934 0.5857666 0.38934183 0.30670738 0.3549871 0.34782657 0.3234443
0.089772604 -0.2123485 0.066127606 0.5886453 0.3443427 0.29946962 -0.061347842 -0.6116571
-0.08826232 -0.1292336 0.4702884 0.7437083 0.3922395 0.31964973 0.4084874 0.5365599
-0.2643523 0.84176207 0.03378302 -0.13562064 -0.25982437 0.52575284 0.61448133 0.22741668
-0.18741916 0.033393256 0.3324016 -0.070773035 0.3979821 0.07745627 0.9676658 0.28660572
00000000: f392 843f afa5 773e e720 6abb ad3a cd3e
00000010: bc52 f4bd b6a2 48bd b0a0 1b3d 826b 263f
00000020: e402 133f 1b05 013f 8533 06bd b653 373d
00000030: f325 b13e 7b3b 543f 9a43 0d3f f9e7 87be
00000040: c96a 053f 85a7 623e 635e 2cbe 3559 aa3e
00000050: 1c0c 1dbd c57f 90be 38d6 0a3f 231d 853e
00000060: 61e6 1bbe 2497 edbd cdf4 153f d057 c73e
00000070: c008 9d3e dfc0 b53e 5316 b23e 7e9a a53e
00000080: b3da b73d e371 59be e96d 873d 75b1 163f
00000090: b04d b03e 1554 993e e047 7bbd 8f95 1cbf
000000a0: e0c2 b4bd d055 04be a4c9 f03e ab63 3e3f
000000b0: 9ed3 c83e 21a9 a33e 4325 d13e fd5b 093f
000000c0: 2f59 87be b87d 573f 1060 0a3d 23e0 0abe
000000d0: b307 85be bd97 063f a64e 1d3f ebdf 683e
000000e0: cfea 3fbe 5ec7 083d 8b30 aa3e 74f1 90bd
000000f0: 4fc4 cb3e 65a1 9e3d f2b8 773f fcbd 923e

net.2.weight f4 [32, 64]
0.7763992 0.14655161 -0.2134637 0.48141655 0.10614517 0.0075778184 -0.15592638 0.36704162
-0.31775182 0.123615995 -0.08718561 -0.19625753 -0.27810287 0.63207215 -0.030729618 -0.05898231
-0.46157083 -0.5431589 -0.049642805 -0.14797106 0.06767218 0.7266142 0.708326 0.41167474
0.52362424 -0.13077506 -0.1162421 0.05761493 -0.1470088 -0.23947926 -0.5935439 0.6240912
-0.13337275 0.28728968 0.19330704 0.042518873 -0.015732188 -0.28197542 -0.050419837 0.1910511
0.05989918 0.062027276 -0.10706608 -0.11995649 0.10568601 -0.64440495 -0.16500613 0.7883781
-0.076387696 0.6889604 0.057938576 0.3561115 0.14591166 0.10420963 0.8122895 -0.052651208
-0.10428464 -0.2780417 -0.3086947 0.37343678 0.31142336 -0.18756123 0.8449607 -0.10596373
1.042535 0.00340949 0.09029029 0.07936138 0.09765071 0.27115995 0.11486111 -0.6691856
0.095635645 0.17559615 -0.10004954 0.03938852 0.18180096 0.85878587 0.22691922 0.18616615
0.48200518 -0.08753132 0.10848404 0.07792779 0.049247086 1.6011293 0.055703927 -0.3957982
0.7581403 0.058056254 0.06954163 0.041145798 0.15511757 0.16594706 0.5820666 -1.028475
0.19961686 -0.0467314 0.5231722 0.07811678 0.14997411 -0.059363905 -0.039120242 0.26485115
0.10815699 0.015353254 0.47387075 0.06440934 0.22766985 0.6960181 -0.017308425 0.44877565
0.13929124 0.83990914 -0.2580817 0.5877412 -0.028510217 0.8037516 0.78005755 0.15052865
0.047256205 0.22600599 0.18943562 0.08300859 -0.5026092 0.05369817 -0.76815206 0.08618675
1.4053708 0.03613207 -0.24825807 -0.16694514 0.032396868 -0.19338393 -0.27171725 0.60023266
-0.100122295 0.020118166 -0.080406666 -0.05058723 -0.24290085 1.0842477 -0.0026276049 -0.03641495
-0.42262784 0.15779868 -0.06280021 0.021876004 0.124060184 1.4770164 0.8224732 0.4220685
-0.011747953 -0.2947683 0.46449828 0.91097164 -0.22006786 -0.11086537 0.44841668 1.044154
0.012837008 0.1785777 0.03061514 0.15556794 -0.12851045 -0.14506827 -0.012572244 0.6364413
0.028824447 0.0076370463 0.026339667 -0.00062272383 -0.099380806 -0.05161027 0.20278573 0.113124005
-0.23109235 0.06857581 0.39221695 -0.078787625 0.06135045 0.7624768 0.12578668 -0.05133811
-0.05511381 0.7681674 0.012710222 0.005383998 0.57442397 -0.23136361 0.4998869 -0.05463755
0.1383244 0.10625472 0.026428789 0.065606356 -0.004723564 0.06857626 -0.120491564 -0.10789392
-0.077859275 0.013828905 -0.06361376 -0.06430826 -0.091542915 -0.04083116 0.0769708 0.011535576
0.03952916 -0.0055820667 0.086089924 0.051366232 -0.029950276 0.003922807 0.062392797 -0.067951456
-0.004560547 -0.1435747 -0.09405099 0.103073165 0.07767962 -0.12088576 -0.03279422 -0.09608031
0.03806038 -0.055100113 -0.078333676 -0.108072065 0.033704948 -0.100986764 -0.07205349 0.055578873
0.116077155 0.03879478 -0.051042024 0.007943819 -0.053960714 0.048608642 -0.0032608116 0.0011606095
-0.18149033 0.049229454 -0.097971685 -0.069940105 -0.019042995 -0.033974305 0.022115383 0.11287083
0.006726506 -0.07573172 -0.10733833 0.077716835 0.08532824 0.033109866 0.09299566 -0.013531934
00000000: 19c2 463f a011 163e 3a96 5abe 3b7c f63e
00000010: a462 d93d 594f f83b 2aab 1fbe e1ec bb3e
00000020: 5eb0 a2be 622a fd3d 5e8e b2bd bcf7 48be
00000030: 8063 8ebe 7bcf 213f aebc fbbc 6f97 71bd
00000040: 0353 ecbe 760c 0bbf 4156 4bbd ba85 17be
00000050: b697 8a3d 6303 3a3f da54 353f 08c7 d23e
00000060: 3d0c 063f e6e9 05be 5710 eebd a2fd 6b3d
00000070: 7a89 16be 0d3a 75be 7ef2 17bf 71c4 1f3f
00000080: de92 08be a217 933e 48f2 453e 4528 2e3d
00000090: cae0 80bc 155f 90be 0885 4ebd e6a2 433e
000000a0: d858 753d 5010 7e3d 7645 dbbd c0ab f5bd
000000b0: e871 d83d b9f7 24bf 5ef7 28be 26d3 493f
000000c0: 2771 9cbd b55f 303f 0051 6d3d 3f54 b63e
000000d0: de69 153e dc6b d53d 34f2 4f3f cba8 57bd
000000e0: 2f93 d5bd 7b5b 8ebe 3b0d 9ebe 1b33 bf3e
000000f0: e272 9f3e 0d10 40be 584f 583f 8303 d9bd
00000100: c971 853f c071 5f3b 1eea b83d 3888 a23d
00000110: 18fd c73d 7ad5 8a3e 4d3c eb3d bf4f 2bbf
00000120: 9fdc c33d 7acf 333e c6e6 ccbd db55 213d
00000130: 082a 3a3e 64d9 5b3f 835d 683e 57a2 3e3e
00000140: 62c9 f63e 9f43 b3bd e12c de3d 9b98 9f3d
00000150: 50b7 493d cef1 cc3f cd29 643d 10a6 cabe
00000160: 7c15 423f 65cc 6d3d d86b 8e3d 7f88 283d
00000170: 24d7 1e3e 07ee 293e 5102 153f 12a5 83bf
00000180: 5d68 4c3e 6d69 3fbd 9dee 053f b1fb 9f3d
00000190: d092 193e 9127 73bd 8c3c 20bd 929a 873e
000001a0: 6981 dd3d 378c 7b3c 309f f23e 0be9 833d
000001b0: 4922 693e 3e2e 323f 66ca 8dbc ecc5 e53e
000001c0: 5da2 0e3e 4904 573f 4923 84be 3576 163f
000001d0: 428e e9bc aac2 4d3f dab1 473f 2f24 1a3e
000001e0: b98f 413d 1d6e 673e 69fb 413e 6800 aa3d
000001f0: ffaa 00bf 9df2 5b3d 9da5 44bf ae82 b03d
00000200: 31e3 b33f 39ff 133d 5d37 7ebe abf3 2abe
00000210: 94b2 043d 7006 46be 861e 8bbe d9a8 193f
00000220: eb0c cdbd dace a43c 40ac a4bd 8e34 4fbd
00000230: 00bb 78be a1c8 8a3f e533 2cbb d827 15bd
00000240: ad62 d8be fa95 213e 669d 80bd 4e35 b33c
00000250: 4413 fe3d e00e bd3f 9b8d 523f 5d19 d83e
00000260: 7c7a 40bc dfeb 96be b8d2 ed3e 7035 693f
00000270: 7859 61be 620d e3bd df96 e53e d7a6 853f
00000280: 5052 523c 13dd 363e 9acc fa3c 344d 1f3e
00000290: 3e98 03be c78c 14be d0fb 4dbc d1ed 223f
000002a0: 3f21 ec3c 3040 fa3b 49c6 d73c 4a3e 23ba
000002b0: 2a88 cbbd 4a65 53bd 10a7 4f3e 8fad e73d
000002c0: 79a3 6cbe 7971 8c3d a9d0 c83e 685b a1bd
000002d0: 9c4a 7b3d ae31 433f 39ce 003e e947 52bd
000002e0: 05bf 61bd 9ea6 443f 893e 503c 406c b03b
000002f0: 730d 133f 95ea 6cbe 2df1 ff3e a0cb 5fbd
00000300: e9a4 0d3e 139c d93d 3081 d83c a05c 863d
00000310: 20c8 9abb b671 8c3d 48c4 f6bd 7df7 dcbd
00000320: af74 9fbd a292 623c ee47 82bd 0db4 83bd
00000330: da7a bbbd 933e 27bd dea2 9d3d b6ff 3c3c
00000340: 54e9 213d c5e9 b6bb ea4f b03d 6665 523d
00000350: 485a f5bc e48a 803b 978f 7f3d 222a 8bbd
00000360: a470 95bb 3f05 13be ce9d c0bd 0618 d33d
00000370: 7e16 9f3d f492 f7bd 3b53 06bd c1c5 c4bd
00000380: 33e5 1b3d a8b0 61bd 686d a0bd e354 ddbd
00000390: 330e 0a3d 26d2 cebd c890 93bd aca6 633d
000003a0: dcb9 ed3d 46e7 1e3d 7111 51bd cb26 023c
000003b0: e905 5dbd db19 473d 57b3 55bb 981f 983a
000003c0: 9ad8 39be d3a4 493d 61a5 c8bd c23c 8fbd
000003d0: 0e00 9cbc a428 0bbd 522b b53c d228 e73d
000003e0: 066a dc3b 3b19 9bbd 33d4 dbbd 012a 9f3d
000003f0: 93c0 ae3d 369e 073d 8274 be3d 0bb5 5dbc

net.2.bias f4 [32]
-0.31131345 -0.17698792 -0.051751263 -0.09510464 -0.060023427 0.10558784 0.15223755 -0.05327022
-0.019854974 0.122341014 0.051224455 -0.006073573 0.07078722 0.04132839 -0.12879056 -0.075919755
0.21920615 -0.19166479 -0.20407745 -0.13504778 -0.17046766 0.026473759 0.15953617 -0.05694151
-0.35862055 -0.09683951 0.025502978 0.041205037 -0.04768476 0.026646456 0.05823611 -0.047147743
00000000: 7a64 9fbe 523c 35be 22f9 53bd 39c6 c2bd
00000010: 20db 75bd 703e d83d 29e4 1b3e e031 5abd
00000020: e6a6 a2bc ed8d fa3d bcd0 513d d304 c7bb
00000030: e4f8 903d f547 293d ace1 03be d17b 9bbd
00000040: 9477 603e c643 44be aef9 50be f749 0abe
00000050: 138f 2ebe 7fdf d83c 735d 233e 803b 69bd
00000060: 1d9d b7be cb53 c6bd 9feb d03c 9dc6 283d
00000070: 1851 43bd ab49 da3c fd88 6e3d fe1d 41bd

net.4.weight f4 [1, 32]
0.017461285 -0.21002531 0.5983645 0.09957573 -0.80240536 0.17385747 -0.57824296 -0.0072084847
0.021370644 0.0015902971 -0.8096335 0.033532474 -0.07956354 -0.38004422 -0.16657424 0.09956251
0.9302001 -0.5601143 -0.61157346 0.12342512 -0.31728718 0.0059692487 0.305365 0.015797883
-0.046964116 0.055017237 0.0011696628 0.038357493 -0.26395237 -0.5608805 -0.13884139 -0.008838749
00000000: f80a 8f3c e010 57be 6a2e 193f 5cee cb3d
00000010: 706a 4dbf b107 323e bb07 14bf 2735 ecbb
00000020: 7d11 af3c 8471 d03a 2444 4fbf 5959 093d
00000030: 36f2 a2bd 2895 c2be 7092 2abe 6ee7 cb3d
00000040: 9821 6e3f a763 0fbf 1490 1cbf 4fc6 fc3d
00000050: 7773 a2be b099 c33b cd58 9c3e 906a 813c
00000060: 725d 40bd c159 613d 5f4f 993a bf1c 1d3d
00000070: c424 87be dd95 0fbf 702c 0ebe 66d0 10bc
