Trading_Model/trading_model_GBPUSD.pth (torch, 16650 bytes, 5 tensors)

net.0.weight f4 [64, 20]
-0.09330894 0.04594374 0.05172707 -0.09072297 0.06815418 -0.15965894 0.14657567 0.072962336
-0.07034032 0.032413002 -0.2339294 -0.2531002 -0.14512885 0.14344624 0.123652376 -0.10288395
0.02866822 -0.06019597 -0.14377975 -0.19023333 0.15231352 -0.16596594 0.1358524 0.0638586
0.13778624 -0.014271425 -0.22741428 -0.0030635581 -0.06525384 -0.19317974 -0.15383527 -0.16529007
0.15970828 -0.1402928 0.14999859 -0.18816732 0.0005627293 -0.03794561 -0.18607463 0.037381377
-0.18509784 -0.09423164 -0.027124967 0.050628968 -0.027618865 -0.13211139 0.12038884 0.094900176
0.067157015 -0.06771895 0.07809778 -0.21452577 -0.14245343 -0.047295928 -0.19041798 0.1367709
-0.05969557 -0.12146361 -0.09892995 0.08391405 -0.09272656 -0.0921955 -0.113653325 -0.1771148
-0.19653085 -0.048208706 0.08530048 -0.16229908 0.17666917 -0.23891148 -0.19964598 0.052792147
-0.023509687 -0.1931951 -0.4409124 0.21202646 -0.13991655 0.07290868 -0.12917419 -0.1919774
0.13214107 -0.0025533203 -0.04639824 -0.17567798 0.14040703 -0.15639356 0.12892863 -0.08123831
-0.16091728 -0.04034394 -0.015792416 -0.0015099446 -0.11857344 -0.00046525607 0.04557721 0.10501705
0.08003495 0.09234487 -0.2447387 -0.013967546 -0.07792174 -0.13120122 -0.15363374 -0.1409336
-0.10137418 0.03340009 -0.09857567 -0.07309045 0.083725095 -0.28329644 0.112616666 -0.149426
-0.20176591 0.31416586 -0.3371992 -0.14888927 -0.118169636 -0.014356487 -0.1226632 -0.23481694
0.0039819498 -0.45831537 0.030900087 -0.0009557279 -0.0039934795 0.38895646 0.08046579 0.022412786
-0.8360077 0.10921581 -0.09126742 -0.26705444 -0.1107558 0.13362163 0.20383203 -0.28611442
0.36178622 0.030334767 0.15236895 -0.24853739 -0.22944568 0.016468419 -0.6352496 0.16031921
0.15881595 0.01513863 -0.17715856 -0.26125348 0.49082097 0.018656835 -0.050110195 -0.19773382
-0.16137654 0.1258873 0.06781736 -0.38641232 0.05612013 0.054675035 -0.4166899 0.27217853
-0.097673714 -0.009445809 -0.05201568 -0.27894783 -0.19937822 -0.31759396 -0.0770701 -0.3372493
0.38238975 0.16405804 -0.04063909 0.08796842 0.028906088 0.24177642 -0.84529626 0.73164916
-0.12609275 0.0870927 -0.12697436 -0.12906952 -0.09640746 -0.06369414 -0.1426754 -0.15972148
-0.04257152 -0.03660897 -0.00070848875 -0.035121996 -0.254191 -0.074870676 0.078748345 -0.10554259
-0.17028289 -0.3472018 -0.24126182 -0.03352855 -0.035491277 -0.17174238 -0.020744888 -0.24172364
0.1335465 0.14204548 -0.112719156 0.061016366 -0.24826266 0.091741815 -0.019528676 0.071155064
-0.15713093 -0.07767515 0.12950301 -0.120863765 -0.20415434 -0.023317214 0.03038754 -0.029765224
-0.1173606 0.062197104 -0.023174042 0.11568673 0.1263511 0.09807128 -0.16697547 0.12687697
-0.17644311 0.1587964 -0.046610404 -0.11291512 -0.21497773 0.06479753 0.09333224 -0.20088401
-0.1263701 -0.046722163 0.01884953 -0.14566554 0.18572772 -0.037089176 -0.07459208 -0.12531042
0.0027395242 -0.041880004 -0.026610246 -0.18951786 0.18266189 -0.055952992 -0.19232884 -0.06635525
0.6569883 0.027917868 0.062172897 0.091885746 0.13498195 -0.047910094 -0.47482532 0.18891364
00000000: c218 bfbd 812f 3c3d c4df 533d f7cc b9bd
00000010: 6b94 8b3d a27d 23be ef17 163e 476d 953d
00000020: 960e 90bd 7fc3 043d 308b 6fbe 5996 81be
00000030: a89c 14be 92e3 123e 753d fd3d d2b4 d2bd
00000040: 9dd9 ea3c 0d90 76bd 003b 13be 87cc 42be
00000050: 13f8 1b3e faf2 29be e41c 0b3e 4cc8 823d
00000060: d617 0d3e b2d2 69bc 4adf 68be fac5 48bb
00000070: cea3 85bd e9d0 45be fe86 1dbe cd41 29be
00000080: 918a 233e eaa8 0fbe 3b99 193e efae 40be
00000090: 2084 133a db6c 1bbd 598a 3ebe 371d 193d
000000a0: 4a8a 3dbe 85fc c0bd 2e35 debc 5260 4f3d
000000b0: f540 e2bc 3548 07be 6d8e f63d 065b c23d
000000c0: 9e89 893d 3cb0 8abd bbf1 9f3d a5ac 5bbe
000000d0: 50df 11be 60b9 41bd eefc 42be ac0d 0c3e
000000e0: 5883 74bd eac1 f8bd c99b cabd 21db ab3d
000000f0: 6ce7 bdbd ffd0 bcbd 13c3 e8bd 955d 35be
00000100: 623f 49be 7e76 45bd 05b2 ae3d bb31 26be
00000110: c3e8 343e 36a5 74be ff6f 4cbe 943c 583d
00000120: 6397 c0bc f0d4 45be 45bf e1be 771d 593e
00000130: 4946 0fbe 2551 953d 3d46 04be b995 44be
00000140: fd4f 073e 9b55 27bb 150c 3ebd eee4 33be
00000150: dcc6 0f3e a225 20be de05 043e 4560 a6bd
00000160: 80c7 24be b03f 25bd 195f 81bc 55e9 c5ba
00000170: a2d6 f2bd 9ded f3b9 2baf 3a3d 2e13 d73d
00000180: 5de9 a33d 4f1f bd3d c89c 7abe 22d8 64bc
00000190: 6f95 9fbd 9d59 06be 2a52 1dbe e650 10be
000001a0: 449d cfbd 88ce 083d 0ae2 c9bd 72b0 95bd
000001b0: 1078 ab3d 3b0c 91be 91a3 e63d 2103 19be
000001c0: b99b 4ebe 59da a03e 60a5 acbe 6e76 18be
000001d0: ec02 f2bd 7937 6bbc d836 fbbd da73 70be
000001e0: 047b 823b 50a8 eabe 2e22 fd3c d089 7aba
000001f0: bcdb 82bb 4d25 c73e 40cb a43d 059b b73c
00000200: 9a04 56bf 8aac df3d 6aea babd 5cbb 88be
00000210: f0d3 e2bd 1cd4 083e 58b9 503e 977d 92be
00000220: 0b3c b93e 9e80 f83c 9b06 1c3e 9680 7ebe
00000230: cff3 6abe c7e8 863c b89f 22bf b82a 243e
00000240: a6a0 223e 0408 783c 0e69 35be 04c3 85be
00000250: e34c fb3e 38d6 983c 5940 4dbd bc7a 4abe
00000260: e43f 25be 9ae8 003e d4e3 8a3d d6d7 c5be
00000270: 39de 653d eef2 5f3d 6158 d5be fc5a 8b3e
00000280: 2809 c8bd 98c2 1abc 650e 55bd 40d2 8ebe
00000290: ce29 4cbe ad9b a2be eed6 9dbd f1ab acbe
000002a0: 97c8 c33e d5fe 273e 2d75 26bd c928 b43d
000002b0: 76cc ec3c 3d94 773e 5665 58bf 5c4d 3b3f
000002c0: 751e 01be a85d b23d 9105 02be cd2a 04be
000002d0: 4671 c5bd 1372 82bd 8019 12be 078e 23be
000002e0: 795f 2ebd 4af3 15bd e0b9 39ba 15dc 0fbd
000002f0: 5325 82be cc55 99bd d046 a13d b726 d8bd
00000300: a35e 2ebe 6fc4 b1be 570d 77be 3c55 09bd
00000310: 4d5f 11bd 3cdd 2fbe 2ff1 a9bc 6786 77be
00000320: 6ac0 083e 5f74 113e 4dd9 e6bd 4cec 793d
00000330: 9138 7ebe 22e3 bb3d 9afa 9fbc bfb9 913d
00000340: eee6 20be 2614 9fbd 709c 043e 6c87 f7bd
00000350: d60d 51be be03 bfbc 4aef f83c 33d6 f3bc
00000360: c15a f0bd 64c2 7e3d 7dd7 bdbc 2aed ec3d
00000370: 2f62 013e 98d9 c83d 9efb 2abe 09ec 013e
00000380: 81ad 34be 869b 223e 8dea 3ebd 0b40 e7bd
00000390: 1f23 5cbe 91b4 843d f924 bf3d 8ab4 4dbe
000003a0: 2a67 01be bd5f 3fbd 546a 9a3c 5929 15be
000003b0: 682f 3e3e d2ea 17bd bcc3 98bd 6051 00be
000003c0: 9789 333b 5e8a 2bbd bbfd d9bc f810 42be
000003d0: b80b 3b3e f72e 65bd daf1 44be 43e5 87bd
000003e0: 6330 283f 03b4 e43c 02a9 7e3d 982e bc3d
000003f0: b538 0a3e 603d 44bd 4e1c f3be 9472 413e

net.0.bias f4 [64]
-0.046939082 -0.15758027 -0.0014264904 0.16947363 -0.23402774 0.060653 -0.06720324 0.14209467
0.12695046 0.19880909 -0.24888583 -0.118461475 0.2037196 0.064700164 0.31857592 -0.03676434
0.014787199 -0.009036782 0.042786982 0.09228186 -0.12585169 -0.11314964 0.1412275 -0.03749144
0.014468181 -0.23210746 -0.067947716 -0.19683875 -0.23106955 -0.13209341 0.16900256 0.3556548
0.18576187 0.3539396 -0.08652036 -0.02127661 -0.19399118 0.20464507 -0.25129148 0.086726
-0.06762825 0.024147194 0.03758711 -0.03642817 0.036100067 0.0978651 -0.12345464 -0.21696873
0.20118971 0.07539092 -0.034108344 0.114606716 -0.17888215 -0.08731174 0.1997466 0.04243858
-0.20700556 0.050685037 0.023911191 0.06130421 -0.07325812 -0.13366666 -0.12808707 -0.123342864
00000000: 3243 40bd b95c 21be 13f9 baba 7f8a 2d3e
00000010: f8a4 6fbe 486f 783d daa1 89bd 4481 113e
00000020: 4dff 013e 9c94 4b3e eddb 7ebe ee9b f2bd
00000030: df9b 503e 8581 843d 621c a33e 3496 16bd
00000040: 0246 723c 030f 14bc 6741 2f3d 46fe bc3d
00000050: 44df 00be 00bb e7bd f19d 103e a090 19bd
00000060: f30b 6d3c 94ad 6dbe 2c28 8bbd 1990 49be
00000070: 7f9d 6cbe 7f43 07be 020f 2d3e 6318 b63e
00000080: 5c38 3e3e 9237 b53e 9631 b1bd 494c aebc
00000090: a0a5 46be 7a8e 513e 47a9 80be 679d b13d
000000a0: ae80 8abd 56d0 c53c f1f4 193d b435 15bd
000000b0: aadd 133d 7f6d c83d c9d5 fcbd 0d2d 5ebe
000000c0: ad04 4e3e 8e66 9a3d 31b5 0bbd edb6 ea3d
000000d0: e22c 37be 7fd0 b2bd 5f8a 4c3e 14d4 2d3d
000000e0: 44f9 53be 1d9b 4f3d 67e1 c33c 201a 7b3d
000000f0: 5a08 96bd eadf 08be 4229 03be 2f9b fcbd

net.2.weight f4 [32, 64]
0.05071887 -0.0012067633 -0.08979469 0.013831723 -0.06814385 0.05524321 -0.009439864 -0.06345622
0.044995334 -0.0011357231 -0.025114799 -0.0149748 0.09917047 -0.11108591 0.018803874 0.0053406386
-0.03621462 0.019714268 -0.06657638 -0.072761975 -0.07133022 0.00036610028 0.07349705 -0.06693582
0.0020497874 0.07066611 -0.046412453 -0.023004577 0.0020222163 0.00059525407 0.14258587 0.021887122
-0.086458355 -0.045651317 -0.09031837 0.09776283 -0.050866295 0.12712243 0.5565737 0.0050719227
0.014111371 0.08383773 0.03909921 0.014962222 -0.07953104 -0.010485387 0.004586334 -0.12436563
0.024421792 0.048485886 -0.097935125 0.07228181 -0.09001416 0.10927081 -0.09944456 0.08969275
0.0150911035 0.042898975 0.06426625 -0.024758352 -0.10779101 -0.08883716 0.087902464 0.1282812
-0.09070062 -0.046012715 0.06288838 0.023978129 0.045801565 0.046571225 -0.055915177 -0.066281416
0.036157206 0.019192845 0.043778278 0.049304247 -0.053284004 -0.06904459 0.06495795 0.064115554
-0.052894503 0.08935147 0.07134041 -0.091867894 0.00045914948 0.048233032 0.06466354 0.08733544
-0.12525466 0.060795322 -0.040899053 -0.11028964 0.03968741 -0.04192812 0.019906737 0.091482505
-0.11690818 -0.06554058 -0.10247086 0.02024819 -0.07490176 -0.10681394 -0.09712645 -0.05277335
-0.05749339 0.016382188 0.058643237 0.118054114 -0.049448673 0.09393954 -0.0876987 -0.044708148
-0.09439491 -0.07783179 -0.015481457 0.08247928 0.068567276 -0.1178662 0.088452294 0.09222265
0.10971824 -0.0927433 -0.09798826 -0.05306387 -0.035214648 -0.08862667 -0.110488296 0.068444446
0.044751156 -0.021635924 0.039855275 -0.012818578 0.034493662 0.13025163 -0.19666666 -0.011473004
0.23735099 -0.11428947 0.08134956 -0.010667045 -0.1639196 -0.25810927 0.028401494 -0.022510681
0.055438947 -0.0097018285 0.078802295 0.01948423 0.110591225 0.08027052 -0.014080102 0.04333332
-0.0073747807 0.06748844 0.011120272 -0.0858495 0.06923646 0.08265046 0.10259967 -0.09436882
-0.2806343 -0.02120759 0.104101226 0.09436481 -0.027922599 -0.0389527 0.48895016 0.010218428
-0.01865198 -0.048470244 -0.055763863 0.056368224 -0.08362074 0.047298405 -0.049434822 0.042927787
-0.070626885 -0.004371234 0.119064726 -0.06894522 -0.033989593 0.07551115 -0.14540732 -0.041797116
0.09949645 -0.09786807 0.04490182 -0.103115365 0.019529894 -0.08329977 0.07110672 0.080213636
-0.047188714 0.0017129689 -0.044566046 0.044855364 -0.1254826 0.07943833 0.10232263 -0.13514607
-0.12262115 -0.065033704 -0.04997625 -0.09204377 -0.14478265 -0.09009077 0.056542557 -0.010472595
-0.06766918 0.07932206 0.02393315 0.022429692 0.06975709 -0.009434733 -0.0013009503 0.12108098
-0.1130657 0.0036721826 -0.13345921 -0.020918174 -0.020553378 -0.09682216 -0.024153214 0.025654806
0.09327374 0.04581081 0.019281352 0.065732904 -0.02346351 0.026383813 -0.08790237 -0.05321874
0.03772658 0.04738406 -0.04439511 0.02656562 0.033439156 -0.071479835 -0.024344688 0.023872018
-0.15690604 -0.002520577 0.10206725 0.034506515 0.091581166 -0.0289716 -0.04816925 -0.011408483
0.0073641622 -0.028760742 -0.090138964 -0.097932406 -0.07958081 -0.10571495 -0.08384598 -0.12742989
00000000: 97be 4f3d 422c 9eba 47e6 b7bd 739e 623c
00000010: 018f 8bbd b446 623d a9a9 1abc 56f5 81bd
00000020: 074d 383d 8bdc 94ba 8dbd cdbc dd58 75bc
00000030: e319 cb3d 0281 e3bd 950a 9a3c 8600 af3b
00000040: c855 14bd d17f a13c 3259 88bd 3b04 95bd
00000050: 9415 92bd 26f1 bf39 9f85 963d a615 89bd
00000060: ba55 063b 65b9 903d fc1a 3ebd 1874 bcbc
00000070: 2987 043b d30a 1c3a 0802 123e 9f4c b33c
00000080: 1411 b1bd e0fc 3abd d6f8 b8bd e137 c83d
00000090: 2d59 50bd 622c 023e 9d7b 0e3f 5f32 a63b
000000a0: 6133 673c 1eb3 ab3d 7e26 203d 1c24 753c
000000b0: 2be1 a2bd e7ca 2bbc f548 963b 68b3 febd
000000c0: 3610 c83c 2399 463d 3692 c8bd 7c08 943d
000000d0: 5859 b8bd 60c9 df3d 97a9 cbbd d5b0 b73d
000000e0: ad40 773c d6b6 2f3d 069e 833d 07d2 cabc
000000f0: 88c1 dcbd 42f0 b5bd 3506 b43d 265c 033e
00000100: 3fc1 b9bd d477 3cbd 9fcb 803d c86d c43c
00000110: 6c9a 3b3d 78c1 3e3d 5007 65bd 8dbe 87bd
00000120: 9419 143d 503a 9d3c da50 333d 40f3 493d
00000130: 5440 5abd 4067 8dbd ac08 853d 044f 833d
00000140: e8a7 58bd e7fd b63d ec1a 923d 3c25 bcbd
00000150: 00ba f039 0090 453d 516e 843d ecdc b23d
00000160: c242 00be 8404 793d c485 27bd 89df e1bd
00000170: 448f 223d d2bc 2bbd 7413 a33c 2e5b bb3d
00000180: 8e6d efbd 243a 86bd 3edc d1bd 88df a53c
00000190: 1866 99bd 44c1 dabd 3bea c6bd de28 58bd
000001a0: 307e 6bbd f033 863c e433 703d 5bc6 f13d
000001b0: b18a 4abd 6063 c03d 609b b3bd e41f 37bd
000001c0: 1e52 c1bd 4666 9fbd f0a5 7dbc e6ea a83d
000001d0: 006d 8c3d d663 f1bd 7a26 b53d 3bdf bc3d
000001e0: f5b3 e03d 33f0 bdbd 12ae c8bd 8059 59bd
000001f0: 3c3d 10bd e681 b5bd b047 e2bd 9a2c 8c3d
00000200: fd4c 373d d23d b1bc 493f 233d 0305 52bc
00000210: 3a49 0d3d af60 053e fc62 49be 44f9 3bbc
00000220: 230c 733e 9910 eabd 999a a63d d4c4 2ebc
00000230: 8ada 27be e626 84be 40aa e83c 5268 b8bc
00000240: f313 633d 6bf4 1ebc 1963 a13d 649d 9f3c
00000250: a77d e23d df64 a43d 3ab0 66bc 487e 313d
00000260: 25a8 f1bb 6137 8a3d cd31 363c ddd1 afbd
00000270: d8cb 8d3d a544 a93d c71f d23d 7144 c1bd
00000280: 4daf 8fbe 8abb adbc 0633 d53d 5642 c13d
00000290: efbd e4bc de8c 1fbd ad57 fa3e 326b 273c
000002a0: 0acc 98bc bc88 46bd a668 64bd 5ee2 663d
000002b0: 5a41 abbd f9bb 413d 2b7c 4abd 0cd5 2f3d
000002c0: d4a4 90bd 923c 8fbb 35d8 f33d 2733 8dbd
000002d0: ac38 0bbd 97a5 9a3d a8e5 14be 7433 2bbd
000002e0: cbc4 cb3d 0e6f c8bd f9ea 373d 262e d3bd
000002f0: 28fd 9f3c 1299 aabd 66a0 913d 0c47 a43d
00000300: f448 41bd b385 e03a e38a 36bd 42ba 373d
00000310: 837e 00be 90b0 a23d 878e d13d bb63 0abe
00000320: cc20 fbbd 6430 85bd e5b3 4cbd 7281 bcbd
00000330: e741 14be 8281 b8bd 2b99 673d 3f95 2bbc
00000340: 2496 8abd 9b73 a23d 740f c43c 79be b73c
00000350: cedc 8e3d 2394 1abc a684 aaba 4ef9 f73d
00000360: fd8e e7bd 00a9 703b 88a9 08be 975c abbc
00000370: 8f5f a8bc b24a c6bd f6dc c5bc 072a d23c
00000380: 4d06 bf3d 1ea4 3b3d edf3 9d3c f99e 863d
00000390: 8c36 c0bc de22 d83c 2806 b4bd e5fb 59bd
000003a0: 3087 1a3d ca15 423d a6d7 35bd 25a0 d93c
000003b0: 7ff7 083d 0564 92bd 836e c7bc 408f c33c
000003c0: faab 20be 4430 25bb a208 d13d b456 0d3d
000003d0: e88e bb3d d955 edbc 1f4d 45bd a5ea 3abc
000003e0: 124f f13b a69b ebbc c79a b8bd c990 c8bd
000003f0: 44fb a2bd 1481 d8bd 71b7 abbd fb7c 02be

net.2.bias f4 [32]
0.21088709 -0.09145783 0.18880719 -0.061089173 0.033219267 -0.07355078 -0.03147019 -0.07595078
-0.14442444 0.21428107 -0.08668329 -0.12666847 -0.14424849 0.33803183 -0.021143913 0.339349
-0.05980904 -0.0888343 -0.009978225 -0.041547544 -0.073583014 0.048165694 -0.10625516 0.34232858
-0.071675524 -0.051071387 -0.06562137 -0.04376789 -0.027949449 -0.029242821 0.1340941 -0.1019622
00000000: c9f2 573e 3e4e bbbd ac56 413e a438 7abd
00000010: ed10 083d cba1 96bd e3e6 00bd 158c 9bbd
00000020: 00e4 13be 7f6c 5b3e 0287 b1bd 61b5 01be
00000030: e0b5 13be 8212 ad3e 0036 adbc 27bf ad3e
00000040: 53fa 74bd c2ee b5bd b67b 23bc c22d 2abd
00000050: b1b2 96bd 6449 453d 4e9c d9bd b145 af3e
00000060: 9eca 92bd 3b30 51bd 7f64 86bd f645 33bd
00000070: 3ef6 e4bc a48e efbc f74f 093e 8fd1 d0bd

net.4.weight f4 [1, 32]
0.11832231 -0.025541274 0.07715054 -0.15427051 -0.079204015 -0.048336476 -0.025853593 -0.06928547
0.015027528 0.14275116 -0.00040083023 0.025027104 -0.010725019 0.21730398 0.015587957 0.18828069
-0.11285144 0.021488022 -0.06708527 -0.0223495 0.0072057117 0.02705033 -0.028491553 0.18345688
0.0038860345 -0.06778816 0.00028319957 -0.14454879 0.008526605 -0.075916894 0.045894746 -0.004158912
00000000: f852 f23d ef3b d1bc 1a01 9e3d 17f9 1dbe
00000010: b735 a2bd 78fc 45bd eaca d3bc 8ae5 8dbd
00000020: 0536 763c 5c2d 123e 8626 d2b9 a405 cd3c
00000030: fdb7 2fbc ef84 5e3e a164 7f3c a7cc 403e
00000040: a81e e7bd a607 b03c 0164 89bd 4c16 b7bc
00000050: e41d ec3b a798 dd3c 1e67 e9bc 1fdc 3b3e
00000060: d7ac 7e3b 85d4 8abd 677a 9439 9904 14be
00000070: 2cb3 0b3c 517a 9bbd 21fc 3b3d 7c47 88bb
