Trading_Model/trading_model_GER40.pth (torch, 22272 bytes, 5 tensors)

net.0.weight f4 [64, 42]
00000000: d312 b3bd c39a ecbd a78f adbd f71e 09bd
00000010: 03d9 c5bc ec11 a53c c67c 83bd 9a75 9abd
00000020: b4d6 3cbd 1fa8 1bbe 3537 803d 7755 eabd
00000030: 1247 603d 6975 aa3c ea23 8d3c 5e6d 45be
00000040: 6540 a13b 38bf 6ebd 2739 203d 0fc8 763d
00000050: 9d0c 363d 81d9 013d 5a5d 153d ed58 0abd
00000060: ebc6 30be ad52 763d a620 3bbc 9e26 1ebe
00000070: c5e3 3bbe 3d91 72bd 1e9a 89bd 3389 903c
00000080: b8f1 e83d 834a d0bc 0778 03be 7ccf c83d
00000090: bf4d f93c f277 c43d 1ab3 7f3c df7b 113d
000000a0: 4c20 e6bd 4e6a 12b7 5ee1 623c 225d a2bd
000000b0: 820a cebd 4758 453d 1c0a 02be 8e3f 42be
000000c0: 8f9b 8cbd e7c0 953d 7547 4b3d 3152 893c
000000d0: 3ee7 663d 5d3f 8c3c e37c 08be c728 113e
000000e0: 530e 63bd c8ba 82bd 7ef9 653c 64e2 18be
000000f0: 90e6 4c39 cd68 693d 972d e43d 4ee8 f83d
00000100: cf36 eebd b784 f1bd 1e61 58be 3092 edbd
00000110: 8fb5 94be 8c97 98be 2ee9 913d aa32 a0bc
00000120: 63d6 fdbc 6270 afbd 713f 0dbe fd68 e23d
00000130: 38f8 e5bd a3db 40be a413 f5bd e03f 88be
00000140: 43ab 80be dc44 e33d c2c5 0dbe 4c50 f83b
00000150: 080f 443b d773 973d a34e 6cbd f45a a0bd
00000160: 6ee8 cbbd c63d a5bd 99b0 d63d ea00 fd3c
00000170: b756 5d3c 93b9 a73d ec21 4abd 94bf 2ebe
00000180: a2d7 ebbc dac4 88bd d316 a5bb abf4 9ebd
00000190: 3e58 bb3d 1e8e 1bbe 94d0 ffbd a4ab bb3d
000001a0: ce5c ac3c c80e 85bd c87a 22be fbb9 cebd
000001b0: 55ac d0bd abb6 cebd 101f 14bd f203 ddbd
000001c0: d513 f03c 20b2 cc3d b29a e3bd 81a4 9fbd
000001d0: 0768 283d 2c9f 123e bcb6 b5bd 2d9d f6bc
000001e0: 3508 9e3c 2837 26be d801 f73c 4bcd 853d
000001f0: 2105 eebd d694 a23d 8a8f f03c 11c5 d7bd
00000200: 78df 12bd 6935 1f3c 2f6c e63d 606e 6c3d
00000210: 412e 0ebe e2c0 12bd 6bea b8bd 7dcb 113e
00000220: 532b 06be 9cea 16be f58a 323d c854 8abc
00000230: dc80 b4bd b7f2 623c f575 c5bd a99d 253d
00000240: 6d02 e73d 3e9c 943d ff43 0e3e 192b 793d
00000250: 8515 903c a113 abbd 7c7d 1d3c 672c a7bd
00000260: ff8a b93c 7b2b be3d 6557 013c 500f 0e3e
00000270: 23b0 f4bd e56c b63d b86c eabd 78d6 10be
00000280: 1ce8 b73d b4ba d6bd d1c7 91bd dad5 8ebd
00000290: abb5 22be a99d b03c 9e44 bfbc 2f90 0f3e
000002a0: f217 2bbd 9fc5 77be e75f 02be 991c 91be
000002b0: 175e dabc d55c 5cbe c5db 33be a0eb 82be
000002c0: deaa c13c ae14 3dbd 5872 2cbd e104 8dbd
000002d0: 01d0 2fbe ba8a f63d d7a4 44be add0 403c
000002e0: 4ac8 62be 092c c6bc 119c 2abe c1bf dc3d
000002f0: 672e 69be 83f2 d3bd 9cdd 513b 264c 22be
00000300: 3b51 c0bc 259d 02bd 506b a0bd aeb7 32bd
00000310: 887b 7abc 1f80 9fbd e894 a93d 5596 34b7
00000320: 2978 433b 7b8e 46be dca3 2dbe a7b7 523d
00000330: 4de2 b53d 5ad5 c93c 0e93 2bbe cff9 bd3d
00000340: 85cb 3bbd 7d7e 34bd 8ae7 663d f0ee 203e
00000350: d890 01bf f7cf 4b3d 299f 3cbe cbc1 6fbe
00000360: c842 34be 43a3 46be 119e 9f3d 16b8 c7bb
00000370: 0612 51be 58f1 82bd e8f2 1cbe 138f 94be
00000380: 347b 0dbf bb67 06bf a4a7 40be 8459 633e
00000390: 476e 10be a785 5d3e bab6 3bbc 3e81 4d3c
000003a0: 36da 38be f453 2bbd abbb fdbb f19b 963d
000003b0: 44f4 4e3d 0898 b4bb 0694 2cbe 2f7b 07bc
000003c0: 0bc2 cbbd 133c 4b3d e230 ccbb b777 8a3c
000003d0: 032d 19be 8c74 f0bd 3be5 073e 72fd 0dbe
000003e0: 38d4 623d 0ec1 30be d1eb 713d cd85 c6bd
000003f0: fa22 d0bd fb99 b4bd 4ce3 2cbe bc32 d73c
-0.08743825 -0.11552956 -0.08474665 -0.033476796 -0.02415133 0.020150147 -0.06420283 -0.07541962
-0.046103194 -0.15200852 0.0626053 -0.114420824 0.054755278 0.020807939 0.01722904 -0.19280002
0.0049210065 -0.05828783 0.039117005 0.060249384 0.044445623 0.03170157 0.03646598 -0.033776212
-0.17263381 0.06013744 -0.011421358 -0.15444419 -0.18348606 -0.05922054 -0.06718849 0.017643547
0.11374229 -0.025426155 -0.12838756 0.098051995 0.03043258 0.0959319 0.015606666 0.035518523
-0.11236629 -8.727029e-06 0.013847677 -0.0792792 -0.10060598 0.04817989 -0.12699169 -0.18969557
-0.06865608 0.07312184 0.049628694 0.016762825 0.056372873 0.017120058 -0.1332889 0.14175712
-0.055433583 -0.06383282 0.014036534 -0.14930111 0.00019540847 0.05698471 0.11141508 0.121536836
-0.11631548 -0.117928915 -0.21130797 -0.11600149 -0.29044768 -0.2980312 0.071245536 -0.019555409
-0.030986017 -0.08566357 -0.13793732 0.11055181 -0.112289846 -0.18833785 -0.11966637 -0.26611233
-0.25130662 0.11097118 -0.1384497 0.0075779315 0.0029916186 0.073951416 -0.05769218 -0.07829848
-0.09956442 -0.08068423 0.10482902 0.030884225 0.013509444 0.08189692 -0.049348757 -0.17065269
-0.028789345 -0.066781715 -0.0050381212 -0.077615105 0.0914769 -0.15190932 -0.12490955 0.09163597
0.021040346 -0.0649696 -0.1586715 -0.10094067 -0.1018912 -0.10093435 -0.036162436 -0.10791768
0.029306332 0.09994912 -0.1111349 -0.077950485 0.041114833 0.14318532 -0.088727444 -0.030104244
0.019291023 -0.16231978 0.030152246 0.06533297 -0.11622072 0.079385445 0.02936532 -0.10535634
-0.035857648 0.009717324 0.11251103 0.05772245 -0.13884832 -0.03582848 -0.09029087 0.14237781
-0.13102464 -0.14737934 0.04358955 -0.01688613 -0.088136405 0.013851813 -0.09641639 0.04043356
0.112797596 0.07256363 0.13893126 0.060832117 0.017588386 -0.08353353 0.009612437 -0.08162766
0.022649286 0.09285637 0.007894372 0.13873029 -0.11947658 0.08907489 -0.11446518 -0.14144313
0.08979818 -0.104848295 -0.0711819 -0.06974383 -0.15889613 0.021559553 -0.023348149 0.14019845
-0.041770883 -0.2419648 -0.12731896 -0.2834213 -0.026656194 -0.21519788 -0.17564304 -0.25570393
0.023641046 -0.0461623 -0.042101234 -0.06885696 -0.17169191 0.12038179 -0.19203506 0.011768502
-0.22146717 -0.02419092 -0.16661097 0.10778762 -0.22771607 -0.1034899 0.0032022959 -0.15849361
-0.023476234 -0.031888146 -0.07832968 -0.0436322 -0.015288241 -0.07788109 0.08280355 -1.0763838e-05
0.002982626 -0.1939029 -0.16957039 0.051444676 0.08881054 0.024637867 -0.16755316 0.09276163
-0.04584839 -0.04406594 0.056373157 0.15716147 -0.5061164 0.049758878 -0.1842009 -0.2341377
-0.176036 -0.19398217 0.07793821 -0.006094943 -0.20417032 -0.06393689 -0.15327036 -0.29015407
-0.5526612 -0.5250203 -0.1881395 0.22202116 -0.14104567 0.21633016 -0.01145714 0.012543021
-0.18051991 -0.04182811 -0.007743319 0.07353962 0.05052592 -0.0055112876 -0.16853341 -0.008269115
-0.0994912 0.049617838 -0.006231413 0.016902788 -0.14958577 -0.117409796 0.13271038 -0.13866213
0.05537817 -0.17261145 0.059062783 -0.09693489 -0.10162921 -0.08818432 -0.16883582 0.02626931

net.0.bias f4 [64]
00000000: 3da4 f83c b555 6e3e 4597 1bbc 8441 c1bd
00000010: 6365 c03d db85 abb9 d717 313e a086 03be
00000020: 1ea8 d83c 67aa 4fbc 4646 74bd 47ce 8abd
00000030: 4f34 a8bb 91ba b33e 5f61 80bd af2b 1cbe
00000040: df6e e7bd ae2c 9a3d a369 a3bd 5c78 28bd
00000050: ba88 14bb 5265 94bd 9e25 17bd f9a1 803e
00000060: d51b 17be 0918 08bd 6929 f13d 6cb8 3bbc
00000070: 40a0 e6bd 51af c73b 3d33 41bc 6f0c 30be
00000080: 1747 1ebe 8936 103e 519a 1cbe 6c21 8dbd
00000090: 479a 95bd db2b 233d 94c5 8b3e acb3 99bb
000000a0: fcb7 393e 1237 4c3e f617 c0bd 69ec 18be
000000b0: b2c1 03bd 8e45 89bd c520 433e 0ecd 0abe
000000c0: 6465 e43d b26e ec3d e462 04be 6f18 f93d
000000d0: fbe2 96be 40b5 863d 8eec c5bd 754c b13d
000000e0: 22e4 c7bd abae 20bd e249 043e dbc3 20be
000000f0: d4f7 a4bd d67b d8bc 9651 053e 6768 f83d
0.030351752 0.23274882 -0.009496515 -0.09436324 0.09394338 -0.00032715392 0.1729425 -0.12844324
0.026447352 -0.012674904 -0.05963733 -0.067776255 -0.005133189 0.35103276 -0.06268572 -0.15251039
-0.11300444 0.07528053 -0.07979133 -0.04113041 -0.0022664503 -0.07245888 -0.03690111 0.25123575
-0.14756711 -0.033226047 0.117754765 -0.011457544 -0.11261034 0.0060938974 -0.011792001 -0.17192243
-0.15456806 0.14083304 -0.15293242 -0.0689114 -0.07304817 0.039836746 0.27299178 -0.004690608
0.1813659 0.19942883 -0.0937957 -0.14933933 -0.032167144 -0.0670272 0.1905547 -0.13554785
0.11152151 0.11544551 -0.12928349 0.121628635 -0.29470047 0.065775394 -0.0966426 0.08657161
-0.0976031 -0.039229076 0.12918809 -0.15699713 -0.08055082 -0.026426237 0.13019404 0.12129288

net.2.weight f4 [32, 64]
00000000: 9158 79bc f3e4 023e 22b6 e0bc ef3e d8bd
00000010: f8e7 053c d788 793e f238 ffbd f897 723d
00000020: 71c3 bf3d d66e a9bd 0037 0abd 4831 ce3d
00000030: 2e9c a0bc cafe e33d 2317 f93d 99ff 1ebd
00000040: 1cc6 78bd 60ea db3d 86a0 c63d 11ca 5dbd
00000050: 6dd8 693d 0095 9f3d 8fbd d2bd 54ef 923b
00000060: 85ec 893d 0a20 bbbd 2e86 11bc efae 40bc
00000070: 5af1 fc3c 752b 54bd ab7b 093e ef70 97bd
00000080: a49a 2d3c e338 933d 4004 5dbb e1a3 d53d
00000090: bece 863d 42e5 2f3c 15f3 223d e1c4 f93d
000000a0: d66d d9ba 6d69 12be c067 86bb 202a ab3d
000000b0: 0010 c138 1dff 313d c7cf ba3d f6c9 5fbd
000000c0: 50c3 f43d 45eb d7bd 60b1 af3d 9f6c 5f3d
000000d0: 8a45 883d 348c d53d 908a 6c3d 424c e1bd
000000e0: 8499 5dbd 4152 66bd e6c1 e23c bc76 093d
000000f0: fcc5 10bd 3fab 80bd b094 d43d 5cf1 ac3d
00000100: 57b5 04be 3bac d2bc b7f2 afbc f2ea bebd
00000110: 914f cdbd 8031 333d 0fc9 a83c 014f edbd
00000120: 9cba 05bd 187c b13c 9513 7339 407a 353d
00000130: 9ee5 d7bd 2393 8cbe cdaa 5d3d 4baf bcbc
00000140: 6e08 8b3d cc36 0abe 4415 25bd a36e 03be
00000150: 753c 163b c8f2 c13d f8fa 273d bf2b 7fbd
00000160: c8f8 ccbc 230a c4bd b518 debd c04c eebd
00000170: 54c4 db3a e1cb f7bd a311 09be 511c a73d
00000180: 9f5d 4b3d b1ef a8bd bc68 3dbd 3cf8 87bb
00000190: 4045 5dbc de4e 02be 0daa 9fbd afe8 06be
000001a0: 9234 4bbc 2bf0 c0bd 6db0 8cbd 6291 d23d
000001b0: c8c5 9d3d b032 47bc 7491 b93d 75ec e43c
000001c0: be97 0bbe 9808 8ebd 7860 d1bc 9bfc d3bd
000001d0: 4b63 813d 152e c43d 0825 f23c 81d0 c4bd
000001e0: 42f0 ebbd 3245 fbbd f371 cf3c aaa6 213c
000001f0: d0b3 6c3d cb80 e83d 53a9 e33c 3046 2e3d
00000200: de02 c4bd 3b1a 0bbe cf56 90bd 857b df3d
00000210: 5b3d 933d 90d6 fdbc 9d0a 083d 80b8 34bb
00000220: 3f60 1fbe 3ed1 c73d 026c 9ebd 82de babd
00000230: a433 e5bd 5d43 67be 201b 0cba 2afe f7bc
00000240: d9bb b0bd 8c6e bc3c 47ed 06bd 65b7 353d
00000250: a858 513d 07ac de3c db5a 21bd f81d 42bd
00000260: d656 88bd 583f 46bd 60ff af3a 070f abbd
00000270: 60ce de3c a3c1 30bc a37d 4f3d 2456 c13d
00000280: 5fa8 d4bd deac 84bd 40a5 d13c 986c cb3d
00000290: 6285 8c3d 4c57 0b3d 727d 45bc 8d58 bbbc
000002a0: 5088 993d 4ad7 bebd ce63 71bc 5eeb f5bd
000002b0: a0a1 c8bb 31bd f0bd 7334 03bc 5a58 1c3d
000002c0: 199c 1a3d 1010 503a 5e43 c93d f16b 02bd
000002d0: 7fef eebd e32e 4b3d 5c04 bc3d 393f 9fbd
000002e0: 1475 59bd ef29 21bd cc98 563d 6821 43bd
000002f0: 8804 c93d 4dc8 423d 4e4d 7a3d 4327 18bd
00000300: 23cb adbc e54e 413d 47ca 8c3c f059 b0bd
00000310: 99ab 99bd 7708 d1bd ca45 06be 249f e43d
00000320: bcd4 0bbe 8ee3 913d e84e ebbc d0e1 87bc
00000330: 824f a1bd 0c2e a03c 7508 78bb b104 aa3c
00000340: dcec d8bd 9433 543d 0089 dfbb f630 223d
00000350: 78a7 debb fe13 0bbe 2849 893c f06f cc3c
00000360: 1ea4 433d 68bd 853c 89b3 ce3c 2612 063d
00000370: be14 943d 2637 9e3d 0185 833d 3046 95bd
00000380: 2c2a d8bc 69e4 b13d ac0d 213d 5797 4b3d
00000390: dc1b fb3d c6a6 9d3c 114e e1bd f25b debd
000003a0: 38a3 0f3d 3b48 c03c 64f7 fa3d c034 78bd
000003b0: 047b e13d 208f 8e3c 385d 00be 9ba7 d2bd
000003c0: 16cd 55bd dcd3 08be 0853 b1bc 52ef b33c
000003d0: ac81 7e3d 2a98 c2bd 2809 4b3d e098 ae3c
000003e0: f490 e0bd ea2d c5bd 4c1c f8bd bbee 55bd
000003f0: e483 b83d 707d cf3d 166e 1d3c 876d ac3d
-0.01521887 0.1278265 -0.027430598 -0.10558879 0.008172981 0.24368607 -0.12462033 0.05922696
0.09363449 -0.082730934 -0.03374386 0.100679934 -0.019605722 0.111325815 0.12162616 -0.038817976
-0.060735807 0.10738063 0.09698586 -0.054147784 0.057091165 0.07792091 -0.10290062 0.0044840965
0.06734566 -0.0913697 -0.008882089 -0.011760457 0.030876804 -0.051799256 0.13426082 -0.07394587
0.010595951 0.07188585 -0.0033724457 0.10431648 0.06582402 0.010735812 0.039782602 0.12195755
-0.001658852 -0.14298029 -0.0041017234 0.08357644 9.2059374e-05 0.043456186 0.09121662 -0.054635964
0.119513154 -0.10542921 0.085787535 0.05454695 0.066538885 0.10427132 0.05774933 -0.11000873
-0.054101482 -0.056230787 0.027680349 0.0335605 -0.035345063 -0.062826626 0.103799224 0.08444473
-0.129598 -0.025716892 -0.02147804 -0.09322156 -0.10024942 0.04374838 0.020603685 -0.115873344
-0.032648668 0.021665618 0.00023181581 0.04430604 -0.10541843 -0.27456006 0.054117966 -0.023032805
0.06788717 -0.13497466 -0.040303484 -0.12835173 0.0022924219 0.09470135 0.041010827 -0.06229758
-0.025020972 -0.09572246 -0.10844556 -0.11635733 0.0016766884 -0.12099434 -0.13385634 0.08159698
0.04964983 -0.082488425 -0.04624246 -0.004149465 -0.01350528 -0.12725398 -0.077961065 -0.13174699
-0.01240267 -0.094208084 -0.06869588 0.10281636 0.077037394 -0.012158081 0.09060946 0.027944783
-0.13632104 -0.06935233 -0.025558695 -0.10350915 0.06317767 0.09579102 0.029558674 -0.096100815
-0.11520435 -0.12269057 0.02532289 0.009866396 0.05778867 0.1135269 0.027790701 0.042547405
-0.095708594 -0.13584225 -0.070478074 0.10912231 0.07189437 -0.0309861 0.033213247 -0.002757579
-0.15564059 0.09756707 -0.077354446 -0.09124471 -0.1119149 -0.22584291 -0.0005344618 -0.030272562
-0.08629579 0.023001932 -0.03294113 0.04436435 0.05110994 0.027181638 -0.039393287 -0.04739186
-0.06657188 -0.048400253 0.0013427548 -0.083524756 0.027198017 -0.010788354 0.050656926 0.09440258
-0.10383677 -0.06478284 0.025591493 0.09932822 0.06861378 0.0340188 -0.012053834 -0.022869373
0.07496703 -0.09318407 -0.014733268 -0.12007783 -0.006122783 -0.117548354 -0.00800811 0.038170196
0.037746523 0.0007936964 0.098273024 -0.031841222 -0.11666774 0.04960526 0.09180519 -0.07775731
-0.05309017 -0.03934663 0.052391812 -0.04763928 0.098153174 0.047554303 0.06110888 -0.037146818
-0.021215027 0.04719438 0.017186297 -0.08610904 -0.07503433 -0.10206693 -0.1311256 0.11163166
-0.1365537 0.07123481 -0.028724149 -0.016587168 -0.07876493 0.019553207 -0.0037846838 0.02075419
-0.10592052 0.051807 -0.0068217516 0.039597474 -0.006794866 -0.13581845 0.016758516 0.02495572
0.047763936 0.016325668 0.025232093 0.03273215 0.07230519 0.077253625 0.06421853 -0.07288778
-0.026387297 0.08686144 0.03931968 0.049704876 0.12261173 0.019244563 -0.11001218 -0.10857381
0.035067767 0.023471942 0.12254217 -0.06059718 0.110097915 0.017402232 -0.1253556 -0.102858745
-0.05219754 -0.13362068 -0.021646038 0.021964703 0.062135383 -0.09501679 0.04956928 0.02131313
-0.109651476 -0.09627898 -0.12114772 -0.052229624 0.09009531 0.10131347 0.009608766 0.08419328

net.2.bias f4 [32]
00000000: 35a8 783e 1326 c5bb 6abc 8fbb c9e3 a4bc
00000010: 4ae6 e4bc 5dd8 94bd 6449 413e 0161 3a3e
00000020: 2121 8f3e 159e 373e bb2e 93bd 4bd0 e9bd
00000030: df77 85bc 203d 55bc b2c5 c8bd dfa8 f93d
00000040: 96c6 5f3c 3988 59bd 584f 563e 7678 903d
00000050: 42cb e6bd 69a3 27be c693 07be f5f2 293e
00000060: 7f16 67bd fe8a afbc caeb 15be aedb 82bc
00000070: 62fe 203e 4a2d b1bd 6e89 dabc 1003 fbbd
0.24282916 -0.0060165017 -0.0043864744 -0.020128148 -0.027941842 -0.072678305 0.18875653 0.18201067
0.27954963 0.17931397 -0.071866475 -0.11416682 -0.01629251 -0.013015062 -0.098033324 0.12190413
0.013658186 -0.053108428 0.20928705 0.07054226 -0.11269237 -0.1637093 -0.13239965 0.16596587
-0.05641794 -0.021428581 -0.14640728 -0.015973892 0.1572204 -0.08651216 -0.02667686 -0.122564435

net.4.weight f4 [1, 32]
00000000: 46dc 163e 5027 62bd 417c b13c 2232 3bbc
00000010: 267a 3ebd c1e3 543d c0e1 333e abee 043e
00000020: d4f4 2b3e cf80 0f3e 3888 1abc cbe1 973d
00000030: b047 bfbd 6081 833c b27e 7cbe 17dd ca3d
00000040: 0487 853e be1d 20bc c7d9 123e 6f18 c13d
00000050: 28ba 11be 17c5 443b 73ea ec3d b499 df3d
00000060: 80df f5bc e75a 5d3c 4ae0 d83d 0a0a 7f3d
00000070: 79df 1e3e e05b e33b b2a8 f1bc e9d7 24bd
0.14732465 -0.055213273 0.021665694 -0.011425527 -0.04650321 0.051975016 0.17566586 0.1298167
0.16792613 0.1401398 -0.009431891 0.074161135 -0.09339845 0.016052902 -0.24657705 0.09905451
0.2607957 -0.009772716 0.14340888 0.094284885 -0.14231169 0.0030024701 0.11568155 0.109179884
-0.0300138 0.013510442 0.10589655 0.062265433 0.15514936 0.0069384426 -0.029499386 -0.04024497
