Trading_Model/trading_model_GBPAUD.pth (torch, 16650 bytes, 5 tensors)

net.0.weight f4 [64, 20]
000000 26 6e fc bc 57 f8 3c 3d b6 98 19 3c 06 e8 b9 bd
       -0.030814242 0.046135273 0.009374788 -0.09077458
000010 9a 45 d5 bd 22 4e 1d bd 69 ce 4e bd 46 34 3a 3d
       -0.10413666 -0.03840459 -0.050489817 0.045460008
000020 f8 28 09 3c 34 ef 15 3e 02 c3 18 be 44 3e 14 3d
       0.008371584 0.1464203 -0.1491814 0.036192194
000030 af 0d 1d bd 81 85 5c be dd 77 7b bc 31 e6 db 3c
       -0.038343128 -0.21535303 -0.015348402 0.026843162
000040 e6 bd 7f bd 17 5a 1a be ac 5a a8 3d ab 3f 0f be
       -0.06243696 -0.15073429 0.08220419 -0.13989131
000050 0b 6d ce 3e 47 ad a7 bb d0 6b c6 bb 60 14 2b be
       0.40317568 -0.005117092 -0.0060553327 -0.16706991
000060 9d eb 75 3e 1f ae 0d be e5 dd 96 3d 7d 1a b2 bd
       0.2401566 -0.13835953 0.07366542 -0.086964585
000070 f4 2e 59 bd 3d 4e 14 be 3d 80 1f 3e 93 0b ed 3d
       -0.053023294 -0.1448297 0.15576263 0.11574473
000080 71 8f 30 bd c8 d4 b0 bd 61 b1 fc 3c 26 b0 93 3e
       -0.043105546 -0.08634335 0.0308463 0.28845328
000090 91 5b d4 bd 9e 46 01 be a8 e3 8d 3e 4c b7 d2 bc
       -0.103690274 -0.12624595 0.2771275 -0.025722168
0000a0 d2 e6 4d bd ae 8e 92 3d c1 dc 73 be 59 93 29 3e
       -0.050268956 0.0715612 -0.2381468 0.16560115
0000b0 21 0a 08 bd 2f 81 66 be 95 8e cf 3d a2 ae f2 bd
       -0.033212785 -0.22510217 0.10134617 -0.11849715
0000c0 96 93 12 bd 37 3c b3 3c be 71 42 be e0 4c 81 3b
       -0.03578528 0.021879299 -0.18988702 0.003945932
0000d0 08 d5 1b be 11 cf 17 be 87 5f aa bd b7 ff f8 bd
       -0.15217984 -0.14825083 -0.08319002 -0.12158149
0000e0 78 76 88 be 6f 82 07 3e 2f 85 5d bd c1 46 c8 bd
       -0.26652884 0.1323335 -0.054082092 -0.0977912
0000f0 bf b1 56 3d 08 9f ad 3d 7e 09 cd bd 65 03 d9 3d
       0.052415606 0.084775984 -0.10011576 0.105963506
000100 3e 60 ea bc 1f 95 43 3d aa 17 15 be 6f 75 b4 3d
       -0.028610345 0.047749635 -0.14559808 0.08811461
000110 ef a8 8f be 83 ec 5c 3e d0 34 56 3d 2c 61 3a 3e
       -0.28058574 0.21574597 0.05229646 0.1820113
000120 5d 0b 2f 3e da 90 a7 be 78 7a 84 be f7 b8 0c be
       0.17094178 -0.327277 -0.25874686 -0.13742433
000130 db a9 01 be 10 f6 f1 bd 2a 0d b0 be b2 b3 7e be
       -0.12662451 -0.11814511 -0.34385043 -0.24873236
000140 af 4f 27 bd 55 b3 1c be 8f 51 c2 bd aa 0a ab 3d
       -0.040847477 -0.15302785 -0.09488212 0.083516434
000150 2d 70 fc bd 7f fd 05 3d ea 55 ed 3d 05 7c 0f be
       -0.12326083 0.032712456 0.115886524 -0.14012153
000160 e4 0f 85 3c 5d 6d 35 be 36 79 be bd 83 ee 23 3e
       0.016242929 -0.177175 -0.09300463 0.16008954
000170 20 d5 9d bd 9a 59 ac bd 99 3a 0d 3e ed c3 20 be
       -0.07706666 -0.08415528 0.13791884 -0.1569974
000180 13 ee d1 bc 0c 5f 58 3e da 99 48 3e d7 e6 f6 bd
       -0.025626218 0.21130008 0.1958994 -0.12055748
000190 29 6e 8a 3d 96 eb 49 3e 14 6d 25 bd ed 55 75 3e
       0.06759293 0.19718775 -0.040387228 0.2395856
0001a0 ff ca 89 3e 34 03 21 3e c7 a8 e9 3d 29 47 da 3e
       0.26912686 0.15723878 0.11409145 0.42632416
0001b0 91 13 8a 3e 9c 13 32 3e 69 1b c0 3e 53 0d 50 3e
       0.26968053 0.17390293 0.37520912 0.20317583
0001c0 2b eb bc 3e 91 be ae 3e de f7 a5 3e b2 1c 87 3d
       0.3689817 0.34129766 0.3241567 0.0659727
0001d0 9b ba 19 3e 2a e7 46 3e 32 8e 0c 3e ba 31 cf 3e
       0.1501259 0.1942412 0.13726118 0.40467626
0001e0 9f d4 bf bd 42 2b 98 3c bb a9 98 3d 7f 21 7b 3d
       -0.09366726 0.018575314 0.074542485 0.06131124
0001f0 03 bd fa bd 9c 09 54 be 3b 5e 31 3e 7d 9e 64 be
       -0.122430824 -0.2070679 0.17321102 -0.22326083
000200 f9 58 11 be 29 b1 4d 3e 8b 78 13 be 78 d8 b6 3d
       -0.14194097 0.20087112 -0.14401452 0.08928007
000210 ad f9 6a be e9 19 d1 3d 49 48 11 3e 95 78 c0 bd
       -0.22946806 0.1021002 0.14187731 -0.09397999
000220 f5 e9 e5 3c 75 7e 5c 3e 58 a9 b7 3d dd 77 86 bd
       0.028065661 0.21532615 0.08967847 -0.06565831
000230 9f 2d fc bc ec d8 90 bd 17 74 73 be ba cf a9 bd
       -0.030783473 -0.070726246 -0.23774754 -0.08291574
000240 53 ea 0a bd 60 9e b1 bb 73 3a 8e be 76 97 4d bb
       -0.033914875 -0.005420491 -0.27778968 -0.0031370795
000250 53 35 6e 3d d1 99 6c be 96 8e 1d be 24 83 41 3d
       0.058156323 -0.23105551 -0.15386423 0.047244206
000260 96 26 87 be 0c 5f 93 bd de 9b cb 3d 36 26 65 be
       -0.26396626 -0.07195863 0.09941839 -0.22377858
000270 31 e4 e1 bd 42 96 a1 be 3c 77 69 ba 85 19 70 be
       -0.11029852 -0.3155995 -0.0008906012 -0.23447235
000280 94 17 16 3d 35 8b 40 be d3 f8 c5 3d e9 6b ec 3d
       0.03664358 -0.18803103 0.096666 0.1154402
000290 84 bf 01 bd 78 f6 67 be d1 1f 56 3d b5 f7 90 bc
       -0.031676784 -0.22652614 0.052276436 -0.01769624
0002a0 2f 3a 21 be 70 99 bb 3c e0 38 2f bc 4c 65 69 be
       -0.15744852 0.022900313 -0.010694712 -0.22792548
0002b0 ae 95 8a be 90 ba bf 3d e8 1b fa bc be 7b a1 3d
       -0.27067322 0.09361756 -0.030530885 0.0788493
0002c0 db de 83 be 8e 58 32 3e 1b 97 89 bd cc 7a 80 bd
       -0.25755963 0.17416593 -0.06718274 -0.06273422
0002d0 be 5f 39 3f 0e 03 41 3f 2a c5 4e 3f d6 75 8a 3f
       0.72411716 0.75395286 0.807696 1.0817211
0002e0 3f 41 65 3f 31 af 68 3f 02 5d 8a 3f 67 bf 6b 3f
       0.8955268 0.9089232 1.0809634 0.9208893
0002f0 a7 20 43 3f 2b c0 55 3f 84 06 62 3f 79 0e 86 3f
       0.762217 0.8349635 0.8829119 1.0473167
000300 d8 3e 48 3f d6 97 61 3f 2e fc 27 3f e6 74 76 3f
       0.7822089 0.8812231 0.6561917 0.9627212
000310 12 9c 76 3f dc a5 65 3f 8d c1 43 3f c1 9f 42 3f
       0.96331894 0.89706206 0.7646721 0.76025015
000320 9c f7 df 3c 0d 82 33 be eb 3d 68 3d 57 09 1a be
       0.027339749 -0.17530079 0.056699675 -0.15042625
000330 d0 28 a1 be 5f f9 09 bd 38 a2 23 be 5a f4 01 be
       -0.3147645 -0.033685084 -0.1597985 -0.12690869
000340 48 e4 48 bd 89 81 20 be 04 5f 81 3d 7e 64 fa bd
       -0.04904583 -0.15674414 0.06316951 -0.122261986
000350 1a 6f 60 bd 3d 60 49 3c 39 48 5b bd 59 4d e5 3d
       -0.054793455 0.012291011 -0.053535674 0.111963935
000360 50 73 c0 bd 8c 40 e9 3b a2 fe cc 3d 86 97 52 3e
       -0.09396994 0.0071182903 0.10009505 0.20565614
000370 a3 ec aa 3e ba 4d d3 3d da 3d cc 3e 54 50 5b 3d
       0.33383664 0.103175595 0.3989094 0.053543404
000380 13 e2 e3 3d 36 e5 2c 3e 0d b1 56 3c 89 7d 4a 3d
       0.111271046 0.16884312 0.013103736 0.049436126
000390 a7 9d 5f 3e a8 e3 87 3b 5e c9 41 3e d5 4b 94 3e
       0.21837483 0.004147012 0.18924472 0.28964105
0003a0 96 31 a4 3d 3d c7 ad 3e 17 17 d2 3e b0 55 a7 3e
       0.0801727 0.3394107 0.4103324 0.32682562
0003b0 6a 72 d4 3e f5 bc 5d 3e a8 12 de 3e b9 f7 c6 3e
       0.4149354 0.21654113 0.4337361 0.38860872
0003c0 9d 7f fb be f5 b8 9c bd 25 c1 d0 bd dd 21 22 bd
       -0.491208 -0.07652465 -0.101930894 -0.039583076
0003d0 30 d0 6d 3d a8 57 bf bd e7 1b b5 bd 72 91 68 be
       0.05805987 -0.09342891 -0.088432126 -0.22711733
0003e0 62 f4 b8 bd 13 ec 10 bd 4b e5 21 3e ca 52 ad bc
       -0.09030987 -0.035381388 0.15810125 -0.021157641
0003f0 a4 ac c9 3d a9 a9 9c be 08 c1 ac 3c e4 a8 6f be
       0.09847382 -0.3059819 0.021088138 -0.2340427

net.0.bias f4 [64]
000000 ca ed e8 3b 8b b8 3e 3f c0 85 29 3f 09 f1 a6 3e
       0.007108425 0.7450034 0.6621971 0.3260577
000010 e8 12 54 be 3a ba 85 3e 61 66 e4 3e e8 11 66 3e
       -0.20710337 0.26118642 0.4460936 0.22467768
000020 a1 1a 28 3f 02 60 fc 3e c4 cf 37 3f 8c 0b c9 3e
       0.6566563 0.49291998 0.718014 0.39266622
000030 c0 bd f8 3e d2 8f 1c 3f d8 fe d7 bd 2b a2 db 3d
       0.48582268 0.6115695 -0.105466545 0.107242905
000040 0e ae c4 3e 10 83 27 3f b4 05 0f 3f f7 48 03 3f
       0.38414043 0.6543436 0.5586808 0.5128321
000050 e5 12 7e bb 7a c4 08 be 63 c5 61 3e de 3c 13 3f
       -0.0038768586 -0.133562 0.22047953 0.5751475
000060 50 0c 9c 3d 8e e1 a7 3d 80 6d f7 3e e4 7b 30 3f
       0.07619536 0.08197318 0.4832573 0.6893904
000070 58 2a f0 3e 35 41 47 be 59 54 67 3f b9 af 7c 3e
       0.46907306 -0.19458468 0.9036308 0.24676408
000080 fe 0f 46 3f de 71 4b 3e 4b da ef 3e 05 a8 f2 3e
       0.7736815 0.19867656 0.46846232 0.47393814
000090 54 72 0f 3f 22 ad 94 3e f7 4e 50 3f f2 bb 21 3f
       0.56033826 0.2903834 0.8137049 0.63177407
0000a0 f7 df 01 bd 82 a9 29 3f 8d b9 91 3e e0 4b 8e bd
       -0.03170773 0.66274273 0.28461877 -0.06948066
0000b0 fc 99 12 3f 7c e5 11 3f 2f ec 42 3f 17 fe 4f 3f
       0.5726621 0.5699079 0.7614164 0.81247085
0000c0 f0 1c e3 3d 83 29 4d 3f 4c c1 0f 3f 1b d1 a1 3e
       0.11089504 0.80141467 0.5615432 0.31604847
0000d0 d0 29 ad bd 78 f7 2d 3f d7 60 47 3f b8 77 0b 3f
       -0.08455241 0.6795573 0.7788214 0.5447955
0000e0 32 72 ed 3e 29 a3 e4 bd 7b 66 a6 3e 90 bc 04 3f
       0.46376187 -0.11163933 0.3250006 0.51850224
0000f0 28 ae 1e 3f b0 1b 09 3f 2d 16 92 3f 56 14 b3 bd
       0.6198449 0.5355787 1.1413018 -0.08744113

net.2.weight f4 [32, 64]
000000 9e 5f 81 bd 6f 3c 71 3d fe ce 8c 3d ae f5 da bd
       -0.06317066 0.058895525 0.06875418 -0.10691391
000010 02 99 f6 bd d5 df c2 bc 03 86 95 bd 2d cb 95 bd
       -0.12040903 -0.023788372 -0.07300951 -0.07314143
000020 43 b0 96 3d 43 2d 41 bd e4 69 8b 3c dc 1d cc bb
       0.07357838 -0.047162306 0.017018266 -0.0062291455
000030 8e 01 bc bd e6 e5 8c 3d 3c 7f 8f 3d 0b 97 99 bd
       -0.09179984 0.06879787 0.0700669 -0.07499512
000040 6f 15 82 bd a1 68 8c 3d 28 64 b8 3b 37 13 aa 3d
       -0.063517444 0.06855894 0.005627174 0.08304446
000050 e3 47 17 bd 6c 38 f2 3d 47 46 5e 3c 44 f9 6d bd
       -0.03693379 0.11827168 0.01356656 -0.058099046
000060 23 9d 53 3d 20 bb 38 bd cd 20 05 be b1 92 09 bd
       0.05166353 -0.04510033 -0.13000794 -0.03358716
000070 23 04 d9 3b 8a 37 aa 3d 1e e6 b4 3d 4f b1 21 3d
       0.0066228076 0.083113745 0.08832954 0.039475735
000080 81 e1 0f be 50 23 8c 3c fd c0 ce bd cc 9f a9 bc
       -0.14050867 0.017106682 -0.10095403 -0.02070608
000090 6d f8 23 bb da 65 1f bc 0f 7f 2c 3d f3 e9 c8 bd
       -0.00250199 -0.009728873 0.04211336 -0.09810247
0000a0 7d 27 e7 3d 59 25 4a bd 93 ae 91 bc 63 1a ce ba
       0.11286829 -0.049352024 -0.017783439 -0.0015724417
0000b0 6b 94 86 3d fa eb d4 bd 90 25 18 bd d3 b4 eb 3c
       0.06571277 -0.103965715 -0.037145197 0.028772747
0000c0 ed 88 10 bc 7d 98 83 bd d1 11 32 bd aa 02 8e bd
       -0.008821708 -0.06425569 -0.043474022 -0.06934102
0000d0 32 7c a8 bd 11 77 99 3d 32 6b 63 3c 38 7d 0e be
       -0.082268134 0.07493413 0.013880538 -0.13914955
0000e0 d7 55 57 3d 5f 21 31 3d a8 6b eb 3c df 8f 3c bd
       0.052572098 0.043244716 0.028737858 -0.046035644
0000f0 3f 2e 01 bd 19 f8 9f bd f9 37 88 3d 6f be 0c be
       -0.031538244 -0.07810993 0.06651301 -0.1374452
000100 cc c3 04 3d 2d 3a e8 3d 1b 82 4a 3d 27 40 03 3e
       0.03241329 0.11339221 0.049440484 0.12817441
000110 3d 18 2c 3c 12 08 07 3e e3 55 2b be e8 d9 d1 bd
       0.010503826 0.13186672 -0.16731982 -0.102466404
000120 c6 6c 85 bd 7e 73 0b be 12 33 92 bd ba 33 eb bc
       -0.065148875 -0.13618276 -0.07138647 -0.028711189
000130 67 43 73 3d d7 02 35 3d c0 e5 de 3d 09 56 b3 b8
       0.05939045 0.04419216 0.10883665 -8.5514104e-05
000140 e2 6b 5d be 6b 92 e0 bd 92 7d 56 be 44 97 60 bc
       -0.21623185 -0.10965427 -0.20946339 -0.01370794
000150 fd 23 13 be 6e 9c f3 3c 3a 15 f9 bd 1d 14 fa bd
       -0.14369197 0.029737677 -0.12162252 -0.122108676
000160 d0 3e 5c bc cb 58 ef 3c 03 08 ae 3d b5 7e 0e bd
       -0.01344271 0.029217144 0.08497622 -0.034788806
000170 54 3c 24 bd 8b 08 b0 3d 09 63 8e 3c b5 fb 76 bd
       -0.040096596 0.085953794 0.017381208 -0.06029864
000180 79 a1 d1 bd 6a ff 73 bd 8b ad 9b 3d de 88 df bd
       -0.102358766 -0.059569754 0.0760146 -0.10914777
000190 16 14 2e 3d 04 7f 17 be 95 c1 fa bc 98 ed 6d 3b
       0.042499624 -0.14794546 -0.030609885 0.0036304947
0001a0 38 89 b9 3d 8f 3a 7b be f6 bd 2b 3d aa de f4 3c
       0.090593755 -0.24534057 0.041929208 0.02989133
0001b0 23 dd cf bd 8f 23 02 3d 44 58 a2 bd 32 2e 05 be
       -0.101496 0.031772193 -0.079269916 -0.13005903
0001c0 91 55 2c be e1 90 6a be bb 00 da 3c a7 26 35 bd
       -0.16829516 -0.2290683 0.026611676 -0.044226315
0001d0 7c 4e ce 3d 0f 2e df bd 7d ea fc bb 84 cb 33 3d
       0.100735635 -0.10897457 -0.007718383 0.04389526
0001e0 88 b0 85 3d d1 19 e6 3c 09 40 c4 be 9f 01 db 3c
       0.06527811 0.028088482 -0.38330105 0.026734171
0001f0 cf 60 1e bd 16 20 fe bd 41 df 95 3d e5 60 cb 3d
       -0.038666543 -0.12408464 0.07317973 0.099305905
000200 9a c1 c0 3d 42 a7 94 3d 74 70 19 3d 51 a9 98 bd
       0.094119266 0.072584644 0.03746076 -0.074541695
000210 10 4c be bc cf 0c a2 3c c5 ef 12 bd 2b 14 66 3d
       -0.023229629 0.019781498 -0.035873193 0.056171577
000220 4c ed 53 bd 5e 20 57 3c dd 44 81 bd 8c f0 02 3d
       -0.051739976 0.0131302755 -0.06311963 0.031967685
000230 33 90 c0 3d 17 f8 a6 3d 00 30 69 bc f8 66 4a 3d
       0.09402504 0.08152788 -0.0142326355 0.049414605
000240 fb 9c 6a bd b8 e8 20 bd d2 0b 3e bd 08 d9 89 3d
       -0.057278614 -0.039284438 -0.04639799 0.067308486
000250 7d 6e 7f bc 4a 28 ec 3d 41 55 95 3d 6a 64 23 3d
       -0.015590307 0.11531122 0.072916515 0.039890684
000260 96 c2 2a bc 4a 55 90 bd 87 05 ac bd f9 91 89 bd
       -0.010422369 -0.070475176 -0.08399492 -0.06717295
000270 d4 e2 79 bd 2f 21 8e 3d 06 b8 a0 3d 1c 92 af bc
       -0.061007336 0.06939923 0.078476 -0.021431975
000280 70 d1 7b 3d d1 73 bf 3d ca 20 e2 bd 39 81 8c 3d
       0.061479032 0.09348262 -0.1104141 0.06860585
000290 77 d9 a8 bc 8c 15 32 bd a0 9f c5 bd f4 0d 7b bc
       -0.020611508 -0.04347758 -0.09649587 -0.015323151
0002a0 72 b7 68 3d 45 ed 2e bd e3 f2 ec 3d 76 d5 11 3d
       0.056815572 -0.042706747 0.115697645 0.035603963
0002b0 f0 88 9a bd bd 07 04 be 3e 1d 0e 3d f2 ad cd 3d
       -0.0754565 -0.12893577 0.034695856 0.10042943
0002c0 55 8a 70 3d 29 64 ca bd a8 b0 a1 3d 2f fa 2a 3d
       0.058725674 -0.09882385 0.07895023 0.0417425
0002d0 60 c3 83 bc 9f 94 c7 3d c1 b0 b6 bd a1 8d b7 bd
       -0.016084373 0.09745144 -0.08920432 -0.089625604
0002e0 b4 e1 37 bd f5 be bb 3d e4 bb 5b bc 04 d5 97 3d
       -0.04489298 0.091672815 -0.013411496 0.074136764
0002f0 cb 35 03 3d 83 2e dc bc 0f 11 13 3d 67 2b af 3d
       0.032033723 -0.026877647 0.03590494 0.085532
000300 5a ee e6 3d 55 a5 bd 3d 71 85 df bc e6 c5 fd bd
       0.11275931 0.0926005 -0.02728531 -0.12391262
000310 86 cd 85 bd d7 05 8d bd b5 e4 cf 3d 87 bf 97 3d
       -0.06533341 -0.068858795 0.10151044 0.07409578
000320 d6 97 6b bc e2 02 98 3d 78 5b ec bd 12 0b d7 bd
       -0.014379462 0.07422425 -0.11540884 -0.10500158
000330 b6 36 b6 bd b2 28 e6 3c e0 1a a2 3c 99 ed e4 bd
       -0.08897154 0.028095577 0.019788206 -0.11178131
000340 50 26 a3 3d 39 20 b3 bc 88 dd 58 bd b0 5b d6 bc
       0.07966292 -0.02186595 -0.052945644 -0.026166767
000350 ae 27 b4 3d 39 15 3e bd 02 b6 38 bd 00 e2 5e bd
       0.08796631 -0.04640696 -0.04509545 -0.05441475
000360 68 5c 83 bd 14 1d 41 bc e9 c6 9a bd 19 6d da 3c
       -0.064141095 -0.011786718 -0.0755747 0.02666335
000370 9c 9b cb 3d ee fe bf bc a6 a4 eb bd 31 74 81 3d
       0.099417895 -0.02343699 -0.115060136 0.0632099
000380 cd 1b 59 3d cb 59 fb bd b8 35 92 3d 1c 5d cf bd
       0.05300503 -0.12272986 0.07139152 -0.10125181
000390 f8 fd b2 bc 9d 88 b0 bd 6c 1f f4 bd 71 36 07 3d
       -0.021849617 -0.08619807 -0.11920056 0.033010904
0003a0 9e 5e 9a 3d 16 5e 93 3d 8c 25 3c 3d c8 2a fb bd
       0.07537578 0.0719568 0.045934245 -0.12264019
0003b0 20 13 b4 3d 47 b1 16 3d 78 b5 dd 3c 48 f2 f0 bd
       0.0879271 0.03679016 0.02706407 -0.117649615
0003c0 fb b7 02 3d 88 73 71 bc 31 e9 1a bd b6 4b 85 3d
       0.03191374 -0.014737017 -0.037820045 0.06508581
0003d0 08 8d 08 bd 60 43 26 3d 28 c7 29 3d 86 42 ee bd
       -0.033337623 0.040591598 0.041449696 -0.11633782
0003e0 08 c8 c8 bd e7 7c 40 3d a3 9f cf bc 5a 1e 9a bd
       -0.09803778 0.046994116 -0.025344675 -0.0752532
0003f0 8e 75 c7 3d 43 4f 2e bd a4 89 fd bd 90 42 fc 3d
       0.09739219 -0.04255606 -0.123797685 0.12317383

net.2.bias f4 [32]
000000 97 5f 0a 3d 6c 83 a3 bd 9f 08 b2 bc 9c c6 a0 bd
       0.033782568 -0.07984051 -0.021732626 -0.07850382
000010 66 9f 8e 3d a9 c5 8f 3d 58 68 67 be 37 27 4e be
       0.069639966 0.070201226 -0.22598398 -0.20132147
000020 24 aa 7e bc 9e 83 9d bd d8 d2 5e bd b8 2b 00 3e
       -0.015543494 -0.076911196 -0.054400295 0.12516677
000030 cb 99 57 3f a1 32 ac 3d fe a9 8a 3d b5 76 7f 3c
       0.84219044 0.08408094 0.06770705 0.015592267
000040 c7 dc 56 3d ce a9 a6 ba b3 5b cb bd 9d 29 e3 3b
       0.052456643 -0.0012715401 -0.099295996 0.006932451
000050 7b f6 0c bc d7 46 65 bd 14 9b d0 3c 09 cb 5c 3d
       -0.008603687 -0.05597576 0.025464572 0.053904567
000060 c6 0a e9 3d 56 83 b4 3e ae bb a2 bd fd 09 99 bc
       0.11379008 0.3525645 -0.07945953 -0.01868152
000070 67 24 ab bc 6d ce 4a bd 41 b0 b3 be cf fd 8d be
       -0.020891381 -0.04951327 -0.3509541 -0.27732703

net.4.weight f4 [1, 32]
000000 4b 2a 16 be 76 0d 68 bd ca d3 e0 bd 6e 6f 0c be
       -0.14664571 -0.056653462 -0.109778956 -0.13714382
000010 61 fc 83 3c 97 c9 cf bd d7 c3 df be dd d3 a9 be
       0.016111555 -0.10145872 -0.437041 -0.3316945
000020 16 7f 0f 3d be ca b5 3b 20 ce d5 3b 29 0c ad bd
       0.035033308 0.0055478504 0.006524816 -0.08449585
000030 68 31 1d 3d b0 cf ec 3b 50 a0 eb bc ca 59 23 3d
       0.038377196 0.0072269067 -0.028762966 0.03988055
000040 81 5a 0a be 4b 32 be be aa 55 85 3d 7d 5d 0f be
       -0.13511087 -0.37147745 0.0651048 -0.14000507
000050 e9 ba 83 bd 18 8b 61 bd 55 c3 03 3d bb 88 c9 3b
       -0.06432135 -0.05506429 0.032168705 0.0061503327
000060 8d d3 2f 3e 9d 94 c0 bb b9 e9 90 3d 5d c6 1f 3c
       0.17170544 -0.005877091 0.07075829 0.009751883
000070 72 59 ed bd 47 de 9a 3c c2 19 91 3c 6a 73 ce be
       -0.11589326 0.018904818 0.017712478 -0.4032243
