Trading_Model/trading_model_GBPAUD.pth (torch, 16650 bytes, 5 tensors)

net.0.weight f4 [64, 20]
0	0xbe39c1de	-0.1814036
1	0x3cd40e0c	0.025885604
2	0xbd9b3b76	-0.07579701
3	0xbdf2fc4b	-0.11864527
4	0x3e192d48	0.1495868
5	0xbd79c219	-0.06097612
6	0xbd9f81e1	-0.07788444
7	0xbe0631cd	-0.13104935
8	0xbe053990	-0.1301024
9	0xbdcac5f2	-0.09901036
10	0xbd764654	-0.060125664
11	0xbe525572	-0.20540407
12	0xbc158f60	-0.009128422
13	0xbe851470	-0.25992155
14	0xbe9389ed	-0.28816167
15	0xbe0991f6	-0.13434586
16	0xbdcf3443	-0.1011739
17	0xbd401cff	-0.046902653
18	0xb96e8ba1	-0.00022749465
19	0xbe6ece7a	-0.23320952
20	0xbe30facc	-0.17283171
21	0x3e022d4d	0.12712593
22	0xbe50a2a4	-0.20374542
23	0xbe09d4ea	-0.13460127
24	0x3e24bdd1	0.16088034
25	0x3e241311	0.16022898
26	0xbe67fc4e	-0.2265484
27	0xbdf04c02	-0.11733247
28	0x3e4a37a9	0.19747795
29	0xbe162aa6	-0.14664707
30	0xbe003f2a	-0.12524095
31	0x3e0c75d4	0.13716823
32	0x3d0ff92a	0.03514973
33	0xbe0d7345	-0.13813503
34	0xbe01c579	-0.12672986
35	0xbe2644c6	-0.16237172
36	0x3d0d9c3d	0.03457283
37	0xbbd818aa	-0.006594737
38	0x3d965829	0.07341034
39	0xbe49760b	-0.19673936
40	0x3dbd11bc	0.09231898
41	0xbd38d29c	-0.045122728
42	0xbd37241b	-0.044712167
43	0x3de51b15	0.11186806
44	0xbe4233a6	-0.18965015
45	0xbe85c26a	-0.2612489
46	0xbc4a4e5d	-0.012347785
47	0x3e0f8d2a	0.14018694
48	0xbe31b11a	-0.17352715
49	0x3d507e97	0.050901975
50	0x3e0646d3	0.13112955
51	0xbd6e3f51	-0.058165852
52	0xbc520019	-0.012817406
53	0xbc944f86	-0.018104326
54	0x3da4e997	0.08052366
55	0x3d883f21	0.06652666
56	0x3d8df411	0.069313176
57	0xbe2775e9	-0.16353573
58	0xbe411bf1	-0.18858315
59	0xbd6306b9	-0.055426333
60	0x3e3e5cac	0.18590039
61	0xbe2ef730	-0.17086482
62	0xbe1881ee	-0.14893314
63	0x3d9aced4	0.075589806
64	0x3dea9208	0.114536345
65	0x3e52526c	0.20539254
66	0xbddc5b69	-0.107596226
67	0x3e0321d2	0.1280587
68	0x3e1c39a0	0.15256357
69	0xbe6442ef	-0.22291158
70	0xbdb619c4	-0.08891633
71	0x3d20e3f0	0.03927988
72	0xbe433d3a	-0.19066325
73	0xbe193df2	-0.14965037
74	0xbe327a6e	-0.17429516
75	0xbd974002	-0.073852554
76	0x3e0524be	0.13002297
77	0x3d7c1e28	0.061552197
78	0xbe36bfa4	-0.17846543
79	0xbe2974ed	-0.1654851
80	0xbd95110f	-0.07278644
81	0xbda3f79a	-0.080062106
82	0x3e1d2ca7	0.15349065
83	0x3c8fffb4	0.017577983
84	0x3dfae38f	0.122504346
85	0xbd893d4f	-0.06701147
86	0xbdb0cb12	-0.086324826
87	0xbe6f7f5a	-0.23388425
88	0x3e2e96ad	0.17049666
89	0x3dadf78f	0.08494484
90	0xbe652e90	-0.22381043
91	0xbd5a7ee9	-0.053343687
92	0xbdaf1a30	-0.08549917
93	0x3cac5b6a	0.021039683
94	0xbe471224	-0.19440514
95	0xbd984e3e	-0.074367985
96	0x3e0498ff	0.12948988
97	0xbe3776d5	-0.17916425
98	0xbe250eab	-0.16118877
99	0x3e1d4418	0.15358007
100	0xbdaad345	-0.08341078
101	0xbe024094	-0.12719947
102	0x3e292b81	0.16520502
103	0xbe729483	-0.23689465
104	0x3dd44b97	0.1036598
105	0xbd7fe941	-0.062478308
106	0xbe2af5fc	-0.16695398
107	0xbe72ca0c	-0.23709887
108	0xbe094f8f	-0.13409255
109	0xbdf9f0b9	-0.12204117
110	0xbe3c81bc	-0.18408865
111	0xbea09aa9	-0.31367996
112	0x3dbe807a	0.09301849
113	0x3dc5f7f3	0.09666433
114	0xbe7c5836	-0.24643025
115	0x3e0559a7	0.13022481
116	0xbe7fe57d	-0.24989887
117	0xbedbb1d9	-0.42909124
118	0xbe8b8a85	-0.2725412
119	0xbcde3d90	-0.027128965
120	0x3cf4e76d	0.029895509
121	0x3e5170dc	0.20453209
122	0x3cdda69d	0.027056986
123	0xbd9233c9	-0.071387835
124	0x3e25244b	0.16127126
125	0xbd550670	-0.052008092
126	0x3dceaf7d	0.100920655
127	0xbe2c2a2f	-0.16812967
128	0xbefca27b	-0.49342713
129	0xbe81c44c	-0.25345075
130	0x3de248ac	0.11049017
131	0xbcbcabc9	-0.023031132
132	0x3e038187	0.1284238
133	0x3e113284	0.14179426
134	0xbec2fffb	-0.38085923
135	0xbd841049	-0.06448419
136	0xbf1bd404	-0.60870385
137	0xbcbb5e09	-0.022871988
138	0x3da08ae4	0.07838991
139	0xbccdeb97	-0.025136752
140	0xbd60a17f	-0.054841515
141	0x3d54c03a	0.051941134
142	0x3d84b898	0.06480521
143	0x3df8824c	0.12134227
144	0x3d80fc59	0.062981315
145	0xbc4d0f93	-0.01251592
146	0xbdd3aa09	-0.10335166
147	0xbe6eb685	-0.23311813
148	0xbca8fbff	-0.020627974
149	0xbe5e8dc6	-0.2173377
150	0xbe1e6c57	-0.15471016
151	0x3d55bc43	0.052181493
152	0x3da8dc69	0.08245165
153	0xbdaf472f	-0.08558499
154	0xbe2cd976	-0.1687983
155	0x3dcb2531	0.09919203
156	0xbe888590	-0.266644
157	0xbdf27899	-0.118394084
158	0x3d8fecdf	0.070276015
159	0x3e06d5fa	0.13167563
160	0x3a3449f5	0.00068774755
161	0xbe0d484d	-0.13797112
162	0x3dbd29a8	0.09236461
163	0x3b7f7001	0.0038976672
164	0xbcc768a6	-0.024341892
165	0x3d524f83	0.05134536
166	0xbe41620f	-0.18885063
167	0x3dd5c853	0.104385994
168	0x3dc0ed79	0.09420294
169	0xbe80c101	-0.2514725
170	0xbd91e6db	-0.0712411
171	0xbdde9649	-0.10868508
172	0x3dade14e	0.08490239
173	0x3de3f421	0.11130548
174	0xbe82b496	-0.255284
175	0xbc021147	-0.00793869
176	0x3d595580	0.053060055
177	0xbdfb71c4	-0.122775584
178	0xbd88b53d	-0.066751935
179	0xbc7a87f5	-0.015291204
180	0xbdbbebde	-0.091758475
181	0x3cf07f8b	0.029357692
182	0x3dcce03c	0.10003707
183	0xbe141d90	-0.14464402
184	0x3dc6dbb5	0.097098745
185	0xbe69a1fc	-0.22815698
186	0xbd0d42bb	-0.034487467
187	0xbd747adf	-0.05968749
188	0xbdb077a9	-0.08616573
189	0xbd5d678a	-0.05405382
190	0x3e390275	0.18067344
191	0x3d891765	0.06693915
192	0x3e74e461	0.23915245
193	0x3d9131bc	0.07089564
194	0xbe0b9033	-0.13629226
195	0x3e90bfcf	0.28271338
196	0xbe360f3b	-0.17779247
197	0x3de77833	0.11302223
198	0xbd74d62e	-0.05977457
199	0xbe305e53	-0.17223482
200	0x3e09a5ec	0.134422
201	0xbdfc5020	-0.1231997
202	0xbebd1d6d	-0.36936513
203	0xbe151b3c	-0.1456117
204	0xbe73748c	-0.23774928
205	0xbd65c463	-0.056095492
206	0x3e0b2ffe	0.13592526
207	0xbe80520e	-0.25062603
208	0xbe085552	-0.13313797
209	0xbd0d88c1	-0.034554247
210	0xbe6426b4	-0.22280389
211	0x3d807f47	0.06274276
212	0xbe1579f1	-0.14597298
213	0x3bd8a9e4	0.0066120494
214	0xbe94fc0c	-0.29098547
215	0xbdfa2fba	-0.12216134
216	0xbd855f23	-0.065122865
217	0x3d73bf93	0.05950887
218	0xbe35b711	-0.17745616
219	0xbe70bcdf	-0.23509549
220	0xbe45783e	-0.1928415
221	0xbd1c9b15	-0.038233835
222	0xbcc0d927	-0.023541046
223	0xbe522246	-0.20520887
224	0x3cb1b3e6	0.021692228
225	0xbd0c32e2	-0.034228213
226	0xbe2c9622	-0.16854146
227	0x3cb05092	0.021522794
228	0x3dc240ed	0.0948504
229	0xbdaac497	-0.08338278
230	0x3dd74f64	0.105131894
231	0xbe1e33dd	-0.15449472
232	0x3d530de3	0.051526915
233	0xbd8a5506	-0.06754498
234	0x3d0a4cdd	0.03376471
235	0xbdfb56a9	-0.122723885
236	0xbe9af4d4	-0.30264914
237	0xbd98d7b4	-0.07463017
238	0xbe6245d4	-0.2209695
239	0xbde3b125	-0.11117772
240	0xbdc21b21	-0.09477831
241	0xbdeb613a	-0.11493154
242	0x3e2051dc	0.15656227
243	0xbe19c786	-0.15017518
244	0xbe4d035c	-0.20020813
245	0x3e153b2e	0.14573357
246	0x3e1a46b1	0.15066029
247	0x3d81c0c8	0.06335598
248	0xbde24ed7	-0.11050194
249	0xbe2fd0d3	-0.17169504
250	0xbe651857	-0.22372566
251	0xbb4d0d84	-0.0031288574
252	0x3d969653	0.07352891
253	0xbe2f244d	-0.17103691
254	0xbe3df12b	-0.1854903
255	0x3be6a51e	0.0070387265

net.0.bias f4 [64]
0	0x3e623583	0.22090726
1	0xbe21eeec	-0.15813798
2	0xbd8c86d0	-0.06861651
3	0xbdcd82c0	-0.10034704
4	0xbe58be52	-0.21166351
5	0x3e4cd148	0.2000171
6	0x3e3ac015	0.18237336
7	0xbdf49962	-0.11943318
8	0xbdb4318d	-0.087985136
9	0x3e94aa78	0.29036307
10	0x3d7917c9	0.0608137
11	0x3e2564cf	0.16151737
12	0xbe319bfc	-0.1734466
13	0x3e0ade68	0.13561404
14	0x3ce51166	0.027962398
15	0xbda20b09	-0.07912261
16	0xbe8e8dc2	-0.27842528
17	0x3d0561be	0.032563917
18	0x3e96cec3	0.29454622
19	0xbd70c09e	-0.058777444
20	0x3d96412c	0.07336649
21	0x3dc283ac	0.09497771
22	0x3e21d606	0.158043
23	0x3e044bb5	0.12919505
24	0xbddafa52	-0.10692276
25	0xbe7e66a3	-0.2484384
26	0xbe643098	-0.22284162
27	0x3ee1dffe	0.44116205
28	0x3e0e1970	0.13876891
29	0xbe09ada9	-0.13445152
30	0xbd21fd5c	-0.039548263
31	0xbe4d8dd9	-0.20073642
32	0xbc846d1a	-0.016165305
33	0xbe2d216c	-0.1690728
34	0xbe77216a	-0.2413384
35	0xbdfc0dd2	-0.123073235
36	0x3e97e508	0.29666924
37	0xbdc846b7	-0.09779113
38	0xbd2a86d5	-0.041632492
39	0x3cdb5886	0.02677561
40	0xbf0d71b4	-0.5525162
41	0xbe06a57e	-0.13149068
42	0xbe0c24d5	-0.13685925
43	0x3db85ab5	0.09001676
44	0xbd100ce7	-0.035168555
45	0x3df0028f	0.11719238
46	0xbe0c5e9f	-0.1370797
47	0x3ddec8f0	0.108781695
48	0xbb5f62e1	-0.0034086036
49	0xbe026459	-0.12733592
50	0x3ca34c99	0.019933986
51	0x3e2a9746	0.16659269
52	0xbd4e3b87	-0.05034974
53	0xbe465510	-0.19368386
54	0xbd470d3f	-0.048596617
55	0x3cfa5211	0.03055671
56	0xbdb303f6	-0.0874099
57	0x3c2ba51b	0.010476376
58	0x3d0cfcc8	0.03442076
59	0x3c517d64	0.012786243
60	0x3dcab69d	0.09898112
61	0xbd8cacff	-0.06868934
62	0x3e5567ca	0.20840374
63	0x3e21722e	0.15766212

net.2.weight f4 [32, 64]
0	0xbda93589	-0.08262164
1	0xbd53fd15	-0.05175503
2	0x3d1b1797	0.037864294
3	0x3d1e8630	0.03870219
4	0x3dbc54f7	0.09195893
5	0xbd86593c	-0.06559989
6	0x3d13ffe8	0.036132723
7	0x3d23f2b5	0.040026385
8	0xbd8bfd4c	-0.06835422
9	0xbd4f3641	-0.05058885
10	0xbd4481c1	-0.047975305
11	0xbd7e52c5	-0.062090654
12	0xbdbfeb3a	-0.09371038
13	0x3dc70bcf	0.09719049
14	0x3de4da80	0.11174488
15	0x3d99d4bb	0.07511278
16	0x3c0fc556	0.008775076
17	0x3d73476c	0.059394285
18	0xbdc2b60a	-0.095073774
19	0x3dbf81c3	0.09350922
20	0xbdae0658	-0.08497304
21	0x3d895f17	0.0670759
22	0xbd88eaa3	-0.066853784
23	0xbd1fda98	-0.039026827
24	0xbd6cc894	-0.057808474
25	0x3dd87d4b	0.10570773
26	0xbbf99e56	-0.007617752
27	0xbd1a9e28	-0.037748486
28	0xbd32519d	-0.043534864
29	0xbd95a2e7	-0.07306462
30	0x3dbe34b4	0.09287396
31	0xbd9426b3	-0.07233944
32	0xbd7ead26	-0.062176846
33	0xbbcf4820	-0.0063257366
34	0x3dec9efd	0.11553762
35	0x3db36214	0.08758941
36	0x3c263fc2	0.010147037
37	0xbd961b15	-0.07329384
38	0x3d9b0697	0.07569616
39	0x3b4254b4	0.0029652538
40	0xbe6a137d	-0.22858997
41	0xbd07b438	-0.033130854
42	0x3d90e13f	0.07074212
43	0xbd79790a	-0.060906447
44	0x3dd8d677	0.10587781
45	0x3cef804f	0.029235987
46	0xbdc22426	-0.09479551
47	0x3c1abf65	0.009445046
48	0xbcbc7ebd	-0.023009652
49	0xbd8d3d8b	-0.06896504
50	0xbd85c15e	-0.065310225
51	0xbd94dc7b	-0.07268616
52	0x3db0a8d5	0.08625952
53	0xbddfa288	-0.10919672
54	0xbc981322	-0.01856381
55	0xbcf6c30d	-0.030122304
56	0x3d1e15e7	0.038595106
57	0x3dbc1e89	0.091855116
58	0xbb4b8834	-0.0031056525
59	0xbd09c056	-0.03363069
60	0x3daff882	0.08592321
61	0x3d6320bc	0.05545114
62	0xbd18b073	-0.03727765
63	0x3d598f39	0.053115103
64	0x3d069268	0.032854468
65	0xbcff6a04	-0.031178482
66	0xbdbf9402	-0.09354402
67	0xbd93f004	-0.07223514
68	0x3d724dca	0.059156217
69	0xbe36d957	-0.17856346
70	0x3dce42a0	0.100713015
71	0x3da77996	0.081774876
72	0x3e0ac58c	0.1355192
73	0xb70aa180	-8.263043e-06
74	0x3d81a429	0.06330139
75	0xbd95f3c7	-0.073218875
76	0x3c71876e	0.014741762
77	0xbd1a89da	-0.03772912
78	0xbdaa60f9	-0.08319277
79	0xbcee6007	-0.029098524
80	0xbdced5af	-0.10099351
81	0xbcbef649	-0.023310797
82	0xbd0d9bb8	-0.034572333
83	0xbd937886	-0.072007224
84	0x3e0ff4f6	0.14058289
85	0x3d1f798c	0.038934276
86	0x3d6bf849	0.05760983
87	0xbe217914	-0.15768844
88	0xbdf159d0	-0.117847085
89	0xbd7878c9	-0.060662065
90	0x3dc5f3df	0.09665655
91	0xbdb7a7f0	-0.089675784
92	0xbd61cbef	-0.055126127
93	0x3cbaf5fd	0.022822374
94	0xbdaf28a0	-0.085526705
95	0xbcab68a7	-0.020923926
96	0xbe1cde9c	-0.15319294
97	0xbdae9584	-0.085246116
98	0xbdc56af0	-0.09639537
99	0xbcda0d11	-0.026617559
100	0x3cfec555	0.031099955
101	0x3daa62e0	0.0831964
102	0x3d2bf779	0.041984055
103	0xbd1e273c	-0.038611636
104	0xbe4d4cb3	-0.2004879
105	0x3e26d6e0	0.16292906
106	0xbc20fc83	-0.0098258285
107	0xbdc89b85	-0.09795288
108	0xbd86f8e6	-0.06590442
109	0xbd24db47	-0.04024818
110	0xbca787b8	-0.020450458
111	0xbdd4ba6a	-0.10387118
112	0x3cec63c3	0.028856164
113	0x3da2f198	0.079562366
114	0x3e1f7218	0.15570867
115	0x3e18fb49	0.14939608
116	0xbdb54f4c	-0.08853015
117	0xbc2bb3b0	-0.010479853
118	0xbd14b051	-0.03630096
119	0xbe30d16b	-0.17267387
120	0xbd9970c9	-0.07492215
121	0xbd1e9d36	-0.038724147
122	0x3dfc487b	0.12318512
123	0xbc858f73	-0.016303753
124	0x3da74044	0.081665546
125	0xbd5d25a6	-0.053990982
126	0xbcb12c34	-0.021627523
127	0xbd53826b	-0.05163805
128	0xbc08a655	-0.008340438
129	0x3d165929	0.036706124
130	0xbd72278a	-0.05911974
131	0xbd1e9724	-0.038718358
132	0xbc588927	-0.013216293
133	0xbdc97bb1	-0.098380454
134	0x3bedbd7c	0.0072552543
135	0x3e025018	0.12725866
136	0x3d2d0efd	0.042250622
137	0xbdf6318f	-0.12021171
138	0x3e257432	0.16157606
139	0xbc6589e1	-0.014009924
140	0x3d6a3004	0.057174698
141	0x3b746325	0.003729054
142	0x3d77b940	0.060479403
143	0xbc2285cc	-0.009919595
144	0xbe02da70	-0.1277864
145	0x3d6b047e	0.05737733
146	0x3dd8781e	0.105697855
147	0x3debc8d1	0.11512912
148	0x3de72632	0.11286582
149	0xbc9e83a0	-0.019349873
150	0xbdae41aa	-0.08508618
151	0xbe171e9e	-0.14757773
152	0x3cc94ab0	0.024571747
153	0xbdea1516	-0.11429803
154	0xbd81f2da	-0.063451484
155	0x3d835cd9	0.06414194
156	0x3da5f8c4	0.08104089
157	0x3d9a4eee	0.07534586
158	0xbd317e5c	-0.043333396
159	0x3d8f7467	0.07004624
160	0x3d6d704c	0.057968423
161	0x3b3e5f00	0.0029048324
162	0xbd6e3046	-0.058151506
163	0xbdb700f6	-0.0893573
164	0x3dc7d33a	0.09757085
165	0x3d9ff15c	0.078097075
166	0xbdb53a7b	-0.08849045
167	0x3d42f43d	0.047596205
168	0xbd071795	-0.032981474
169	0x3e03f2c0	0.1288557
170	0x3b74e88a	0.003737005
171	0xbde74fb5	-0.112945
172	0x3c00751b	0.00784042
173	0x3dc10baf	0.094260566
174	0x3dbf67ae	0.09345947
175	0x3d77e0f0	0.06051725
176	0x3d42f6de	0.047598712
177	0x3cc204a0	0.023683846
178	0x3d403b29	0.04693142
179	0x3cf7af72	0.030235026
180	0x3d9cefcf	0.07662927
181	0x3d510210	0.051027358
182	0x3cc14c8c	0.02359607
183	0xbdeb2a19	-0.11482639
184	0x3d92dacd	0.07170639
185	0x3d883647	0.066509776
186	0xbcced292	-0.025246892
187	0xbd480c0b	-0.04883961
188	0xbd6e7b9c	-0.05822335
189	0x3d23d617	0.039999094
190	0x3cea598e	0.028607156
191	0xbd4d2e47	-0.05009296
192	0xbdf7a5fb	-0.12092205
193	0x3dba425c	0.09094688
194	0xbdca7fed	-0.09887681
195	0x3de55976	0.11198704
196	0x3d812b7e	0.063071236
197	0x3dd70563	0.10499074
198	0x3d31c6c0	0.043402433
199	0x3db5273b	0.08845373
200	0xbda1cbfd	-0.07900236
201	0xbe5604f5	-0.20900328
202	0x3d7a52b9	0.061114047
203	0xbd838c13	-0.064232014
204	0x3da4b27c	0.08041856
205	0xbe04d7c7	-0.12972938
206	0xbdd71edc	-0.10503933
207	0xbc9d59a6	-0.019207787
208	0x3d237b38	0.039912432
209	0x3ddb08db	0.106950484
210	0xbd2d4381	-0.042300705
211	0x3cb2ab80	0.021810293
212	0xbdc1beb3	-0.09460201
213	0xbe1da59d	-0.15395208
214	0x3d132015	0.035919268
215	0xbd56957f	-0.052388664
216	0x3cb6ee80	0.022330523
217	0x3d7f54f4	0.062336877
218	0xbca62310	-0.020280391
219	0xbc50d80e	-0.012746824
220	0xbca1b064	-0.01973743
221	0xbda5a500	-0.08088112
222	0x3de4ab46	0.1116548
223	0x3d5095c4	0.050924078
224	0xbde44992	-0.11146845
225	0xbc88ef38	-0.01671563
226	0x3d5c9d6e	0.053861074
227	0xbd0a8287	-0.033815887
228	0xbda08775	-0.078383364
229	0x3db23d20	0.08703065
230	0xbd1e86c2	-0.038702734
231	0xbe080641	-0.13283636
232	0xbdf516ff	-0.11967277
233	0x3b5bd85a	0.0033545704
234	0x3d054123	0.032532822
235	0xbd046019	-0.03231821
236	0xbc2f515a	-0.010700548
237	0x3ceab8a0	0.02865249
238	0x3d9980b1	0.07495249
239	0xbdf7fbb7	-0.12108558
240	0xbe0ae9eb	-0.13565795
241	0xbc3927a5	-0.011300956
242	0x3dda1e4d	0.10650311
243	0xbd8f28c6	-0.06990199
244	0xbddac421	-0.1068194
245	0x3d1c3378	0.038135022
246	0xbdc67518	-0.096903026
247	0x3d99f282	0.07516958
248	0xba50a4eb	-0.0007959145
249	0xbd4a5520	-0.049397588
250	0x3abb0e6d	0.0014271267
251	0xbde46eab	-0.11153921
252	0x3de166f0	0.11005962
253	0x3dca8c74	0.098900706
254	0xbe2437be	-0.16036889
255	0xbdc14585	-0.09437088

net.2.bias f4 [32]
0	0x3eb24a03	0.3482209
1	0xbd642465	-0.05569877
2	0xbdb402c2	-0.087895885
3	0x3ad23515	0.0016037548
4	0xbd9e56cd	-0.077314
5	0xbd2cbf23	-0.04217447
6	0xbd17930d	-0.037005473
7	0xbe56ba5c	-0.20969528
8	0xbd8e3798	-0.069441974
9	0xbe0aaa98	-0.13541639
10	0x3ea213c5	0.31655708
11	0x3bb28746	0.0054482548
12	0xb9a0a037	-0.00030636947
13	0xbbbfa7c4	-0.0058488566
14	0xbb861a1c	-0.004092468
15	0xbda6fa3d	-0.08153198
16	0xbcd4fad8	-0.025998518
17	0x3d502509	0.05081657
18	0xbcb3bad6	-0.021939676
19	0xbcc5d11c	-0.024147563
20	0xbd9a5746	-0.07536177
21	0xbe297007	-0.16546641
22	0xbd61a21e	-0.055086248
23	0xbbb78b80	-0.0056013465
24	0x3ea17705	0.31536117
25	0xbd7de71b	-0.061987977
26	0x3e54dcc8	0.20787346
27	0xbcd9cd82	-0.026587252
28	0xbd77b6d0	-0.060477078
29	0xbd54d377	-0.05195948
30	0xbd5578d7	-0.052117195
31	0xbd498d17	-0.04920682

net.4.weight f4 [1, 32]
0	0x3e404fd1	0.18780448
1	0x3c61f172	0.013790475
2	0x3c3fa32c	0.011696618
3	0xbdd3c596	-0.10340421
4	0x3e1ee9ab	0.15518825
5	0xbd9f5ae1	-0.07781006
6	0xbda559e6	-0.080737874
7	0xbde57570	-0.1120404
8	0xbc949a8f	-0.018140106
9	0xbd9a720a	-0.075412825
10	0x3e311299	0.1729225
11	0xbdd98708	-0.10621458
12	0x3c60a968	0.013712265
13	0x3c25d35d	0.010121194
14	0xbdd537b1	-0.10411013
15	0xbdc4a74d	-0.096022226
16	0xbc1c7a90	-0.009550706
17	0x3c63afcc	0.013896894
18	0xbd8bce4c	-0.068264574
19	0xbd4077fd	-0.04698943
20	0xbdaa3601	-0.08311082
21	0x3c9701fa	0.01843356
22	0xbc406f10	-0.011745229
23	0xbcb36b47	-0.02190174
24	0x3e28b721	0.16476108
25	0xbe1ea540	-0.15492725
26	0x3dbb0e2d	0.09133563
27	0xbdd95aaa	-0.10612996
28	0xbcf2cfe8	-0.029640153
29	0xbdedce4b	-0.11611613
30	0xbd4272e4	-0.04747285
31	0xbd3a9f3b	-0.04556201
