Trading_Model/BackupModels/trading_model_GBPAUD_19062025.pth (torch, 16650 bytes, 5 tensors)

net.0.weight f4 [64, 20]
00000000: 206d acbb f67a 253e 007c 35bc 3cf7 00bd
00000010: 20b4 353d 6083 093d c4c2 78bd 4446 07be
00000020: 8478 02bd 5690 b4bd 127b 36be 28cc 41be
00000030: d0e6 01bc 8f77 36be 2cb2 06be 6e30 233e
00000040: b029 19bc b8fb 423d 1e3b 24be ae82 b5bd
00000050: 491b 8abe aae7 f53d 53b3 b9bc dd81 f93c
00000060: e872 0dbe 9775 96be 0ba1 863b 7f2a 643d
00000070: 1e2e 91be 1fac 5d3c cfc8 ef3c bfa3 f23d
00000080: 81de ed3d eccc af3c e4be 663d 0eb3 48be
00000090: 5944 ba3d 2f85 0ebe 06f9 7cbe 913f 6fbe
000000a0: 91b9 f83d a5b9 253d 338e b1bd 51f9 aebb
000000b0: 4459 88bc 9f72 383e cdaa 0dbd 7c0f bc3c
000000c0: d269 a53c 23b4 1fbd 59db cabd 4ff4 eb3d
000000d0: fb6a 69be 9b15 d23c 4368 ac3d 67d4 0c3e
000000e0: 4f06 7e3d dc0f f0bd e251 053d ab70 eebd
000000f0: 3033 26be bd5e 55c0 221a 133f 7c76 9a3d
00000100: 6a55 c93d 501f 2f3e 19e8 82be 4876 30be
00000110: f2ce 79bd 51b4 acbd c7b3 a23c 8f72 443e
00000120: b1fd 83be ba8e 81bf f390 a7bf 6853 e6bd
00000130: 5081 a43d c94a 0fbe cce1 85be dfe1 483e
00000140: 0f2b 35bc e74b f4bf 21ad 033d 73ec 193e
00000150: ece6 afbd f293 9f3d 8b63 9abd 78ed aebc
00000160: 84f2 ee3b a818 f13d 3ddc 0ebe 334f 14be
00000170: a1cf 273e d9df 023e f9eb 8bbe e3e4 7bbe
00000180: f519 9d3e 6711 9c3d 3f37 2b3e 9fa3 adbd
00000190: 3614 b5be 5b5e e3bf e4b1 71be 0831 773b
000001a0: e60d 2cbe 464e 993d 153f cb3c f21c 29bd
000001b0: 942c f9bd 09e0 25be 3b9e c4bc 5334 4f3d
000001c0: 29a1 5abe 9848 60bf c955 e7be 1a65 56bf
000001d0: c193 a2be b771 3fbe 5770 193e 32d0 8b3e
000001e0: f4e3 2b3d 815e 2bc0 16a8 28bf 9516 6abe
000001f0: d62e 16be 017e b93d 916c 0b3e c7b2 bfbc
00000200: 34a8 373f e934 123e 28b5 3dbd c3f8 b0bd
00000210: 6bb3 b83d d747 51be 2083 0abf bca8 ca3e
00000220: 0f57 ebbe e464 aebd 48dc 5b3e dcc9 dbbd
00000230: f7b6 a9bc b7ac 72be d8a2 31be dff3 08bd
00000240: cede d7bd 4871 67be 9e72 e3bd 8834 883d
00000250: f5b4 40bd 18ce d2bd d379 77be 0492 99bd
00000260: 21c3 623d bd6f 1c3e 5145 ff3c 89be 02be
00000270: 942f 063e fea8 20be 8ffe 373e e6ce 5ebc
00000280: dc6a 49be 0ac3 b53b b7e2 5bbe 31c6 bf3d
00000290: 8118 4abd d062 00be d56a 1abe 292e 83be
000002a0: a153 afbe 3980 07be da25 033e 99dc 363e
000002b0: 8a54 5ebe d5cb a4bd 85bd 44bd fd21 8cbe
000002c0: b802 e73c a436 16be 0a54 11bc d0a8 283d
000002d0: c70c 95be d88d 00be e821 6dbb 84a3 69bd
000002e0: c2e0 01bd 2432 903c f810 11be 0f14 bebd
000002f0: 7360 06be 340d 003e 151d 5ebe 6675 64be
00000300: 0c13 f7bd 459f 8fbe 84e6 65be 1218 f3be
00000310: 9128 fbbd 77f5 ca3c a0d8 30be e4dd a0bd
00000320: 5be0 013d 323e 3fbe e477 84be 9768 613e
00000330: 3cb1 583e 2103 e4bd 76d2 e73d de3c 653e
00000340: 770b b53e 0af8 0cbc f18b ccbd b26e cd3d
00000350: b872 1dbd 8d68 8a3e 4952 593f c07b 37bf
00000360: 2475 a13e cb4e b7bd 3286 083e 84fb b0be
00000370: a83a cfbd f303 bc3d 0a62 82bd 62ef e93d
00000380: fff2 923d 512b 39be 2199 52be 67fa abbc
00000390: d51f 65be 7da0 cbbd 9771 c1bd a727 f7bd
000003a0: 1bbb 2cbe e11b 48be 3d57 babb 06dd bebd
000003b0: a191 8ebe ed28 59be e381 603e d4b4 153e
000003c0: 487f 76bb ac1e 283e 08e4 cbbc 9133 5e3a
000003d0: d173 abbd cdbf 213e 6611 c13d f8be 103d
000003e0: 57ce 6cbe 494b 25be 7178 1bbc 6a00 933c
000003f0: 3bb0 35be 0d32 3bbe e1cb 6abd be8e 813d
-0.005262032 0.16160187 -0.011076927 -0.03148578 0.044361234 0.033572555 -0.060732618 -0.13210398
-0.031853214 -0.088165924 -0.17820385 -0.18925536 -0.007928565 -0.17819045 -0.13153905 0.15936443
-0.009348318 0.04760334 -0.16038176 -0.08862816 -0.26973942 0.12007077 -0.022668516 0.030457431
-0.13813365 -0.2938659 0.0041085533 0.05570459 -0.28355497 0.013529806 0.029270558 0.11847638
0.11614705 0.021460019 0.05633439 -0.19599554 0.090950675 -0.13917993 -0.2470437 -0.23364092
0.12144769 0.040460248 -0.086697005 -0.0053397794 -0.016644128 0.18012474 -0.034586716 0.022956602
0.02019206 -0.03899015 -0.099051185 0.115212075 -0.22794716 0.025645068 0.08418324 0.137529
0.062017735 -0.11721775 0.032548793 -0.116425835 -0.16230464 -3.3339074 0.5746175 0.0754213
0.098307446 0.17101789 -0.255677 -0.1723262 -0.060988374 -0.0843283 0.019861115 0.19184326
-0.2577949 -1.0121682 -1.309111 -0.11246377 0.08032477 -0.13993372 -0.26148832 0.19617413
-0.011057629 -1.9085664 0.03214753 0.15031604 -0.08588967 0.0779189 -0.075385176 -0.021353468
0.0072920937 0.11772281 -0.13951202 -0.14483337 0.16387798 0.12780704 -0.2732847 -0.24599032
0.30683866 0.07620507 0.16720293 -0.08478474 -0.35366982 -1.776317 -0.23603016 0.0037718434
-0.16802177 0.074856326 0.024810353 -0.04128737 -0.12166706 -0.16198744 -0.024001231 0.05058701
-0.2135054 -0.8761077 -0.45182636 -0.8374802 -0.31753352 -0.18695723 0.1498426 0.27307278
0.04196544 -2.677643 -0.6588148 -0.22860177 -0.14666304 0.090572365 0.13615634 -0.023400677
0.7174103 0.14277996 -0.046315342 -0.086411975 0.09018596 -0.20437561 -0.5410633 0.3958186
-0.45964858 -0.08515337 0.2147075 -0.10731861 -0.020717127 -0.23698698 -0.17347276 -0.0334357
-0.105405435 -0.22601807 -0.11105846 0.066506445 -0.047047574 -0.102932155 -0.24167566 -0.074985534
0.05536187 0.15277 0.031160982 -0.12767996 0.13104087 -0.15689465 0.179682 -0.013599133
-0.1966967 0.005546932 -0.21473204 0.09363974 -0.049339775 -0.12537694 -0.15079816 -0.25621155
-0.3424349 -0.13232507 0.12807408 0.17857589 -0.21711937 -0.080466904 -0.048032302 -0.2736968
0.028199539 -0.14669281 -0.008870134 0.041176617 -0.2911131 -0.12554109 -0.003618354 -0.057040706
-0.031708486 0.017602034 -0.1416663 -0.092811696 -0.1312273 0.12505037 -0.21690781 -0.22310409
-0.1206418 -0.280512 -0.22451216 -0.47479302 -0.12263597 0.02477525 -0.17270136 -0.07854822
0.031708103 -0.1867607 -0.2587272 0.22012554 0.2116136 -0.11133409 0.11319439 0.223865
0.3536031 -0.008604059 -0.09987629 0.10030879 -0.038439482 0.2703289 0.8489118 -0.716732
0.31534684 -0.089505754 0.13332441 -0.3456689 -0.1011861 0.09180441 -0.06366356 0.11422612
0.07175254 -0.1808293 -0.20566227 -0.020993425 -0.22375424 -0.0994272 -0.09445494 -0.1206811
-0.1686825 -0.19541885 -0.005686669 -0.093195006 -0.2784548 -0.21207018 0.21924548 0.14619762
-0.0037612487 0.1641795 -0.024889007 0.0008476312 -0.083716996 0.15795822 0.094271466 0.035338372
-0.23125587 -0.16142 -0.009489165 0.017944533 -0.17743008 -0.18280812 -0.05732334 0.06326054

net.0.bias f4 [64]
00000000: c44b 45be 56c5 37bd b021 85be 31df cd3b
00000010: 9905 983d fdf3 dc3e d05e 363d 11db b3bd
00000020: 2bd1 b73d f77d 373e d220 68bf f7d7 f6bd
00000030: fba9 67bd 33a4 9ebd 9449 4dbe 2604 ae3c
00000040: 0786 2dbe 15df 943d 1722 003e 8b14 d8bd
00000050: 44c9 0abe 38bb 7c3e 2149 f5bd e282 8d3c
00000060: 7a41 27be 8380 dfbc fe04 53be 6439 f6bd
00000070: 4143 00be be32 0b3e aeb9 5ebe 57b7 5ebe
00000080: fbe6 0abe 637c 533e 5102 f53d b087 b63c
00000090: 63b8 27bd 22ce bcbd c3cb 7e3e 030f 6bbe
000000a0: f5df 03be 0228 e7bd c7e4 283c ae8f 08be
000000b0: e042 fcbd 2e25 cb3d 481b a7ba 6e37 c0bd
000000c0: f088 193c 12e2 213e 8463 06bd dae7 0a3d
000000d0: 49db 41bd fcaa fdbd 93c3 46bc 44d6 56bd
000000e0: 643f d6bd 5cbd 3bbf 6516 3fbe e33e 82bd
000000f0: 1bf3 623e 2da9 34be 25d0 fdbd b306 183e
-0.19267184 -0.04486593 -0.26002264 0.00628271 0.07422943 0.43154898 0.044524014 -0.08782018
0.089754425 0.17919146 -0.9067508 -0.12052911 -0.05655859 -0.07746162 -0.20047599 0.021242213
-0.16945659 0.07269112 0.12513004 -0.10550793 -0.13553339 0.24680793 -0.11976839 0.017274324
-0.16333571 -0.027282959 -0.20607373 -0.12022665 -0.12525655 0.13593575 -0.21750519 -0.21749626
-0.13564675 0.20652919 0.119633324 0.022281498 -0.04094733 -0.09219004 0.24882416 -0.22954945
-0.12878402 -0.11286928 0.010308451 -0.1333606 -0.12317443 0.09919201 -0.0012749219 -0.093855724
0.009371027 0.15808895 -0.03280975 0.033912517 -0.047328267 -0.12386128 -0.012131589 -0.052450433
-0.104613096 -0.73335814 -0.18660887 -0.06359651 0.2216305 -0.1764266 -0.12393216 0.14846306

net.2.weight f4 [32, 64]
00000000: c8f6 473d e56b 77bc a532 c7bd b496 0c3d
00000010: 1feb eabd 362b 593d a774 15be 25bc f43c
00000020: bf8c 21be 0c4f 173d 6799 d7bd 6b4b 503d
00000030: cefe 353d b245 763d 8ee4 97bd 893a 543c
00000040: 8047 e13c 2a28 a0bd 0fc2 893d dd19 a83d
00000050: 406d 0b3b 3f83 42be 3a83 1bbc 07cd 683c
00000060: 217d ecbd 0af8 79bd d00d 8fbd 7779 353c
00000070: 2447 87bd 5398 17bd bd8e 713b bbf1 b3bd
00000080: e53e 46bc 1150 8bbd e98c 2abd f600 a9bc
00000090: 34ee e93c 7bed c6bd 78df 03be 0bb2 62bd
000000a0: d69b d4bb a201 e0bd cb96 9f3d 3459 343d
000000b0: 4f8c ec3c 60ee 5e3d 58dc dcbd 8e7a 453d
000000c0: 0ee8 8cbd 1e72 92bd 7638 59bd 1d29 f6bd
000000d0: 9f47 cebd 33b9 bbbc 864f 3f3d 0ced 5e3d
000000e0: 8d0d 923d b560 72bd a07b 0c3d c1b9 233d
000000f0: 5f66 27be 59eb 6c3d 523f 8b3d 74d8 95bd
00000100: 20f7 adbd 7582 5dbd 32c8 773d 7125 733d
00000110: 4fd8 80bc db97 abbd 9d97 e2bc 58f6 f7bd
00000120: 57c6 973c 4555 4bbc 1031 0ebd cb6f 893d
00000130: ddcc 4fbc 79c0 acbc e049 363d ca98 423d
00000140: 9e0a e8bd 6421 aabd 92ae ae3d 1faf d8bd
00000150: b2a1 8b3d 33d1 1dbe 886d e0bd 8675 553d
00000160: 7e2f 0dbe 8f86 49bd 46a7 a1bd bd87 7dbd
00000170: 6d60 943d d286 813d 1a8d a3bc a998 3bbd
00000180: 81fa 66bd eefd a5bc f67e 393d 377c bc3e
00000190: 824b 91bd 86c3 843a 35f8 433d 3109 14be
000001a0: f17f 033d 5ea3 b3bc a7c3 0cbe 2615 e53d
000001b0: f317 ccbd b2d5 4c3d 6393 533d e7aa 5c3c
000001c0: b6ec 12be 54cf 2dbe 3561 29be 1cb0 97bb
000001d0: f50b 12bd ec85 debc d351 8a3d 5edd 23be
000001e0: 8359 fbbd 0d10 80bc 14d3 aa3d 1d08 5fbc
000001f0: ee50 a93d 18d5 ce3d be09 7bbd 063e 89bc
00000200: c003 babc a8e9 ffbd 5507 1ebd d151 10bd
00000210: a043 a5bc 2b09 b6bc 75ca 60bd 3f10 a1bd
00000220: ec15 a8bd c397 52bd 9310 2d3d 7be8 a6bd
00000230: a305 dabd b143 8f3c 4911 8dbd 8dbc 093c
00000240: 18a8 3fbd 2433 a1bd da10 cc3d ac19 de3d
00000250: 8003 993b 81e7 4cbe e0ff 703d cf48 a83b
00000260: 69c0 543c 2f3d 243c 7e9a d7bd 7127 903d
00000270: 1644 2b3e f989 633d 1fa1 c7bd 3a9b c93d
00000280: 2c14 63bc 6b17 a8bd 5777 043d d6a1 853d
00000290: 9d52 6c3d df25 2abd a1b5 31bc 8061 0b3e
000002a0: a5e0 a03d 6cfb aabd 9b2d 57bd 6091 5cbc
000002b0: efc3 0cbd a70d 3cbd ce21 b73d 5083 efbd
000002c0: d736 893c 696a ac3d 77ae 7fbd ac58 f8bd
000002d0: 3bd3 e23c b4d8 c33d 4c57 fcbd f262 70bd
000002e0: 8034 4abc fe5e 943d f097 b3bd 89f3 fe3c
000002f0: 844c 4abe 7453 3f3c c024 633c 1b38 183d
00000300: 4838 d03c a7af 6d3d 4265 4f3d 7be3 8a3e
00000310: 203b a23d 8755 10bd 9289 e43d 448e 343d
00000320: 2d2d 2a3d f00e d6bb 1763 08be e5a6 a93d
00000330: 2e42 473d 89e5 e33c eeb3 103c fb62 883c
00000340: 1e06 90bd 8a7e a13d 4f93 8e3c dacc a4bd
00000350: 2c23 0e3d 8704 d13d f43f 49bd cf5d 7abd
00000360: 714f b83d 8dd1 debd 60e4 a8bd 59bf 7e3d
00000370: 6bef df3d 155f babd 577f cf3c 85ad 34bd
00000380: b345 0ebb f438 c83d 1351 0fbd 0798 6dbc
00000390: 4b11 f83d fd7f 033e d3b9 5fbd df89 153d
000003a0: fdab d9bd 96df 03bd b1fe 91bd 7840 e03c
000003b0: 0b26 aebd b48e 973d 921c 8c3d bd5b c03c
000003c0: 2204 f53c 5829 013e 880e 133d 735b f43d
000003d0: 06ce 983d 766d 1dbc c8cf b7bc c6fb 0a3c
000003e0: ac31 b5bc 1320 0b3f 2007 6b3d b602 e7bd
000003f0: 1f31 0b3e 7e42 5fbd 41ca 833d a028 473d
0.048819333 -0.015101408 -0.097264566 0.03432341 -0.11470627 0.053019725 -0.1459528 0.02987487
-0.15776347 0.03694062 -0.10527306 0.050853174 0.044432454 0.06012506 -0.0741664 0.012953409
0.027499914 -0.07820161 0.06726467 0.08208058 0.0021274835 -0.18995379 -0.009491736 0.014209039
-0.11547304 -0.061027564 -0.069850564 0.011076323 -0.06605366 -0.037010502 0.003685876 -0.08786341
-0.012099956 -0.06802381 -0.04163829 -0.020630341 0.028555967 -0.097132646 -0.12878215 -0.055345576
-0.0064883037 -0.109378114 0.07792433 0.044030383 0.028875498 0.05442655 -0.10784215 0.04821258
-0.068801984 -0.071506724 -0.05303236 -0.120195605 -0.100722544 -0.022915458 0.0467067 0.054425284
0.07131491 -0.05917426 0.034297585 0.03997207 -0.16347645 0.057841633 0.06799187 -0.07316676
-0.08494401 -0.05407949 0.060493656 0.05936188 -0.015728144 -0.083785735 -0.027660185 -0.12107533
0.018527193 -0.012410467 -0.03471476 0.06710776 -0.012683121 -0.021087872 0.044504046 0.047508992
-0.1133015 -0.0830715 0.085293904 -0.10580277 0.0681795 -0.15411834 -0.109583914 0.052114032
-0.13787648 -0.04920059 -0.07893233 -0.06189703 0.07244954 0.06324543 -0.019964743 -0.045799885
-0.056391243 -0.020262685 0.045287095 0.36813518 -0.0709448 0.0010129071 0.04784413 -0.14456631
0.032104436 -0.021928485 -0.1374651 0.11185674 -0.099655055 0.050008483 0.05165423 0.013468481
-0.1434811 -0.1697362 -0.16540988 -0.004629148 -0.035655934 -0.027163468 0.06753888 -0.16002414
-0.122729324 -0.015632654 0.08341041 -0.013612774 0.08267389 0.10099238 -0.061288588 -0.016753208
-0.022706866 -0.12495738 -0.03858121 -0.035234276 -0.020173848 -0.022221169 -0.054880578 -0.07864427
-0.08207306 -0.051414263 0.042252135 -0.08149811 -0.10645606 0.017488332 -0.068880625 0.00840677
-0.046791166 -0.078710824 0.09964152 0.1084474 0.0046696067 -0.20010187 0.05883777 0.0051356326
0.012985327 0.010024353 -0.10527514 0.07038773 0.16725191 0.055551503 -0.09747528 0.0984406
-0.01385979 -0.082075916 0.032340374 0.065250084 0.057695974 -0.041540023 -0.010846526 0.13611412
0.078553475 -0.08348736 -0.052533727 -0.0134623945 -0.034366544 -0.045911457 0.089419946 -0.11694968
0.016749782 0.084187336 -0.062422242 -0.12126288 0.027688613 0.09562817 -0.12321338 -0.05868811
-0.012341619 0.07244681 -0.08769214 0.031121986 -0.19755751 0.011677612 0.013863742 0.03716288
0.025417462 0.058028843 0.050633676 0.2712668 0.079214334 -0.035237815 0.11159052 0.044080988
0.04154699 -0.0065325424 -0.1331905 0.08283786 0.0486471 0.027819412 0.008831961 0.01664876
-0.07032417 0.078854635 0.017404227 -0.08046885 0.03470151 0.10205942 -0.049133256 -0.06112462
0.08999527 -0.108798124 -0.08246684 0.062194202 0.10934337 -0.09100167 0.025329275 -0.044110794
-0.0021709024 0.09776488 -0.034989428 -0.014501578 0.12112673 0.12841792 -0.054620575 0.036508437
-0.10628507 -0.03219565 -0.07128657 0.027374491 -0.0850335 0.07400265 0.06841387 0.023481244
0.029909197 0.12613428 0.03590253 0.11931505 0.07461171 -0.009608617 -0.022437945 0.008482879
-0.022118412 0.54345816 0.05737984 -0.11279814 0.13592957 -0.05450677 0.06435061 0.048622727

net.2.bias f4 [32]
00000000: 7e22 cdbc 9d94 61bd 06db 6cbd b75d a03e
00000010: 46b3 28bd 839d a13e 126d 0dbd a82c 0abe
00000020: 84f5 a8bc 1081 89bd 38b1 6c3e 0749 11be
00000030: b787 cabd f762 0abe c856 d9bd ed5d 403e
00000040: 745b 87be 4638 c8bc 46f4 47bd 6e89 e8ba
00000050: e92c 913e 74ce 2fbd 2818 993d bba7 31bd
00000060: be9f 06be 374a 0ebd 9a35 74bc fd23 913e
00000070: aef5 9bbc 0b01 68bc 4a5c d9bc 7cb4 d6bd
-0.025040861 -0.05507337 -0.057826065 0.313215 -0.041186593 0.31565484 -0.034527846 -0.13493598
-0.020624883 -0.0671407 0.23114479 -0.14188014 -0.09889167 -0.13514315 -0.10612255 0.1878583
-0.2643696 -0.024440896 -0.04881694 -0.0017741153 0.28354576 -0.0429215 0.074753106 -0.04337285
-0.13146874 -0.034738746 -0.014905358 0.2834777 -0.019038048 -0.014160405 -0.026533265 -0.104836434

net.4.weight f4 [1, 32]
00000000: 1093 63bd fc30 bbbc 2d73 eebc 5b52 4e3e
00000010: deb7 92bc b7b7 543e f4e5 c8bd a293 a2bd
00000020: 739d 9f3a e357 5bbd 8aa0 283e 39ef 02be
00000030: 8031 8ebd 6e89 87bd 6895 fbbd 60c6 d23d
00000040: 227f bfbd 0518 53bb 9402 17be dd20 94bb
00000050: 1bae 3b3e f97b 7bbb 93d8 d93c 744d c43d
00000060: 26c1 e8bc 1e30 86bc 73a4 b0ba d7b5 2c3e
00000070: 02a1 0cbe fedd 2abb 22cc 803b 4ade c1bb
-0.05556017 -0.022850506 -0.029107654 0.20148604 -0.01790994 0.20773207 -0.09809485 -0.07938315
0.0012177661 -0.053550612 0.16467491 -0.12786569 -0.06943035 -0.066180095 -0.12284356 0.10291743
-0.093504205 -0.0032210362 -0.14747077 -0.004520519 0.18328135 -0.0038373454 0.026592528 0.095850855
-0.028412413 -0.016380366 -0.0013476744 0.16866241 -0.13733295 -0.002607226 0.0039305845 -0.0059163915
